SCG-SFFL-main/SCG/pretrained_models/activemq.pth (torch, 55195 bytes, 5 tensors)

sage.linear.weight f4 [64, 14]
00000000: 5252 11bf a526 403f a491 44bc 8d4b a6be
00000010: 221a 12bd cda9 d7be ee3f 873e c40d 653d
00000020: 3409 9f3e ec7d 9e3d 419e f9be a464 283e
00000030: 3c64 3a3c bf03 b93d ae7c 8a3e 3815 e0bd
00000040: 84ad a33f 454c 393e 992e 0cbf a72d 1ebb
00000050: bdcb 4f3f f224 b13e 2b00 2ebf 747c 1bbf
00000060: 35d4 643e 14c5 37bf 05b2 58be cf01 31bf
00000070: 8384 75bf 96bf 973e 2161 653e baf8 7e3f
00000080: f308 7abf f5dc 5ebe 9677 1bbe 5749 b23d
00000090: aea9 34bf 068a 0b3f b824 053e 8ce7 983d
000000a0: 4428 913e f893 033e 5904 41bc dfd3 1840
000000b0: e3d2 efbd c437 333d 6e7f 35be f967 9c3e
000000c0: 6a1d 873e 5975 ecbd c5b7 c83d 3fe2 0b3e
000000d0: d661 42bb 5a59 e03c 9f60 ffbd da74 bf3d
000000e0: fb27 d13d 796c b1be d56a 39bf 1e90 6a3e
000000f0: ac33 073f a7e8 a23e 59cd ce3d bcd3 0e3e
00000100: 316f ea3d f344 1f3e b1e8 7ebd 3f71 b53d
00000110: d6f9 14be 6a8b 743f 337f 3dbe 1471 e43e
00000120: fa34 3e3f f072 aabd 6457 e03e c6d1 de3e
00000130: 301b f93d 494a 39be 5bfa 143e e3dd 61bf
00000140: c4b7 8bbe 5ea8 5b3f c781 ac3b 3e42 463f
00000150: 48c0 813c 7348 b43e b362 8f3f 2730 7dbe
00000160: e076 ae3e ddd2 9ebe 91c5 0fbe ed9d 97bd
00000170: 1313 4f3e 2442 06be 4211 fabd 4896 7ebe
00000180: 31e2 acbe f9f1 11bd 08ae 843e 34f7 5a3d
00000190: 47d0 1c3d d510 013e 89af f9be 88e8 c7bc
000001a0: 6a17 8dbe c040 6abf 3773 6e3e d5f7 cdbd
000001b0: 1714 893e 0b13 e73e ecf4 67bc ae00 903d
000001c0: 320d aebc 1e71 ebbc 1bbd 44bf 3550 8fbd
000001d0: fb8a 0c3f 77b1 d33d c38e f1be 04c3 96bc
000001e0: eeb9 5dbc 58fd 59bd b601 773f ac6a 323e
000001f0: f0c6 42bc e19f 58bf e223 d43e 5bb3 3a3d
00000200: b131 273e 7cf2 92b9 7d33 11bd e69b da3e
00000210: 4baf 4e3e c851 a4bd 26a9 21be db42 fdbd
00000220: 6037 99bb 307b b7be 7680 32be a38f 2dbe
00000230: f8c5 3bba 0d33 9339 2c43 3dbb 2b12 b53d
00000240: f4bc 3386 8ee4 6938 2b06 670c c49d 2889
00000250: cb8b 0635 d9c1 68bf 4b97 8501 6470 5e89
00000260: c2bf 980b 834e 91b9 3665 463d 61b5 e73e
00000270: 18c5 64be b8ff 04bf 576f 8d3e e0b2 22bf
00000280: 771b df3d 56c4 0b3f 84c0 da3e 0665 53bc
00000290: 3312 9ebe 8124 ad3e 35cd 11bd a729 163e
000002a0: a1ee 203d 8972 463d 8c76 82bc c248 593e
000002b0: 13a2 fbbd 3fca fbbe cca6 5b3c 2c5a 1f3d
000002c0: 5af7 f4be 7c41 3f3e 91be 7fbd d6ef f23d
000002d0: 1dac 653d 3934 363e 8a9d 5cbd 8a3b 9b3a
000002e0: b3ca 96be d2ce dabc 6fc6 7a3e 2f14 b6bc
000002f0: d8db 21bf 519f 583e b509 4eb9 570d 9cbd
00000300: 18fc 88bd ddae 843e 5328 3abc 8069 a1bc
00000310: f403 063f cdb3 e1be 66f6 4d3f 851e 163f
00000320: 051c 693e 6feb cd3e ff30 0abe fc5b 47bf
00000330: 33d7 46be f029 6ebf 1c92 c3bd b433 4c3e
00000340: c714 8c3e 6e42 733e 49a1 dfb7 90df 87bf
00000350: 8149 63b2 0a57 5137 f527 12ad 48ed 1c39
00000360: 5c4c 8838 4c3e d4af 5cb9 1fbc 04b9 83be
00000370: bbc7 89be b001 743a f4c4 203d 6348 173e
00000380: 14d9 54bb c1cd b2bd 4480 03bc 7c5a e7be
00000390: 5bf2 7331 6bc3 e9bc a261 0cb7 08d4 be3c
000003a0: 9459 91be f5a3 f2ba 903f 07bf 1245 c2be
000003b0: 24dd c1be ac72 023f f79b 1f3e 0ff4 853f
000003c0: c25f 173f 5477 7cbd 58d6 d6be 0c21 d13e
000003d0: d53a 0a3f 5ac4 c03e 19eb e73e ab4f 1abf
000003e0: 8de6 533e 77f8 9e3d 2309 1cbe e97d 073f
000003f0: b1ed 113e fe24 40bf ae3a 223f 7f3f 833f
-0.56766236 0.75058967 -0.011997614 -0.32479516 -0.035669453 -0.42121735 0.26415962 0.05592133
0.3106171 0.077388614 -0.4875355 0.16444641 0.011376437 0.09033918 0.27048248 -0.10941547
1.2787328 0.18095501 -0.547586 -0.0024136098 0.81170255 0.345985 -0.67969006 -0.60736775
0.22346576 -0.7178509 -0.21161659 -0.69143385 -0.9590532 0.29638356 0.22400333 0.99598277
-0.97669905 -0.21763976 -0.15182337 0.08705395 -0.7057141 0.5450748 0.13002288 0.07466039
0.28351033 0.12849414 -0.011780822 2.3879316 -0.11710145 0.043754354 -0.17724392 0.30548075
0.2638963 -0.1154582 0.09800676 0.13660525 -0.0029660366 0.027386356 -0.12469601 0.093484595
0.10212704 -0.3465307 -0.7242864 0.22906539 0.5281322 0.31818125 0.10097761 0.13947958
0.11446989 0.15553646 -0.06223363 0.088594906 -0.1454843 0.9552523 -0.18505554 0.44617522
0.74299586 -0.08322704 0.43816674 0.4351942 0.12163389 -0.18094744 0.14548628 -0.882292
-0.2728864 0.8580378 0.005264494 0.7744483 0.015838757 0.35211524 1.1201996 -0.247254
0.3407507 -0.3102025 -0.1404021 -0.07403169 0.2022212 -0.13111168 -0.12210323 -0.24862015
-0.3376632 -0.035631154 0.25914025 0.053458408 0.038284566 0.12604077 -0.48766735 -0.024402872
-0.27556926 -0.9150505 0.23286138 -0.10057036 0.2677314 0.45131716 -0.014157515 0.0703138
-0.021246526 -0.028740462 -0.7685105 -0.0699772 0.5489957 0.10336583 -0.4717923 -0.018403538
-0.013533099 -0.053220123 0.96486986 0.17423505 -0.011888251 -0.84618956 0.41433626 0.045581203
0.1632755 -0.00028027955 -0.035449494 0.42697066 0.20184056 -0.08023411 -0.15787181 -0.12366267
-0.0046757907 -0.35836172 -0.17431816 -0.16949324 -0.00071629835 0.0002807606 -0.002887915 0.08841356
-3.380498e-35 5.5764387e-05 1.7797449e-31 -2.0296445e-33 5.0122316e-07 -0.9092079 4.907358e-38 -2.6775124e-33
5.8836795e-32 -0.0002771505 0.048436366 0.4525557 -0.2234081 -0.51952696 0.27624008 -0.6355419
0.108939104 0.5459646 0.42725003 -0.012902504 -0.3087326 0.33816913 -0.03559609 0.14664327
0.039290074 0.048449073 -0.015925668 0.21219161 -0.122867726 -0.4917774 0.013406467 0.038904354
-0.47844964 0.18677324 -0.062437598 0.11862151 0.056072343 0.17793359 -0.05386118 0.0011843306
-0.29451522 -0.026709948 0.24489759 -0.022226421 -0.6322608 0.21154524 -0.00019649307 -0.07619732
-0.06688708 0.2591466 -0.011362153 -0.019703627 0.5234978 -0.4408249 0.804541 0.5864032
0.22764595 0.40218684 -0.13495253 -0.7787473 -0.1941803 -0.9303274 -0.095493525 0.19941598
0.27359602 0.2375581 -2.6658776e-05 -1.0615101 -1.3229852e-08 1.2477636e-05 -8.308011e-12 0.00014965713
6.4992084e-05 -3.860684e-10 -0.009748783 -0.25727093 -0.26910195 0.0009308113 0.03925033 0.14773707
-0.0032478021 -0.08730651 -0.008026186 -0.45186222 3.5498917e-09 -0.028535565 -8.367382e-06 0.023294464
-0.28388655 -0.0018511998 -0.52831364 -0.3794332 -0.3786403 0.50956225 0.1558684 1.0465106
0.5913049 -0.061637238 -0.41960406 0.40845525 0.5399602 0.37649804 0.45296553 -0.60277814
0.20693417 0.07762235 -0.1523786 0.529265 0.14250828 -0.75056446 0.6337079 1.0253752

weight f4 [64, 64]
00000000: 7ecf 08bc d938 0f3d 4269 90bb 24ce a83b
00000010: 2821 47bc f854 13bd 4668 c7bc 0294 85bc
00000020: 5484 36ba 4970 2b3d 3d3a 2d36 a854 4abc
00000030: ee43 0bbc 8800 b1b8 044c 14bb d4fa 8626
00000040: 4aa6 de33 4209 46bc ff89 4abc aec9 ab8d
00000050: c84b 983c 5dc2 8f3a e657 0eba 991a 5ebc
00000060: e57f 1dbd 07c3 f5bb ddd2 2cbc 7b65 0fbd
00000070: 1f88 8a85 8ad4 38bc 136d 53bc 36e5 1f3b
00000080: 75bc a53c 7c09 823a a8df 1e3c 1765 82bb
00000090: 6ff9 e93b a0bc 3c3a c403 08ba 6ba9 6fbd
000000a0: 0e61 f0bb 4c83 173d 797d 233c f5a6 5eb9
000000b0: 4599 1e3d ba02 95b8 8637 54b9 9a3f 223b
000000c0: a824 81bd bbeb 81bc 4c6c c096 ef5e 99bc
000000d0: e198 edbc ee8d 0bbd 90f6 38bc bc2c 5bbb
000000e0: 1431 713d 4531 c43b 4fe9 fabc 0415 efba
000000f0: 213b 03ba 4967 223d 24c3 4189 95c0 8b3b
00000100: e04e c03a 43c1 05bd 3333 e0bc f0e2 bcbc
00000110: 3a6d 983c 03ae 8b3d 693b 3cbc 4d6d 873c
00000120: a08e 853a 6743 2abc e209 4db3 0152 fc3b
00000130: fc56 a63b 161c 3339 1772 3e3d 7373 fa23
00000140: 934f 1a34 21d4 48bb 1d47 5fbc 0993 1a04
00000150: d4f3 863b faa9 25bc 1ad9 0d3c d2b6 b73c
00000160: d052 183d 7573 873c a392 9b3c 5172 6e3c
00000170: 6976 3006 cc31 98b9 30e6 f53c 2bdd 0cbd
00000180: ab10 44bd 4472 e2b8 6056 5bbc 4c0e 16bc
00000190: ca0d 7cbc 2a48 01bd bf58 67bd 9563 983d
000001a0: f8f2 4b3c b2d3 cbbc b946 b3bb e40c 7239
000001b0: 5bf4 0abd 6908 bb39 49f8 fcb8 7fb0 8cbc
000001c0: 67c3 193d f89d a83c 0a43 f584 2f8a 603d
000001d0: 99a4 2e3d 1c75 343d 850e 1a3d ce81 253b
000001e0: 4c5d b0bc 4e66 1ebd 85f3 453d dfe6 b23a
000001f0: 3237 923a 080f 733c 2bff a384 6ac4 ba3a
00000200: 3e84 08bd bb2b ec3c 4a1d a23d a185 8abd
00000210: 0579 6abc a553 c3bd 955a 27bc 485c 16bc
00000220: 295a 44ba 210b 88bc d799 deb5 05b4 ecbc
00000230: c925 8e3c b80a 37b9 e173 5fbd 4cfd 18a7
00000240: a77c 02b5 5546 6bbd f7e9 1f3d cc71 0183
00000250: b2e2 c9bc 790f 233d 4c8b 4dbc 1ae6 8dbc
00000260: 4168 70bc fb47 9ebc 38fd 4ebc ccb6 ab3c
00000270: 7e87 a08e 5b7a 643c ee92 d4bc d38a 583d
00000280: eebc 973d 4d8a 60ba 90ab a93c b306 243d
00000290: 8e30 563c 733b 7c3d bd3f e23c 909c 04bd
000002a0: 0747 74bb 2fbc 24bb 1272 fb3b 161e 72b8
000002b0: 4254 6f3d ef9c 8dba b38c d939 2162 533d
000002c0: 0b5d 1abd 6916 c83c 00b1 358b a25a 8dbd
000002d0: 8348 b1bc 644d 9a3c 2c97 1ebd 7ca5 d2bb
000002e0: 8432 35bd 4638 993c 72eb d4bc f2de b8bc
000002f0: 50cd 74ba 52b7 47bc 3b79 0c85 cb81 cebb
00000300: 085c 62bd e32f d03d 7fc5 bd3d 984f b1bd
00000310: fd5d fdbc 6b94 2abe 32cb 93bc 4eb6 04bd
00000320: 413e d7ba 90ee ef3c 0b65 6735 e925 5cbd
00000330: 1fea 3c3c 1f85 aeb9 f942 82bd 962e 1c26
00000340: 1aa9 9eb4 b806 acbd 8edd f93c ce19 e09c
00000350: ed99 2cbb 08f9 4b3d 756b 41bc abc6 1dbd
00000360: 1173 8bbd a2a2 10bd e5d0 ccbc 17b3 a2bc
00000370: 024c 758c 796b 02bb adeb 42bd 07ad 663d
00000380: fe07 f53d f02f 073a 70a8 273d e5f9 053d
00000390: 2814 b93c 6a45 9b3d 52f9 5b3b d34e e9bd
000003a0: d9c0 51bc e43f 2b3d 6ea7 e43c e760 b8b9
000003b0: a96b d23d e4f3 64ba b32c a539 64a6 a33d
000003c0: dced 07be 4fe7 4a3c 7ac5 4697 53e5 d9bd
000003d0: 2c93 6cbd 8372 a5bc eca8 75bd 35a2 52bc
000003e0: b3a4 833c bc7a b33c 71c1 94bd 3823 f1bc
000003f0: a698 e0ba a83c e03c b103 db1f a0f1 fbba
-0.008350251 0.034966324 -0.004407079 0.005151527 -0.012153901 -0.035969704 -0.024341714 -0.016305927
-0.00069624675 0.04185513 2.5812908e-06 -0.012349285 -0.008500082 -8.440117e-05 -0.0022628317 9.366105e-16
1.03679284e-07 -0.012087168 -0.012362002 -1.0587241e-30 0.018590823 0.0010967959 -0.0005429968 -0.013556146
-0.038452048 -0.0075000557 -0.010548321 -0.03500889 -1.302746e-35 -0.011281142 -0.012904423 0.0024398095
0.020231465 0.000992104 0.0096968785 -0.003979336 0.0071403305 0.0007199738 -0.00051885494 -0.05851118
-0.0073357886 0.03699045 0.0099786455 -0.00021233766 0.038720388 -7.1053815e-05 -0.0002023858 0.0024757148
-0.0630582 -0.015859475 -3.1087618e-25 -0.018722026 -0.029003562 -0.0340709 -0.011289254 -0.0033443412
0.058884695 0.0059873187 -0.030628828 -0.0018240516 -0.00050060643 0.03964928 -2.3323285e-33 0.004264901
0.0014671944 -0.03265501 -0.027368164 -0.023057431 0.01860677 0.068202995 -0.011488774 0.01653161
0.00101896 -0.0103920465 -4.773927e-08 0.0077002053 0.0050762873 0.00017081233 0.046495523 2.7153949e-17
1.4371317e-07 -0.0030644017 -0.013627795 1.8170128e-36 0.004118422 -0.010111326 0.008657718 0.022426043
0.03718835 0.016534546 0.01899082 0.014553622 3.3188915e-35 -0.000290288 0.030016989 -0.03439061
-0.04786746 -0.000107978034 -0.013387293 -0.009158682 -0.015384147 -0.03156296 -0.05648112 0.07440869
0.012448065 -0.024881218 -0.0054710773 0.0002308372 -0.03392444 0.00035673685 -0.00012062543 -0.017174004
0.037539866 0.020583138 -5.766079e-36 0.054819282 0.04263744 0.044056997 0.037611503 0.0025254372
-0.021528862 -0.038671784 0.04832794 0.0013649127 0.0011155366 0.014835127 -3.855545e-36 0.001424921
-0.03332924 0.028829446 0.07915743 -0.06763769 -0.01431108 -0.09537438 -0.0102144675 -0.009177275
-0.00074902416 -0.01660687 -1.6585062e-06 -0.028894434 0.017352002 -0.00017456233 -0.05455387 -2.123155e-15
-4.8610167e-07 -0.05744012 0.039041486 -3.8040325e-37 -0.02464423 0.039809678 -0.012545418 -0.017321635
-0.014673294 -0.019321432 -0.012633614 0.020961188 -3.957352e-30 0.013945187 -0.025948968 0.052866768
0.07409082 -0.00085655303 0.02071169 0.04004545 0.0130731 0.061580133 0.027618283 -0.032375872
-0.003727378 -0.002513658 0.0076735104 -5.7725316e-05 0.058429964 -0.0010804216 0.00041494294 0.051607255
-0.03768639 0.024424748 -3.4992492e-32 -0.069020525 -0.021641022 0.01883573 -0.038718387 -0.0064284187
-0.04423763 0.018703591 -0.025991175 -0.022567246 -0.0009338455 -0.012189703 -6.605035e-36 -0.0063020936
-0.05526355 0.10165384 0.09266185 -0.086577594 -0.030928606 -0.1665818 -0.018041227 -0.03240042
-0.0016421751 0.02928856 8.620124e-07 -0.05374709 0.011530428 -0.0003328705 -0.0636043 5.418651e-16
-2.955283e-07 -0.08399719 0.030501153 -1.4829747e-21 -0.0026336864 0.04979804 -0.011805405 -0.038519543
-0.068090566 -0.03531135 -0.025001952 -0.019860787 -1.8896986e-31 -0.0019900484 -0.04758804 0.056317355
0.11964415 0.00051569846 0.04093212 0.03270902 0.022592619 0.07581599 0.0033565355 -0.11391988
-0.012802326 0.041808978 0.027911868 -0.00035167413 0.10274441 -0.00087338523 0.00031504556 0.07990721
-0.1327433 0.01238425 -6.42265e-25 -0.10639443 -0.05775754 -0.020196205 -0.05997555 -0.012856056
0.016069746 0.02190911 -0.072634585 -0.029435739 -0.0017135337 0.027372673 9.2756215e-20 -0.001922179

encoder.sage.linear.weight f4 [64, 128]
00000000: 31d5 0cbd 3c64 55be 840f 17be a688 3bbd
00000010: 1145 14bb 0acb 12bf 04cf de3b 3b7c 04bb
00000020: dc02 bab9 c4e9 c03f de2d 4cbc 4a08 793c
00000030: 4f78 8cbb 9a2c 23bd 0a95 27bd 1e2e 00b6
00000040: 250d d4b0 6251 8bbd fd11 68bf d470 62b6
00000050: 8d21 17bc b7d2 05bd 2f87 12bc f38d ce3d
00000060: b08b f4be 38b7 1cbf f2c7 c4bb d389 4d3e
00000070: f5a5 893e f3d8 fa3e 3648 a8bc 109a 0cbd
00000080: d29c 29be 3a42 e9bc 3550 79bd 4fd0 8e3c
00000090: f124 d2bf 584d a8bc 003b 2abd 2361 b43b
000000a0: c690 ffba 2466 eb38 14c8 4fbd 3aa2 8238
000000b0: 9eb8 d9bc 564c 803b 460f 91b6 2ed2 353c
000000c0: 6bd6 1ebd fdcf febb 4c90 c9b8 4b75 d33b
000000d0: fb5e e3bc be42 33bc ad4a 8ebc 1f51 9cba
000000e0: 8df6 c7bc 3cbe 0bbc eef6 e33c 1ff9 b7bd
000000f0: 864b 473a bbe8 2bbc 23ee 31bc b858 39bb
00000100: be5f c93c 569e 1b3e 937e 633c 2174 093c
00000110: be49 e33b de2a a63c 5e15 33be 7dbd 89bc
00000120: eedc d7bd e6eb ec3b 0b52 d5bb c557 07bc
00000130: ef63 663c 8a56 e5bc 874b eebd 5fca 7ab9
00000140: b9ad 23be e74b 4abc 4ce8 b9be ff22 1a3d
00000150: 7cee b23c d1fb 383b 7161 a03c 6d29 a93d
00000160: 9441 51bc 1ea1 a1bb 5fa3 23be c05d aa3c
00000170: de74 debe d016 713a 227a 76ba cf7d 2e3e
00000180: 4d12 bd3c b758 66bd 0aab c93e 6f9f a13e
00000190: c67a 233b 06ec bb3a 9e60 f43d 74ba 2040
000001a0: 7eb1 903c bf3d c73b c73f 973c ab34 81bb
000001b0: a7fe c13c 0ed6 953d 9dce ad3e 84c3 023e
000001c0: df8e c4be 3a95 833f c2c5 6090 7dbf cc3e
000001d0: d4a8 293d 5907 763e a278 fc3d 0b61 5cba
000001e0: 9876 edbd ff63 d8bc 5bb5 ac3c 4ddc 8a3b
000001f0: 005b 573b 2fd4 533f b0f9 dabd 0c2b c2bc
00000200: 5adf 31bd e8e5 09bc 8b09 ea3b ac3a 91bd
00000210: 1ad8 8ebb 6bbf af3c ca15 e73f 99a1 8bbf
00000220: 28cd 6cbc b111 96bd b246 32be 28af 12bd
00000230: 613e 303e aaae e2b7 d156 13bd 5d28 0dbf
00000240: 7bb7 0cb8 a6e9 f3bc 987b e9bd e82e 39b9
00000250: 1648 e2ba 3570 29be 999c 3a3a 267d 73bc
00000260: a72f debc e987 1140 b34a 81bc 5dfc 723f
00000270: 972a 01bf 4545 bdbd c77b 923d 7f9b 85bb
00000280: 66f9 84bd e4b5 023f 66af 1cbe 90c6 b2bd
00000290: 95af 48bd 84e7 c2bc 5ca8 62bd d572 01bf
000002a0: 500d b3bd 7bca 233c a199 7cbd 3439 f1b8
000002b0: efc9 41be 9a03 a2bd 4325 b5be ede2 59be
000002c0: d045 7dbd 5348 8dbd ff5f 87bd 1007 9a3d
000002d0: 5431 933d 3616 c1bb 4ff2 17bf 337c b2bc
000002e0: 0a0f 21bc 9ad9 39bd da3c bc3c 7296 9ebb
000002f0: 3b54 6b3a 3d6e c83d c568 e539 1c53 b4bc
00000300: 2bb2 873a 99ad c4bd a8d4 143c c2ec c5bc
00000310: 7c4e 1d3d 96cd 8abd eb6e 47be 2d91 bdbc
00000320: 5853 cb3c a4da 83bf 8b77 9a3e 6e7d 81bd
00000330: be3b 3e3c 62a6 433a a259 153b 8c9c 4c3e
00000340: a039 2f3f cbd3 83bd f806 5dbe 3428 ca81
00000350: d688 0ab9 721b 95bd 7251 49be 72b6 6cbd
00000360: 7529 4a3f 95fc ebbb 6625 98be 136a 15be
00000370: a44c 813d 7de3 3a39 793e 1cbd 857d 0dbe
00000380: 5db9 b93c 0de1 7bbc 29a0 d93c 2378 7d3e
00000390: 31f6 ef3c a0fb 64be dc82 63bc 27d5 3a3f
000003a0: e780 aa3c d990 4ebe f2a9 4d3c 6543 993d
000003b0: d2f7 053e 7a52 beb9 cc11 81bb ff32 e13d
000003c0: aacf 5a3f 0eac 0a3e 66ad 59bc cd3f 163c
000003d0: 2277 773e 66cd fc3c 0ff2 83bb 00bd 653e
000003e0: 7324 8bbc 2219 c3be 0eb4 b33e 59a9 1fbc
000003f0: 63bc 6e3b fb77 24be 549d 693f d64f b339
-0.034383003 -0.20839018 -0.14752012 -0.045784615 -0.0022624175 -0.57341063 0.0067995805 -0.0020215649
-0.00035478815 1.507134 -0.012462107 0.01519973 -0.004286803 -0.039837457 -0.04091362 -1.910033e-06
-1.5428766e-09 -0.06802632 -0.9065245 -3.37423e-06 -0.009224308 -0.032671656 -0.008943363 0.100856684
-0.47762823 -0.6121707 -0.0060052807 0.20072107 0.26884428 0.48993644 -0.020542245 -0.034326613
-0.16563728 -0.028473962 -0.060867507 0.017433314 -1.6417524 -0.020544693 -0.041560173 0.0055047437
-0.0019498102 0.000112246984 -0.05072792 6.2291e-05 -0.02657729 0.00391535 -4.323115e-06 0.011097474
-0.038778704 -0.007776259 -9.611304e-05 0.0064531914 -0.027755251 -0.010941206 -0.017369593 -0.0011926031
-0.024409557 -0.008529242 0.027827706 -0.08983063 0.00076025014 -0.010492499 -0.010859999 -0.002828164
0.024581786 0.15197119 0.013885158 0.008389504 0.006936281 0.020284113 -0.1748862 -0.016813988
-0.10540186 0.0072302697 -0.0065100244 -0.008260672 0.014061912 -0.027995367 -0.116354994 -0.00023917247
-0.15984239 -0.012347198 -0.3631004 0.03763103 0.021842234 0.0028226266 0.019577714 0.082598545
-0.012771983 -0.0049325367 -0.1598029 0.020796657 -0.43448538 0.000919682 -0.00094023545 0.1704018
0.023080016 -0.05623695 0.39388305 0.3156695 0.0024945005 0.0014337308 0.11932491 2.5113802
0.01766276 0.0060803588 0.018463029 -0.003943046 0.023680998 0.07316218 0.33946696 0.12769896
-0.38390252 1.0279915 -4.4328558e-29 0.39989844 0.041420773 0.2402624 0.123276964 -0.00084067945
-0.115948856 -0.02641487 0.02108257 0.0042376877 0.0032860637 0.8274564 -0.10692155 -0.023702167
-0.043425895 -0.00841663 0.007142251 -0.07091269 -0.0043592574 0.02145358 1.8053524 -1.0908691
-0.01445321 -0.07327593 -0.1740978 -0.035811573 0.17211296 -2.7022634e-05 -0.035971466 -0.55139714
-3.354948e-05 -0.029774498 -0.11400527 -0.00017660449 -0.0017263915 -0.1654671 0.0007118672 -0.014861381
-0.027122332 2.2739203 -0.01578269 0.94916326 -0.5045561 -0.09241728 0.07152515 -0.0040773745
-0.064928815 0.51058793 -0.15301284 -0.08729279 -0.048995573 -0.023792036 -0.05533634 -0.50565845
-0.087427735 0.009997006 -0.06166995 -0.000115024304 -0.18924688 -0.07910843 -0.3537999 -0.21277972
-0.061834157 -0.068985604 -0.06610107 0.07520878 0.07187143 -0.0058925403 -0.5935411 -0.021787738
-0.009830246 -0.045373537 0.022978235 -0.004839712 0.000897709 0.09786651 0.00043756343 -0.022012286
0.0010352781 -0.096034236 0.009083904 -0.024160746 0.038404927 -0.06777494 -0.19475906 -0.023140514
0.024820015 -1.0301099 0.3016933 -0.06322752 0.011610923 0.00074634526 0.002278902 0.19981593
0.68447304 -0.06436881 -0.2158469 -7.426077e-38 -0.00013211681 -0.072806254 -0.19659975 -0.05779118
0.7896951 -0.007201741 -0.29716033 -0.14591245 0.06313446 0.00017823088 -0.038145516 -0.13817413
0.022671396 -0.0153734805 0.026565628 0.2475286 0.029292198 -0.22361612 -0.01388618 0.72981495
0.020813419 -0.20172442 0.012552725 0.074835576 0.13082817 -0.00036301074 -0.003938889 0.10996055
0.8547312 0.13542196 -0.01328597 0.009170485 0.2416654 0.03085966 -0.0040266584 0.22435379
-0.016985154 -0.38105112 0.35098308 -0.0097449655 0.0036428205 -0.16061394 0.9125569 0.00034201023

linear.weight f4 [2, 64]
00000000: 1a9d 60bb 485c 8fbd e8ce 2d3e b99b 013d
00000010: 2ee6 fb3e a769 e2bd 96e9 2abd dade 463e
00000020: 984f 38bb 180e 583e 5cfe bbbe a8d2 c73e
00000030: ad79 c8be 4b35 bfbd 01e7 b4bc 22ca 013d
00000040: 861a a83d 49c8 fb3e fe7e 103e f118 4bbc
00000050: e59e d0bd 0ad2 313f 747f a83e b30f 563e
00000060: 81b8 103e b082 823d bb4b 963e c370 a83b
00000070: 745a 8b3b 5023 c0be 2867 d33c 4ae9 433d
00000080: 0752 5e3d df1e f7bd a8a3 1f3c 8f36 2fbd
00000090: 2817 683e 25bd 573e e49e 3dbe 80f0 f93e
000000a0: ebe5 e63e b85e cf3e d48b 48bc 2bc0 03bd
000000b0: a258 373e f69f 2e3e d92e 653e 588c 73be
000000c0: be86 443e 1f5a 5c3f 4253 9b3d be78 a23d
000000d0: 2c1c 7a3e f533 39bc b73f 1fbe 0f4c 713e
000000e0: 864d 9ebc d740 7e3d 6ffe 973e 507c 233d
000000f0: 877a d8be b4d5 83bd 4058 51be 2d87 9e3c
00000100: 7046 a93d 30b1 0f3d 243a 34be a0f9 323d
00000110: 5d56 ccbe 1955 bc3d a86e 343d 3c5a 44be
00000120: 35fe 373b ed92 82be 6f78 823e e4a4 b8be
00000130: 0d00 c33e 70c4 be3d 0d58 0abc de6d d5bd
00000140: 66ea 0c3d 9e07 08bf ab70 c8bd 2ab3 fa3d
00000150: a766 ca3d ea5e 39bf 5a94 b8be febf 89be
00000160: ae20 4dbd 769e 82bd 8abe b0be 22b7 a8bb
00000170: 1302 c63d 92e7 c53e 5363 d7bc 4e43 d5bd
00000180: f0db 3dbd 9963 c73d e3e6 1fbc c916 bb3c
00000190: 8456 86be db55 59be cfc3 0d3e 96c8 f6be
000001a0: ad90 fbbe f168 b6be 53b9 e33b 02ca 053d
000001b0: f071 75bc 3e45 3dbe 8ec4 42be d407 8e3e
000001c0: b4d5 f2bc bc9a 62bf 4440 0dbb fb5d 51bd
000001d0: 0eb1 0bbe c7fc 4bbc ab9e 133e 7a30 70be
000001e0: e906 7dbc 6f28 843d 2733 10be 25f4 033e
000001f0: 7fe3 d93e 18f9 063b b755 803e f3a6 5ebc
-0.0034273327 -0.07000023 0.1697346 0.03164265 0.4919905 -0.11055308 -0.04172667 0.19420949
-0.0028123613 0.21099126 -0.36717498 0.39027905 -0.3915533 -0.09336337 -0.022082807 0.03168691
0.08208184 0.49176243 0.14110944 -0.012396083 -0.10186557 0.6946112 0.3290974 0.20904426
0.14132883 0.06372583 0.29354653 0.0051403954 0.004252726 -0.3752694 0.025806025 0.047829904
0.054277446 -0.12066435 0.0097436085 -0.04277664 0.22665083 0.21068247 -0.18517643 0.488163
0.45097288 0.40501952 -0.012240369 -0.032165688 0.17904904 0.17053208 0.22381152 -0.23784006
0.19192025 0.86075014 0.075842395 0.07933186 0.24424809 -0.011303891 -0.15551649 0.2356417
-0.019324075 0.062073555 0.29686305 0.039913476 -0.4228098 -0.06437245 -0.20443821 0.019351566
0.08265388 0.03508109 -0.17600304 0.043695092 -0.3990964 0.091959186 0.044050843 -0.19175047
0.0028075103 -0.2550272 0.2548251 -0.36063302 0.38085976 0.09314811 -0.0084438445 -0.10421346
0.034403227 -0.5313662 -0.09787115 0.12241204 0.09882861 -0.7241045 -0.36050683 -0.2690429
-0.050079994 -0.0637788 -0.3452037 -0.0051487843 0.096683644 0.38653237 -0.026292479 -0.10413228
-0.046352327 0.097357936 -0.0097596375 0.022838013 -0.2623788 -0.21224158 0.13844226 -0.4819991
-0.49133816 -0.3562694 0.0069495826 0.032663353 -0.014980778 -0.18483445 -0.19020292 0.27740347
-0.029642917 -0.88517356 -0.0021553198 -0.051115017 -0.1364176 -0.0124504035 0.14415996 -0.23455992
-0.015443542 0.064530246 -0.14082013 0.12886102 0.42556378 0.0020595249 0.25065395 -0.0135896085

linear.bias f4 [2]
00000000: a04e 6f3e 8a56 87be
0.23369837 -0.26433212
