SCG-SFFL-main/SCG/pretrained_models/alluxio.pth (torch, 55195 bytes, 5 tensors)

sage.linear.weight f4 [64, 14]
0.6716238 0.15217224 0.31403795 0.2282786 -0.77169585 0.6486243 0.00926487 0.36370835
0.55915856 -0.3975878 0.14329934 0.12863222 0.35767666 -0.1382381 0.42907205 1.0549967
-0.635577 0.35830545 -0.51307046 0.6497734 -0.2124882 -0.04848053 -0.17161702 0.7088679
-0.12747718 1.4293091 0.23708883 -0.15328404 0.20430851 3.9381375e-05 -0.8007351 -0.06745031
-0.047290824 3.4237887e-36 -0.9834203 -0.22851709 0.54982096 -0.16278866 1.7643732e-08 4.3317105e-29
0.0069271745 0.00047484282 0.30037037 -0.3683821 1.0292703 -0.15823139 0.0983988 0.62805957
0.35434577 -0.6625607 -0.0179148 -0.12224623 0.14724177 -0.4075016 0.5393059 0.17276362
0.3139466 0.66901785 -0.55663574 0.60614884 -0.31695828 -0.36851332 0.18204741 0.53051853
0.18393408 0.5734802 0.017609404 1.0815115 -0.0059009343 0.03321603 -0.25966886 0.44226384
0.006736967 0.44969827 -0.8330914 0.60641545 -0.16002099 -0.12870407 -0.63098484 0.44840568
-0.123559035 0.60201544 0.5153202 0.013639296 -0.43684408 0.6405844 0.24418367 -0.3091721
-0.45839658 -0.81876975 -0.026446804 -0.20962301 -0.22898017 0.82697 -0.13074611 0.41044456
1.6168611 -0.31533253 -0.15218058 0.18328975 0.4876688 -0.24022782 0.92095 -0.51187825
-0.052573636 -0.11937736 -0.41271234 0.16893132 -0.23748459 0.38742626 0.37326765 0.8756331
0.8061395 0.115908176 -0.8222239 0.3510037 -0.36609894 0.31393743 -0.029896023 0.2048947
0.32153973 0.8556131 -0.21326968 0.2530363 0.18888083 -0.15533717 -9.654427e-06 -0.04031102
-0.008021654 0.3153605 -0.3065466 -1.124587e-10 -7.1698487e-37 -1.1725063e-24 -0.031342838 -0.8594286
0.007448582 -0.42639557 -0.14533934 2.1044116e-06 0.371344 -0.74673885 0.062776096 -0.621947
-0.079522945 -0.41939825 0.9512901 0.25393674 0.033988938 0.06452024 -0.1886719 -0.7424075
-0.4253998 0.65009326 0.32851717 0.1758963 0.31099725 -0.9277711 0.34811783 -0.28314292
-0.34659287 -0.6582668 -0.0025076985 0.9424719 -0.33958048 0.274791 -0.20454402 0.6530233
-1.4261451 -0.038774792 1.098145 0.19434993 -0.5133529 0.41384658 -0.16747034 -0.18096662
0.21516576 0.43379837 0.12950614 0.32163328 0.00721739 0.44066265 0.2408635 0.10360958
1.2546803 0.2703469 -0.554223 -0.089783266 -1.1458591 0.03800915 -0.10376494 -0.52157223
1.4480625 0.729141 -0.31752953 0.6112462 0.8562189 0.58460534 0.7178711 0.36495152
-0.54771996 -0.4423663 -0.79924405 0.32065332 0.3815077 0.72819304 0.53388065 0.43543294
-0.23942067 -0.6246377 0.50925493 0.24086112 -0.015365883 0.028852606 -0.95343065 -0.46128252
-0.0005358772 0.50547206 0.025187515 -0.28682038 -0.6487731 -0.0859069 -0.011840223 -0.07946054
0.19081815 0.5716872 0.41772354 0.2545263 -0.03382234 0.9906282 0.037641548 -0.0766477
0.013531308 -0.51711065 0.815067 -0.27473834 -0.42532864 -0.4327419 0.46918142 1.0097728
0.81985193 0.3376759 -0.57163477 0.19331889 -0.03246361 0.3576245 -0.12746476 -0.2653932
-0.026320007 -0.24015267 0.06921054 0.00015317615 0.42205697 0.4923296 0.52312976 0.45674548
00000000: 8aef 2b3f 0ad3 1b3e 95c9 a03e dec1 693e
00000010: dc8d 45bf 3e0c 263f aecb 173c fb37 ba3e
00000020: 0425 0f3f a190 cbbe 10bd 123e 2ab8 033e
00000030: 6521 b73e 4a8e 0dbe 55af db3e 220a 873f
00000040: 2db5 22bf d073 b73e 9658 03bf 8d57 263f
00000050: 8296 59be 8593 46bd 5fbc 2fbe 5e78 353f
00000060: 6189 02be 9af3 b63f 6ac7 723e 7ef6 1cbe
00000070: 4036 513e 6e2d 2538 fafc 4cbf 6323 8abd
00000080: 06b4 41bd c2a1 9104 6fc1 7bbf 6200 6abe
00000090: 11c1 0c3f 12b2 26be fa8e 9732 d1a4 5b10
000000a0: 5afd e23b 53f4 f839 25ca 993e 949c bcbe
000000b0: 21bf 833f 6907 22be 4f85 c93d 83c8 203f
000000c0: cf6c b53e 949d 29bf 0fc2 92bc 3b5c fabd
000000d0: 8cc6 163e 0da4 d0be f40f 0a3f f2e8 303e
000000e0: 9cbd a03e c144 2b3f ae7f 0ebf 922c 1b3f
000000f0: 5b48 a2be c7ad bcbe a36a 3a3e 10d0 073f
00000100: 3759 3c3e 99cf 123f 9941 903c f86e 8a3f
00000110: a05c c1bb 880d 083d 51f3 84be 6870 e23e
00000120: c6c1 dc3b da3e e63e 7a45 55bf 0b3e 1b3f
00000130: 8bdc 23be 00cb 03be 3988 21bf 6e95 e53e
00000140: 850c fdbd af1d 1a3f 06ec 033f 5b77 5f3c
00000150: 07aa dfbe 57fd 233f 490b 7a3e ce4b 9ebe
00000160: f5b2 eabe e59a 51bf f8a6 d8bc 6aa7 56be
00000170: c779 6abe 4eb4 533f 4fe2 05be ca25 d23e
00000180: 4ef5 ce3f 4473 a1be 3ad5 1bbe 4fb0 3b3e
00000190: baaf f93e 48fe 75be 61c3 6b3f 740a 03bf
000001a0: 7457 57bd 1e7c f4bd 084f d3be 55fc 2c3e
000001b0: 292f 73be bc5c c63e f01c bf3e 7e29 603f
000001c0: 295f 4e3f 4461 ed3d 447d 52bf c2b6 b33e
000001d0: 5271 bbbe 68bc a03e 81e8 f4bc ebcf 513e
000001e0: dba0 a43e 7609 5b3f 5e63 5abe f98d 813e
000001f0: fa69 413e b510 1fbe 73f9 21b7 2b1d 25bd
00000200: 416d 03bc ee76 a13e adf3 9cbe 9f4c f7ae
00000210: 31fa 7383 c36f b597 5961 00bd 8303 5cbf
00000220: 3c13 f43b 8550 dabe d6d3 14be 8439 0d36
00000230: cd20 be3e 472a 3fbf c190 803d eb37 1fbf
00000240: eddc a2bd 5ebb d6be bf87 733f ff03 823e
00000250: fc37 0b3d 3023 843d 3533 41be 6b0e 3ebf
00000260: 01ce d9be 836c 263f 6733 a83e 291e 343e
00000270: 083b 9f3e 6882 6dbf 803c b23e 1cf8 90be
00000280: 9f74 b1be 2c84 28bf 3358 24bb d745 713f
00000290: 7edd adbe 68b1 8c3e fd73 51be 892c 273f
000002a0: ec8b b6bf 51d2 1ebd 0490 8c3f ab03 473e
000002b0: 186b 03bf b3e3 d33e 587d 2bbe 504f 39be
000002c0: 6a54 5c3e d21a de3e 429d 043e 1ead a43e
000002d0: db7f ec3b 899e e13e eca4 763e 4231 d43d
000002e0: 5d99 a03f e96a 8a3e 8fe1 0dbf 4ae0 b7bd
000002f0: 83ab 92bf 7caf 1b3d b682 d4bd c285 05bf
00000300: 1d5a b93f fca8 3a3f 3b93 a2be a27a 1c3f
00000310: 2931 5b3f b2a8 153f 67c6 373f edda ba3e
00000320: 6037 0cbf d67d e2be 429b 4cbf ac2c a43e
00000330: fa54 c33e dc6a 3a3f 67ac 083f 11f1 de3e
00000340: b12a 75be 42e8 1fbf 885e 023f 4ca4 763e
00000350: 2fc1 7bbc 4d5c ec3c 0814 74bf 392d ecbe
00000360: 1c7a 0cba 9e66 013f 0c56 ce3c 1fda 92be
00000370: fe15 26bf f5ef afbd 7ffd 41bc 35bc a2bd
00000380: d565 433e 185a 123f dcdf d53e 4551 823e
00000390: 4b89 0abd cf99 7d3f 062e 1a3d 78f9 9cbd
000003a0: 6bb2 5d3c 5d61 04bf 3ba8 503f 81aa 8cbe
000003b0: adc4 d9be 5990 ddbe 8c38 f03e 3c40 813f
000003c0: d1e1 513f dbe3 ac3e a856 12bf 63f5 453e
000003d0: 90f8 04bd 8f1a b73e 1f86 02be 9ee1 87be
000003e0: 0e9d d7bc 95ea 75be 41be 8d3d e99d 2039
000003f0: da17 d83e a012 fc3e d5eb 053f 8bda e93e

weight f4 [64, 64]
-0.0039802017 0.038081232 1.9290644e-06 -0.005832035 0.04223991 0.041713636 0.060309205 0.04394053
0.00021975442 -0.0001702013 -0.021295888 0.030827299 0.03410073 0.02549038 0.01902062 -0.010641691
-0.06918379 -0.03786379 -0.020424005 -0.008814937 -0.0060177282 -0.01695611 -0.00018530128 -0.0020788952
8.051066e-05 -0.019795919 0.020466568 0.002046054 1.03127595e-25 -0.0033703723 -0.0076060384 0.027589336
0.04513171 -0.0010130048 0.01662507 -8.449746e-06 0.0006275511 0.008356376 -1.2621812e-15 2.2479495e-37
0.0037829396 -1.7296241e-09 -0.046427786 -0.029368652 0.036425672 -0.027944041 0.009543825 -0.016544746
2.8501473e-36 -0.03097957 0.06306566 -0.027245495 -0.00047490216 -0.059868418 0.023368528 0.00018919219
-1.0412811e-05 0.0009759807 0.00048837083 0.008079205 -0.060744867 0.005272585 0.06431419 -0.004692242
0.00085309806 0.001512419 -8.543388e-07 -0.008938248 0.009184509 0.008618614 0.011884452 -0.009105752
-0.0028142396 -4.459191e-05 -0.0059218393 -0.0034195054 0.008865039 0.014043152 0.030233938 -0.0023340085
-0.011490211 0.004326139 0.0014595308 -0.0018814971 0.008071229 -0.006309941 -2.5670146e-05 -0.01052916
-9.755278e-05 0.0024086433 -0.01682824 -0.0016109245 -3.2048458e-24 0.001867669 -0.008048893 0.016580133
0.016587446 -6.3472464e-05 -0.00086752843 -2.8276127e-06 0.00025797158 0.018109038 3.686141e-18 2.2333302e-36
-0.015099689 -4.9501364e-10 -0.024759844 -0.010711524 0.002046576 -0.013929433 0.0014208644 -0.0062955427
1.7568263e-36 -0.020733165 0.004832161 -0.011949254 -0.000117346164 -0.019145023 0.001817135 -0.00018360025
-3.1176494e-06 0.0005414543 -0.0031710062 -0.007389527 -0.0073723616 0.003093775 -0.012608232 0.0059838477
0.00074560504 -0.011357525 7.367602e-07 0.0015025708 -0.01214157 -0.011009037 -0.016366836 -0.013289877
-0.00085986423 4.491226e-05 0.0058200024 -0.008734 -0.008641017 -0.0071332273 -0.0037769566 0.0027893963
0.01856606 0.010627986 0.005351051 0.0038749326 0.0030618089 0.0048569096 4.731819e-05 -0.00051449606
-4.7777477e-05 0.005018644 -0.007535075 -0.0007710567 1.4995824e-30 0.0008389136 0.0020025636 -0.0068935626
-0.011631401 0.00026158357 -0.004936055 1.9478746e-06 -0.0003081576 -0.0017882341 -4.6173346e-19 4.3111194e-31
-0.0023152516 -1.7821698e-10 0.01089803 0.007363908 -0.010804442 0.006789153 -0.0026701863 0.003986702
-8.232715e-29 0.0068242177 -0.018281523 0.0070585394 0.00012356903 0.015446107 -0.0068516317 -7.5524746e-05
3.3481037e-06 -0.00026346624 -0.00047821953 -0.0026437899 0.017510407 -0.0015043032 -0.020015482 0.0010938821
-0.003286503 0.047610745 -3.601532e-06 -0.010062741 0.054457624 0.051991243 0.0747448 0.05193271
0.0019389514 -0.00021257212 -0.026846698 0.035317317 0.04136734 0.035851456 0.030067677 -0.013300517
-0.08439317 -0.043401606 -0.02279082 -0.015346842 -0.007935307 -0.022844592 -0.00019972611 -0.0033751316
0.00011409445 -0.020859223 0.02254498 0.003016589 -2.3432471e-35 -0.0028353464 -0.011660141 0.036699105
0.05752074 -0.0009601626 0.020474035 -9.071883e-06 0.0013524272 0.016000237 -2.2277119e-17 -1.5857295e-35
0.0023679065 -8.509054e-11 -0.05852499 -0.036688812 0.046041943 -0.035448093 0.011613164 -0.020840935
5.135895e-32 -0.039560758 0.07786542 -0.036263805 -0.00052115804 -0.07480823 0.029237408 0.00020853817
-9.933209e-06 0.0013578493 0.00021731948 0.007904099 -0.07676575 0.007573402 0.07627741 -0.0032939136
00000000: 5a6c 82bb 11fb 1b3d 1375 0136 a81a bfbb
00000010: c203 2d3d ebdb 2a3d c906 773d fcfa 333d
00000020: e16d 6639 1078 32b9 b774 aebc 8889 fc3c
00000030: 35ad 0b3d 34d1 d03c 22d1 9b3c 7d5a 2ebc
00000040: 3bb0 8dbd 1017 1bbd 3e50 a7bc 876c 10bc
00000050: 5d30 c5bb 8ae7 8abc 6f4d 42b9 133e 08bb
00000060: d5d7 a838 0d2b a2bc 81a9 a73c 1717 063b
00000070: e154 ff15 77e1 5cbb 133c f9bb 0803 e23c
00000080: 07dc 383d cdc6 84ba 4c31 883c 62c3 0db7
00000090: 3e82 243a 2ee9 083c 44e6 b5a6 cefc 9802
000000a0: 32eb 773b bdb7 edb0 102b 3ebd 8796 f0bc
000000b0: 1633 153d e7ea e4bc b45d 1c3c d988 87bc
000000c0: b676 7204 dec8 fdbc 9228 813d f231 dfbc
000000d0: 4afc f8b9 9638 75bd 5b6f bf3c e461 4639
000000e0: afb2 2eb7 f5d8 7f3a 0306 003a a45e 043c
000000f0: 9ccf 78bd a6c5 ac3b 28b7 833d 61c1 99bb
00000100: 71a2 5f3a 5c3c c63a b755 65b5 bb71 12bc
00000110: 9f7a 163c 1635 0d3c 01b7 423c 4b30 15bc
00000120: 1b6f 38bb 3308 3bb8 fd0b c2bb c819 60bb
00000130: ab3e 113c 4015 663c 2aad f73c 2af6 18bb
00000140: 7041 3cbc 49c2 8d3b ba4d bf3a 919c f6ba
00000150: 303d 043c 9fc3 cebb 3856 d7b7 7f82 2cbc
00000160: 4095 ccb8 54da 1d3b 61db 89bc a825 d3ba
00000170: 83f6 7798 93cc f43a 81df 03bc 0fd3 873c
00000180: 65e2 873c 851c 85b8 d96a 63ba 04c2 3db6
00000190: 5c40 8739 6859 943c 9efe 8722 a0fd 3d04
000001a0: b064 77bc 7d11 08b0 28d5 cabc 637f 2fbc
000001b0: d91f 063b 4738 64bc 4c3c ba3a d74a cebb
000001c0: 4a74 1504 99d8 a9bc 1b57 9e3b cec6 43bc
000001d0: be17 f6b8 06d6 9cbc ef2c ee3a d184 40b9
000001e0: cf38 51b6 62f0 0d3a a8d0 4fbb d823 f2bb
000001f0: da93 f1bb eec0 4a3b c292 4ebc 2714 c43b
00000200: b574 433a ea14 3abc c7c5 4535 e9f1 c43a
00000210: 70ed 46bc 3f5f 34bc be13 86bc c9bd 59bc
00000220: 8368 61ba 2c60 3c38 b8b5 be3b 0d19 0fbc
00000230: 0d93 0dbc d9bd e9bb d186 77bb 4ece 363b
00000240: da17 983c 0121 2e3c df57 af3b 95f2 7d3b
00000250: a1a8 483b b626 9f3b 8577 4638 3fdf 06ba
00000260: ad64 48b8 7073 a43b cae8 f6bb bd20 4aba
00000270: 3752 f30d 8aea 5b3a 713d 033b 65e3 e1bb
00000280: a291 3ebc 2725 8939 a1be a1bb 3bb8 0236
00000290: 3790 a1b9 2e63 eaba 9847 08a1 61e7 0b0d
000002a0: 7abb 17bb 9ff3 43af a78d 323c f04c f13b
000002b0: 1d05 31bc 8b77 de3b 4bfe 2ebb e1a2 823b
000002c0: 60b9 d090 b09d df3b 22c3 95bc 524b e73b
000002d0: 4f92 0139 ab11 7d3c a783 e0bb 0a63 9eb8
000002e0: fcaf 6036 d721 8ab9 8ab9 fab9 6f43 2dbb
000002f0: fc71 8f3c 0a2c c5ba 82f7 a3bc 9860 8f3a
00000300: 5f62 57bb 7c03 433d d9b1 71b6 32de 24bc
00000310: f50e 5f3d c5f4 543d cd13 993d 65b7 543d
00000320: 6a24 fe3a e5e5 5eb9 9bed dbbc e4a8 103d
00000330: cd70 293d fad8 123d 7d50 f63c 69ea 59bc
00000340: 54d6 acbd e2c5 31bd d0b3 babc 5271 7bbc
00000350: 1703 02bc 9524 bbbc 926d 51b9 5031 5dbb
00000360: fe45 ef38 f6e0 aabc 40b0 b83c f7b1 453b
00000370: 412d f985 38d1 39bb 2d0a 3fbc cd51 163d
00000380: de9a 6b3d 6cb3 7bba 2ab9 a73c 7133 18b7
00000390: ed43 b13a ee12 833c 5c78 cda3 aa9f a885
000003a0: e12e 1b3b b71d bbae e6b7 6fbd 0247 16bd
000003b0: 7a96 3c3d 0532 11bd 2445 3e3c 9cba aabc
000003c0: e155 850b 760a 22bd e877 9f3d 5b89 14bd
000003d0: 539e 08ba 0f35 99bd 4a83 ef3c 0aab 5a39
000003e0: cfa6 26b7 ddf9 b13a 41e0 6339 3280 013c
000003f0: 5d37 9dbd 4d2a f83b 5537 9c3d b3de 57bb

encoder.sage.linear.weight f4 [64, 128]
-0.26952907 -0.7153194 -0.022510568 0.29903537 -0.7397415 -1.4399596 -0.9888401 0.066969715
-0.44509658 0.21866888 0.26323837 0.35244352 0.11248993 0.17909625 -0.8567088 -0.0021785153
-0.87154835 -0.87634945 -0.19014433 -0.82729083 0.1134193 0.33859742 0.00091481436 -0.45642695
0.0014129513 -0.46583226 -0.91814846 -0.03542817 -0.0053396127 -0.011368698 0.065158576 0.04272057
-0.11026273 0.034548197 -0.11224259 0.034535475 -0.01980072 -0.68750167 -0.042659424 -0.08934557
1.8118844 -0.39463758 -0.11323291 -0.025617123 -0.20349982 -1.113021 -0.2307455 -0.2277371
-0.65270054 -0.054602623 -0.32317734 0.8674668 -2.2882936e-05 0.052122537 -0.85470736 0.037071526
0.00019219496 1.9038212e-05 0.105496295 0.04676935 -0.2668037 -0.08364903 -0.21664496 -1.2111222
-0.51329136 0.2589443 0.0010827873 0.34489527 0.24050932 0.49874616 0.39964494 0.17997843
0.06377846 0.00013756858 0.3723129 0.14835991 0.21151875 0.39077026 0.13522346 0.023739533
-0.13219948 0.29447505 0.14218698 0.6145699 -1.4842026 -0.3387777 0.17321849 -0.17775106
0.5753909 0.0246667 0.18077564 -0.03995493 -2.9276398e-21 -0.0026397267 0.083889924 0.62873197
0.42015025 -0.098078534 -0.44963107 0.2091897 0.009949818 0.31142476 -0.22082467 1.2717686e-07
0.117437266 0.0025753384 -0.09400154 0.18800303 0.9729387 0.15532908 0.52752405 -0.43677083
-1.2547252e-05 -0.6908066 -0.35283762 0.28950566 -3.8504968e-05 -0.49941033 0.22218333 -0.465495
-4.245743e-06 0.005929274 0.026912652 -0.08078955 0.16225274 -0.008183105 1.0965825 -0.15770774
-0.88207096 -0.009738072 -0.0005174502 -0.2565973 -0.006625404 -0.006427033 -0.021054296 -0.06271726
-0.0079251295 -2.5150961e-05 0.13598149 -0.09009423 -0.7564793 0.56229156 0.09848033 0.018217312
0.46725574 0.15062223 0.053475138 0.26729926 -0.07270385 0.31030503 0.2321951 0.016124427
-1.49656225e-05 0.23805858 -0.000269423 -0.087939635 9.591972e-08 0.07460292 -0.19934069 0.10523803
0.006376954 0.90571684 -0.36577833 -3.9912734e-06 -0.003307629 0.06804682 -0.005678394 0.08514204
-0.1214027 0.00017467454 -0.297516 0.047563955 -0.063991375 -0.2376796 -1.033685 0.08823864
1.9095758 0.47617784 0.04208287 -0.036846727 -0.02463212 1.2509696 -1.3643943 -0.47772717
-0.44712868 -0.0029133693 -0.2870342 -0.120633885 -0.0025432482 -0.00091695366 -0.009288203 -0.167389
-0.0037835217 0.042834263 0.0022415805 -0.009050048 -0.009717577 0.50594133 -0.014294844 0.5763447
-0.008026908 -0.17732956 -0.0020757741 -0.7173442 -0.2802309 0.1976928 -0.04395633 0.3794871
-0.0037922815 -0.012304512 0.008110221 0.10562989 -0.01847888 -0.036109004 -1.01213045e-05 0.06918015
0.9345523 -0.008004179 -0.1195545 -0.06922391 0.28836036 -0.0002865911 -0.29712886 -0.03403841
-0.057130333 -0.06030823 0.6017967 -0.113871716 -0.0018512126 -0.014917579 -1.1865552e-05 -1.7550039e-05
0.69995576 -0.11035233 -0.0016297648 -0.36270568 -1.0348899 -0.42659625 -0.006247273 0.28284356
-2.871279e-37 -0.00056869263 -0.024173634 -0.0015951582 -9.328673e-05 -0.0135869505 0.1801678 -0.017435405
-0.059848297 -0.24442568 -0.00020324372 -0.013761501 -0.00904767 0.002193138 -0.086865716 0.11194273
00000000: b7ff 89be 2c1f 37bf 1568 b8bc 2a1b 993e
00000010: b35f 3dbf 9950 b8bf a024 7dbf 6b27 893d
00000020: b3e3 e3be bcea 5f3e 2ec7 863e 7a73 b43e
00000030: 1f61 e63d 0265 373e 4551 5bbf 6cc5 0ebb
00000040: cb1d 5fbf 7058 60bf 32b5 42be 55c9 53bf
00000050: 6148 e83d a45c ad3e 27d0 6f3a cbb0 e9be
00000060: c732 b93a 9181 eebe c70b 6bbf 211d 11bd
00000070: ebf7 aebb c743 3abc dc71 853d c4fb 2e3d
00000080: 6dd1 e1bd 6982 0d3d 71df e5bd 1275 0d3d
00000090: 1f35 a2bc 1c00 30bf a6bb 2ebd cffa b6bd
000000a0: d4eb e73f f00d cabe a8e6 e7bd 00db d1bc
000000b0: 4262 50be 7977 8ebf 8c48 6cbe ea33 69be
000000c0: 6217 27bf 00a7 5fbd 8077 a5be 4e12 5e3f
000000d0: bbf4 bfb7 717e 553d 1ace 5abf 50d8 173d
000000e0: f187 4939 40b4 9f37 710e d83d 3891 3f3d
000000f0: 7f9a 88be 2f50 abbd 2dd8 5dbe 0d06 9bbf
00000100: 1067 03bf 5994 843e 50ec 8d3a 1d96 b03e
00000110: 1348 763e a85b ff3e 439e cc3e 444c 383e
00000120: 489e 823d 4940 1039 cc9f be3e a9eb 173e
00000130: 5f98 583e 0a13 c83e 0578 0a3e 6979 c23c
00000140: 4d5f 07be 6fc5 963e 7799 113e 7454 1d3f
00000150: 5afa bdbf 4574 adbe 3060 313e 6004 36be
00000160: d14c 133f d211 ca3c 401d 393e c8a7 23bd
00000170: ca34 5d9d 44ff 2cbb 7bce ab3d 94f4 203f
00000180: ef1d d73e 66dd c8bd 0b36 e6be d335 563e
00000190: 9004 233c 1173 9f3e dd1f 62be 1c8e 0834
000001a0: f382 f03d 02c7 283b e183 c0bd de83 403e
000001b0: 8312 793f 960e 1f3e d10b 073f 6da0 dfbe
000001c0: 0982 52b7 b4d8 30bf 22a7 b4be 163a 943e
000001d0: 6580 21b8 b6b2 ffbe 0784 633e 5c55 eebe
000001e0: a876 8eb6 5b4a c23b ec77 dc3c fe74 a5bd
000001f0: 9525 263e 6e12 06bc d15c 8c3f 237e 21be
00000200: 67cf 61bf 6f8c 1fbc 7fa5 07ba b960 83be
00000210: eb19 d9bb dc99 d2bb 0f7a acbc e871 80bd
00000220: 67d8 01bc 47fb d2b7 bb3e 0b3e 5383 b8bd
00000230: a1a8 41bf 57f2 0f3f 0eb0 c93d 793c 953c
00000240: 253c ef3e b73c 1a3e bf08 5b3d 73db 883e
00000250: c2e5 94bd 4de0 9e3e 8dc4 6d3e 6017 843c
00000260: dc14 7bb7 a1c5 733e 5841 8db9 b219 b4bd
00000270: 6cfc cd33 6ac9 983d f71f 4cbe 0987 d73d
00000280: c4f5 d03b 0fdd 673f 4c47 bbbe c7ec 85b6
00000290: cec4 58bb 225c 8b3d d211 babb f35e ae3d
000002a0: fba1 f8bd d728 3739 0454 98be 6cd2 423d
000002b0: e90d 83bd 4862 73be ca4f 84bf 76b6 b43d
000002c0: fb6c f43f 95cd f33e 165f 2c3d 98ec 16bd
000002d0: 4dc9 c9bc c61f a03f 79a4 aebf a898 f4be
000002e0: 0dee e4be 3aee 3ebb 26f6 92be e60e f7bd
000002f0: a0ac 26bb b85f 70ba 8c2d 18bc 0668 2bbe
00000300: f6f4 77bb fb72 2f3d 7be7 123b a746 14bc
00000310: 7936 1fbc 5f85 013f ec34 6abc 548b 133f
00000320: 4b83 03bc e195 35be b609 08bb dfa3 37bf
00000330: 6d7a 8fbe fb6f 4a3e 8d0b 34bd 224c c23e
00000340: ed87 78bb dd98 49bc bbe0 043c 7c54 d83d
00000350: 0561 97bc 09e7 13bd acce 29b7 53ae 8d3d
00000360: d23e 6f3f f623 03bc fdd8 f4bd 44c5 8dbd
00000370: f8a3 933e 9b41 96b9 4621 98be dc6b 0bbd
00000380: 7f01 6abd c305 77bd 590f 1a3f 9335 e9bd
00000390: 63a4 f2ba dc68 74bc 2812 47b7 6c38 93b7
000003a0: 4d30 333f 6700 e2bd d59d d5ba 8fb4 b9be
000003b0: 4677 84bf d36a dabe edb5 ccbb dfd0 903e
000003c0: bc68 c382 5114 15ba c907 c6bc a114 d1ba
000003d0: efa2 c3b8 cd9b 5ebc e87d 383e b2d4 8ebc
000003e0: 7d23 75bd ba4a 7abe d21d 55b9 eb77 61bc
000003f0: ae3c 14bc c0ba 0f3b a7e6 b1bd 3b42 e53d

linear.weight f4 [2, 64]
-0.49033865 -0.11523635 -0.10482658 0.030769588 0.03295304 -0.0034426975 0.15087494 0.09062656
0.021125827 -0.30575934 0.31488502 0.6430361 0.39246044 -0.37729287 -0.029176317 0.17936777
-0.057816245 0.111029305 -0.0051213936 0.02242907 -0.0018873872 -0.006762279 -0.049682844 -0.037278637
0.00011684649 -0.06508607 0.054453168 -0.2981817 0.0082968045 0.0053130044 0.062469386 0.3328633
0.09862269 0.069328226 0.6144887 0.106218375 -0.05703956 0.099872105 0.13509512 -0.0542295
-0.033786736 0.2559043 0.025005419 -0.0057886895 0.050013486 0.21739906 -0.058428932 0.21054623
0.2387971 0.16303018 0.056156725 0.04152455 -0.066349484 0.028817873 0.02083496 0.070365824
0.06806102 -0.115226924 -0.035241123 0.044805083 0.11868372 -0.053827085 -0.21701674 0.08471872
0.518927 0.022842217 0.10258435 -0.059268124 0.073372416 -0.0046894983 -0.2820704 -0.09689251
-0.06839297 0.29518586 -0.3458636 -0.4658802 -0.39461935 0.3592452 -0.01872493 -0.22913103
-0.021210661 7.3765776e-05 -0.010245469 -0.0026407095 0.056219038 -0.03206085 0.16233464 -0.049519736
-0.00014441789 -0.009752946 -0.0047287494 0.33829042 -0.0033043965 -0.020558365 -0.010162305 -0.39111745
0.063156016 -0.0059768367 -0.61501116 -0.0019631726 0.049881797 -0.0814853 -0.14731081 0.067678496
-0.045671772 -0.07486412 0.00842196 -0.009501734 -0.16130136 -0.26708686 0.027874801 -0.19918191
-0.25573456 -0.17939718 -0.060996957 -0.036223963 -0.036540233 0.040712122 -0.031651914 -0.0063560456
-0.0025033108 0.09835276 0.056706727 0.10377834 -0.1250015 0.067291945 0.28122512 -0.07799191
00000000: ab0d fbbe 0901 ecbd 51af d6bd 8110 fc3c
00000010: c4f9 063d e19e 61bb f67e 1a3e 6b9a b93d
00000020: 1210 ad3c 7d8c 9cbe 9c38 a13e 049e 243f
00000030: 93f0 c83e 882c c1be 2c03 efbc 2fac 373e
00000040: bad0 6cbd 5563 e33d 5dd1 a7bb 2bbd b73c
00000050: 3562 f7ba 1c96 ddbb 3d80 4bbd 7cb1 18bd
00000060: 7b0b f538 d84b 85bd 490a 5f3d 46ab 98be
00000070: 52ef 073c b618 ae3b e6df 7f3d 0f6d aa3e
00000080: b1fa c93d f5fb 8d3d 224f 1d3f 0589 d93d
00000090: 50a2 69bd bf89 cc3d 6056 0a3e c11f 5ebd
000000a0: f663 0abd e305 833e 2ad8 cc3c 0caf bdbb
000000b0: f1da 4c3d dc9d 5e3e 2d53 6fbd 6e99 573e
000000c0: 3a87 743e 62f1 263e 9804 663d a615 2a3d
000000d0: 3de2 87bd 7613 ec3c 14ae aa3c f51b 903d
000000e0: 9363 8b3d 18fc ebbd ff58 10bd 8985 373d
000000f0: 7310 f33d ca79 5cbd a339 5ebe 0281 ad3d
00000100: 66d8 043f 9a1f bb3c be17 d23d 22c3 72bd
00000110: 4744 963d 5daa 99bb 886b 90be 956f c6bd
00000120: 9d11 8cbd 9a22 973e 0915 b1be d987 eebe
00000130: 8c0b cabe fdee b73e 0665 99bc 53a1 6abe
00000140: fbc1 adbc b3b2 9a38 9ddc 27bc c10f 2dbb
00000150: ef45 663d 3d52 03bd 0d3b 263e 35d5 4abd
00000160: e26e 17b9 d2ca 1fbc a0f3 9abb 6734 ad3e
00000170: 938e 58bb 046a a8bc cc7f 26bc 8c40 c8be
00000180: f157 813d 57d9 c3bb 5f71 1dbf 92a8 00bb
00000190: db50 4c3d c4e1 a6bd a5d8 16be 069b 8a3d
000001a0: 5312 3bbd 5c52 99bd 43fc 093c 29ad 1bbc
000001b0: 2f2c 25be 9cbf 88be b259 e43c 58f6 4bbe
000001c0: a4ef 82be e5b3 37be f2d7 79bd 945f 14bd
000001d0: 36ab 15bd c1c1 263d 70a5 01bd 6046 d0bb
000001e0: 960e 24bb 2c6d c93d 5045 683d bd89 d43d
000001f0: 6500 00be 5cd0 893d bdfc 8f3e 39ba 9fbd

linear.bias f4 [2]
0.06854247 -0.16758645
00000000: ff5f 8c3d c89b 2bbe
