SCG-SFFL-main/SCG/pretrained_models/binnavi.pth (torch, 55195 bytes, 5 tensors)

sage.linear.weight f4 [64, 14]
0	0x3e13dbaa	0.14439264
1	0x3f7aa669	0.9791017
2	0x3efe0306	0.49611682
3	0x3e71e18c	0.23621196
4	0xbe910cc1	-0.28330043
5	0x3efa7fbf	0.48925588
6	0xbf1d8756	-0.6153463
7	0xbd3b4203	-0.04571725
8	0x3de26646	0.11054663
9	0xbe4492fa	-0.19196692
10	0xbda50366	-0.08057289
11	0x3de975f9	0.113994546
12	0x3f21d429	0.63214356
13	0x3db70e63	0.08938291
14	0xbe0d4be2	-0.13798478
15	0xbea312e0	-0.31850338
16	0xbf1e67cb	-0.61877126
17	0xbda6a12c	-0.0813621
18	0x3f983545	1.1891257
19	0xbe3a6343	-0.18201928
20	0x3f390330	0.7227049
21	0xbf224746	-0.63390005
22	0xbe2b9a8b	-0.16758172
23	0x3fd6ea9d	1.6790348
24	0xbd8cb315	-0.06870095
25	0x3f5d00b4	0.863292
26	0x3e4c4eef	0.19951986
27	0x3e8f7b89	0.28023937
28	0xbf83ccd8	-1.0296888
29	0xbe37afb2	-0.17938116
30	0x3f8034a9	1.0016071
31	0xbd40d1ce	-0.047075085
32	0xbe37419b	-0.1789612
33	0x3d621dc9	0.055204187
34	0xbd54601e	-0.051849477
35	0xbde8fa1c	-0.113758296
36	0x3d3aae8a	0.04557661
37	0x3ea1bd7b	0.31589875
38	0x3caa71ba	0.020806182
39	0x3e3e7da4	0.18602616
40	0x3e18e4f4	0.14931089
41	0x3d1badfb	0.038007718
42	0xbe53276d	-0.20620508
43	0xbecd3424	-0.40078843
44	0x3fa3e06c	1.2802863
45	0x3ec9c34b	0.3940681
46	0x3e600bf0	0.21879554
47	0x3e4839be	0.19553277
48	0x3d78e584	0.06076576
49	0x3f24bca7	0.6435036
50	0x3cbd0ab6	0.023076396
51	0xbe121230	-0.1426475
52	0x3e60d646	0.21956739
53	0x3f1806b5	0.59385234
54	0xbf1ded35	-0.61690074
55	0xbe02d3f0	-0.1277616
56	0x3f260998	0.6485839
57	0xbeeaddb3	-0.45872268
58	0xbf058875	-0.5216134
59	0xbcd3a7eb	-0.025836905
60	0xbec152ec	-0.37758577
61	0xbe2ad92e	-0.1668441
62	0x3d67b1ad	0.05656593
63	0x3e6e86ff	0.23293684
64	0xbdeb6dab	-0.11495527
65	0x3f635250	0.88797474
66	0xbdcb64d2	-0.09931339
67	0x3f39d7ee	0.7259511
68	0x3ea2570d	0.3170704
69	0x3ce74104	0.028229244
70	0x3dbcb80c	0.09214792
71	0x3e09c446	0.13453779
72	0xbe1343a6	-0.14381275
73	0x3de50fa8	0.11184627
74	0x3d5ceaec	0.053934976
75	0x3d14fb02	0.036372192
76	0x3e348953	0.1763051
77	0xbda0c8db	-0.0785081
78	0x3e829374	0.25503123
79	0x3eb30ed3	0.34972247
80	0xbffcaf96	-1.9741085
81	0x3f493c4c	0.7860763
82	0xbc303efd	-0.010757205
83	0xbf3a24fc	-0.72712684
84	0xbe61c437	-0.22047506
85	0x3e4bff42	0.19921592
86	0xbe9391ec	-0.28822267
87	0xbe0417f7	-0.12899767
88	0xbe59e8cb	-0.2128021
89	0x3edaaf65	0.4271194
90	0xbdaeba43	-0.0853162
91	0xbcc78ce9	-0.024359183
92	0xb90930de	-0.00013083543
93	0x3f5cd9ee	0.86270034
94	0xbd187c2a	-0.037227787
95	0x3ec0739e	0.3758821
96	0x3f822b38	1.0169439
97	0xbe120a28	-0.14261687
98	0x3e8cfc60	0.27536297
99	0xbe412aed	-0.18864031
100	0x3f2e0cf1	0.67988497
101	0x3d1d1b85	0.038356323
102	0x3e8f8b67	0.28036043
103	0xbe08d721	-0.13363315
104	0x3e84038d	0.2578396
105	0xbec5fad5	-0.38667932
106	0xbcce1436	-0.025156122
107	0xbf29add4	-0.66280866
108	0xbc1a8fa8	-0.009433664
109	0xbdf9c5ba	-0.121959165
110	0x3f68ada1	0.90889937
111	0xbc1a85b5	-0.009431292
112	0x3f1c1baa	0.6097971
113	0x3c807852	0.015682373
114	0xbe077256	-0.1322721
115	0xbedc30a2	-0.43005854
116	0x3d2972f8	0.04136941
117	0x3d9553b4	0.07291356
118	0x3cabc320	0.020967066
119	0x3c886bd4	0.016652979
120	0x3c8bfca1	0.017088236
121	0xbb8de3e7	-0.0043301466
122	0x3e119fc2	0.14221099
123	0x3da92f63	0.082609914
124	0x3e161cf0	0.14659476
125	0x3d72b189	0.059251342
126	0x3ebc722f	0.36805865
127	0x3ead42d0	0.33840036
128	0x3ebcd11e	0.36878294
129	0xbf00ff74	-0.5038979
130	0x3e498974	0.1968134
131	0xbda3b067	-0.079926305
132	0xbe59c080	-0.21264839
133	0x3e3dae8b	0.18523614
134	0x3d38e5b6	0.045140944
135	0xbcb0ac1c	-0.021566443
136	0xbda15847	-0.07878166
137	0x3f0ecb1f	0.5577869
138	0x3dd5619d	0.10419009
139	0x3f0bc206	0.5459293
140	0xbf13aa79	-0.57681996
141	0xbf761b1b	-0.9613511
142	0x3f7ca8c1	0.98695
143	0x3e7848ca	0.24246517
144	0xbf4df162	-0.80446446
145	0x3e7261a4	0.2367006
146	0xbd7d9609	-0.061910663
147	0xbe6555f0	-0.22396064
148	0x3f5deb88	0.8668752
149	0x3ec69a32	0.38789517
150	0x3da11fd2	0.07867397
151	0xbf35e376	-0.710502
152	0xbf14a2ac	-0.5806072
153	0xbf2c2923	-0.6725027
154	0xbef54626	-0.47905082
155	0x3e3ef26b	0.18647163
156	0x3fad4913	1.3537925
157	0x3de67379	0.112524934
158	0x3d47a742	0.048743494
159	0xbe12fed0	-0.14355016
160	0x3e70a6e9	0.23501171
161	0x3e6d637c	0.23182482
162	0x3cc8d9df	0.024517952
163	0x3e7f823d	0.24952026
164	0x3c0ec564	0.008714054
165	0xbfb969e0	-1.4485435
166	0x3e0f4706	0.13991937
167	0x3d8b3691	0.06797517
168	0x3f2fcb20	0.6866932
169	0x3da60aca	0.081075266
170	0x3db52271	0.0884446
171	0x3ced619b	0.028977206
172	0x3d88aa90	0.06673157
173	0x3e0b4e07	0.13603984
174	0xbd8d4f12	-0.06899847
175	0x3d873170	0.06601226
176	0x3bb4b4cd	0.005514717
177	0xbed75187	-0.42054388
178	0xbdb71487	-0.08939462
179	0xbcf65700	-0.030070782
180	0x3f2828aa	0.6568705
181	0x3c2d1497	0.010563991
182	0xbdd415e6	-0.10355739
183	0x3a33a86a	0.0006853404
184	0xbf17e2db	-0.5933053
185	0xbe0f34c1	-0.13984968
186	0xbd6737b5	-0.05644961
187	0xbbbebe90	-0.0058210567
188	0xbdbe421c	-0.09289953
189	0x3fc53e4d	1.5409638
190	0xbdaf847d	-0.08570192
191	0x3b70c47b	0.0036738205
192	0x3d5ec5ff	0.054388043
193	0xbb9f46e5	-0.004860746
194	0xbb386c0a	-0.0028140568
195	0xbc106c97	-0.008814952
196	0x3e96cafb	0.29451737
197	0x3f8d2376	1.1026447
198	0xbf000b64	-0.5001738
199	0x3ea207d6	0.31646603
200	0x3e191a10	0.14951348
201	0xbe6fcecc	-0.2341873
202	0xbd93ccd1	-0.072168
203	0xbe933103	-0.2874833
204	0x3e2f81b1	0.17139317
205	0x3f224129	0.63380677
206	0xbe473503	-0.19453816
207	0x3f1395e3	0.57650584
208	0xbd8109e4	-0.063007146
209	0x3e91c184	0.28467953
210	0x3d983bc2	0.07433273
211	0x3e969770	0.29412413
212	0xbe43eb19	-0.19132651
213	0xbb0bad98	-0.0021313187
214	0xbff722a8	-1.9307451
215	0x3ca1dd66	0.019758891
216	0x3c9af2ed	0.018914664
217	0x3ca448da	0.02005427
218	0xbe6d16d6	-0.23153242
219	0x3e750865	0.23928984
220	0xbb83a0fd	-0.004016994
221	0x3f5b7800	0.8572998
222	0x3ed8717a	0.42274076
223	0xbce0a38d	-0.027421737
224	0x3e816688	0.25273538
225	0xbf165929	-0.587298
226	0x3deb3fa0	0.11486745
227	0xbf87f5d4	-1.0621896
228	0x3f12f152	0.57399476
229	0x3cb8db78	0.022565588
230	0x3e366baa	0.17814508
231	0x3eb649d2	0.35603195
232	0xbd044c9d	-0.032299627
233	0xbe2375f0	-0.15962958
234	0xbe0de808	-0.13858044
235	0xbc2468ae	-0.010034723
236	0x3e6d2204	0.23157507
237	0xbef8591c	-0.48505485
238	0x3efcecb4	0.4939934
239	0xbdef1c8e	-0.11675368
240	0x3ce9046a	0.028444488
241	0x3d03dd13	0.032193255
242	0x3daf1bc7	0.0855022
243	0xbc8e26c5	-0.017352471
244	0xbc82db2f	-0.015973656
245	0xbd1c6631	-0.038183395
246	0x3f3db407	0.74102825
247	0xbf01e3e9	-0.5073839
248	0x3d2a0641	0.04150987
249	0xbccf2cbb	-0.025289884
250	0xbeb47c5c	-0.3525113
251	0xbc9277c4	-0.017879374
252	0xbefba68a	-0.49150497
253	0xbf4ed635	-0.80795604
254	0xbf71d4c8	-0.94465303
255	0xbea9f08c	-0.33191335

weight f4 [64, 64]
0	0xbca9ccbe	-0.020727511
1	0xbc20b605	-0.009809022
2	0xbc5c543b	-0.0134478165
3	0xbcd5412c	-0.026032053
4	0xbd0e2eb3	-0.034712505
5	0xbc8b75b2	-0.017023895
6	0xbd0b6cf0	-0.034039438
7	0x3c7488d0	0.014925197
8	0x3bbf34e5	0.005835163
9	0x3b8dd781	0.0043286686
10	0xbbb0fb93	-0.0054010837
11	0x3c1e58fc	0.00966477
12	0x3c667fa3	0.014068517
13	0x399d4edc	0.00030004128
14	0xbc578069	-0.013153174
15	0xbce053bc	-0.027383678
16	0x3bc083bc	0.005875079
17	0x3b99eae8	0.0046971925
18	0x3c64ba3c	0.013960417
19	0x35118cc4	5.422155e-07
20	0x3ceb9e4d	0.028762007
21	0xbb875ca2	-0.0041309157
22	0x3bc3b15f	0.005972072
23	0xbc489a41	-0.012243808
24	0xba25615a	-0.0006308757
25	0x38bf169e	9.1118025e-05
26	0x3c5b88a0	0.013399273
27	0x3b5e10be	0.003388449
28	0xbce5f2c7	-0.028069867
29	0xbc5faf02	-0.013652565
30	0x3ba3e9b9	0.005002227
31	0x3cab93fb	0.020944586
32	0x3cf30bc7	0.029668702
33	0x3b8b1d6c	0.0042454507
34	0xba90888b	-0.0011027021
35	0xbd26d324	-0.040728703
36	0xbcb0f76a	-0.021602351
37	0xbd2a7ebe	-0.041624777
38	0xbbcac0a3	-0.006187515
39	0x8695d25a	-5.6356654e-35
40	0xbd03a197	-0.032136526
41	0x3d0322d8	0.03201565
42	0x3c88c50f	0.016695527
43	0xbd170325	-0.036868233
44	0x3b906807	0.0044069323
45	0xbb0ac576	-0.0021174825
46	0xbc50a6a4	-0.012735043
47	0x3bef3bd6	0.007300834
48	0x3cc3e96e	0.023915019
49	0x3ce797c4	0.02827061
50	0xbc98057c	-0.018557303
51	0x3b866566	0.004101443
52	0x3c88940f	0.016672162
53	0xbbce76aa	-0.006300767
54	0xbd0041e5	-0.031312842
55	0xbade1f4a	-0.0016946581
56	0x3b94bbf8	0.004539009
57	0x396de0f0	0.00022685877
58	0x8a93b7a2	-1.422466e-32
59	0x38516eed	4.993279e-05
60	0x91e0384f	-3.5375671e-28
61	0xbcbbf34a	-0.022943158
62	0x3cc22267	0.023698045
63	0x3d1c72f8	0.03819558
64	0x3cb01ff0	0.021499604
65	0xbdfc5a1a	-0.12321873
66	0xbd1d5ece	-0.03842049
67	0xbcda623a	-0.026658166
68	0xbdf2eb71	-0.11861313
69	0xbd9339f5	-0.07188789
70	0xbde9d18e	-0.114169225
71	0xbc4e6eba	-0.012599641
72	0x3c206d29	0.009791651
73	0xbd6073e0	-0.054798007
74	0x3d652bf1	0.05595011
75	0x3d294306	0.041323684
76	0x3c73a926	0.014871871
77	0xbc03a449	-0.008034774
78	0xbccca65c	-0.02498167
79	0xbd98ba25	-0.07457379
80	0xbd05d69f	-0.03267538
81	0x3c09605f	0.008384793
82	0xbdd70417	-0.10498827
83	0x3653cbc5	3.156006e-06
84	0x3d24b0bf	0.04020762
85	0x3d69033a	0.056887843
86	0x3da00c37	0.0781483
87	0xbd5bb50b	-0.053639453
88	0x3d295f6c	0.041350767
89	0x383ccbc7	4.5012475e-05
90	0x3d49e66c	0.049292013
91	0xbcb42ea8	-0.021994904
92	0xbd8e1737	-0.06938022
93	0x3b94c326	0.004539865
94	0xbc5fbd77	-0.013656012
95	0xbc0eceb4	-0.008716274
96	0x3d52561d	0.051351655
97	0x3ba5b13e	0.0050565293
98	0xbbc8c38c	-0.0061268266
99	0xbe222209	-0.15833296
100	0xbdeb180c	-0.11479196
101	0xbe30318e	-0.17206404
102	0x3d6bf730	0.057608783
103	0x8174bee6	-4.4952685e-38
104	0xbe0dda69	-0.13852848
105	0x3d461bb2	0.048366256
106	0x3d176a18	0.036966413
107	0x3cecdf0c	0.02891495
108	0x3c2ec43e	0.010666905
109	0xbcffd66f	-0.03123018
110	0xbc94e8cb	-0.01817741
111	0x3d5acca5	0.05341782
112	0x3db689e9	0.08913023
113	0x3b8e06a5	0.004334288
114	0xbcb1ec05	-0.021718988
115	0x3cce4501	0.025179388
116	0x3d06be55	0.03289636
117	0xbd44f106	-0.04808142
118	0xbd6477f2	-0.05577845
119	0xba1cd5c2	-0.000598278
120	0x3cb0329b	0.021508506
121	0x3a1fa5ae	0.0006090057
122	0x104e50b6	4.0688514e-29
123	0x38661153	5.4852408e-05
124	0x92e03337	-1.4149013e-27
125	0xbd6b380f	-0.05742651
126	0x3cef97d0	0.029247195
127	0x3cd05e5b	0.025435617
128	0x3cd2d722	0.025737349
129	0x3ce9017a	0.028443087
130	0x3c12bd63	0.008956286
131	0x3c1e96ce	0.009679509
132	0x3ca384af	0.01996073
133	0x3ce13132	0.027489278
134	0x3d24c1f0	0.040224016
135	0x3c9714ec	0.018442594
136	0x39da2f2a	0.0004161534
137	0x3d1e7d55	0.038693745
138	0xbd04146c	-0.03224604
139	0xbcbc2cf5	-0.022970656
140	0x3bbb2380	0.005711019
141	0x3ba12cc0	0.0049186647
142	0x3d056aa4	0.032572404
143	0x3ce55b1e	0.02799755
144	0x3c8ac2b7	0.01693855
145	0x3a769e40	0.00094077364
146	0x3d19e6bb	0.037573557
147	0xb641e7a5	-2.8894076e-06
148	0xbca64e0b	-0.020300886
149	0x3cbb7b36	0.0228859
150	0x3d3326fc	0.04373835
151	0xbce887cc	-0.028385065
152	0x3d00aaa9	0.031412754
153	0x384f38c6	4.940552e-05
154	0xbbc770a8	-0.0060864277
155	0x3c54aa4b	0.012980054
156	0x3cd3a32c	0.025834642
157	0xbd4da744	-0.050208345
158	0x3c35a71a	0.011087203
159	0x3c476c4b	0.012171815
160	0xbd10848d	-0.03528266
161	0x3b96c648	0.0046012737
162	0x3b5ea31b	0.003397173
163	0x3d194920	0.037423253
164	0x3d08795a	0.033318855
165	0x3d8c8498	0.06861228
166	0xba534121	-0.0008058716
167	0x1ed73e72	2.2789837e-20
168	0x3d0c71d2	0.034288235
169	0xbd002855	-0.031288464
170	0xbd009c8f	-0.031399306
171	0xbcc2438f	-0.023713855
172	0xbb0722c0	-0.0020620078
173	0x3c977509	0.018488424
174	0xbc27235c	-0.010201301
175	0xbc455c99	-0.012046003
176	0xbcaec28f	-0.021333007
177	0x3c203ee1	0.0097806165
178	0x3a75f60e	0.00093826733
179	0xbb73f733	-0.00372262
180	0xbd3e0e98	-0.046400636
181	0x3c9c4a5b	0.019078424
182	0x3d61bc31	0.055111114
183	0x3b0bc834	0.0021329047
184	0xbca85779	-0.020549523
185	0x377c537a	1.5039806e-05
186	0x0c84a0a8	2.0434512e-31
187	0xb76d0479	-1.4127342e-05
188	0x11092333	1.0818241e-28
189	0xbb803542	-0.003912599
190	0xbcb85bc0	-0.022504687
191	0x3cdb06f1	0.026736708
192	0x3c4ffc5b	0.012694444
193	0xbd66e0e5	-0.05636682
194	0xbceb357b	-0.028712025
195	0xbba80afa	-0.0051282616
196	0xbd932c58	-0.07186192
197	0xbd1cc488	-0.038273364
198	0xbd8fb0e1	-0.07016159
199	0x3c42ea7f	0.011896729
200	0x3c1a6c34	0.009425212
201	0xbcaccd51	-0.021093996
202	0x3c190505	0.009339576
203	0x3c9addae	0.018904533
204	0x3c9c54e6	0.019083451
205	0xbb1113a9	-0.0022136963
206	0xbc5e8e07	-0.013583667
207	0xbd3d2f3d	-0.046187628
208	0xbbb05bae	-0.005382023
209	0x3bf2c664	0.007408904
210	0xbccd29a3	-0.025044268
211	0x354c79ef	7.617336e-07
212	0x3d0edf92	0.034881182
213	0x3cd7c568	0.026339248
214	0x3d412c8c	0.047161624
215	0xbd278eef	-0.040907796
216	0x3cab82ca	0.020936389
217	0x38d7436b	0.000102645565
218	0x3cf5d712	0.03000978
219	0xbb8438b2	-0.004035079
220	0xbd403eb2	-0.04693479
221	0xbc93b594	-0.01803092
222	0x3a7828ec	0.0009466547
223	0x3c7e34ed	0.015515548
224	0x3d1e2872	0.03861279
225	0x3bdb8dc6	0.0067002503
226	0xbb2e8b7e	-0.0026633437
227	0xbdb99c3b	-0.09063002
228	0xbd6e3442	-0.058155306
229	0xbdb6eaa2	-0.089314714
230	0x3c94a30e	0.018144157
231	0x971da36b	-5.09357e-25
232	0xbd997cf0	-0.07494533
233	0x3d2ba779	0.04190776
234	0x3cb8aa90	0.022542268
235	0xbcacb178	-0.021080717
236	0x3bf9eb13	0.0076269
237	0xbc3660df	-0.011131494
238	0xbc8521f3	-0.01625154
239	0x3ccaace0	0.024740636
240	0x3d5799f8	0.05263707
241	0x3c042e97	0.0080677485
242	0xbcc6f66d	-0.024287427
243	0x3c1b874d	0.009492707
244	0x3c2af3af	0.010434075
245	0xbcc7323a	-0.024315942
246	0xbcf1b81d	-0.029506737
247	0xba684044	-0.0008859674
248	0x3c164f37	0.00917416
249	0x39e84c78	0.00044307462
250	0x0641810b	3.639407e-35
251	0x38953923	7.115516e-05
252	0x935a325b	-2.7540296e-27
253	0xbd25580b	-0.040367167
254	0x3cc712fe	0.024301048
255	0x3d318bfd	0.043346394

encoder.sage.linear.weight f4 [64, 128]
0	0x3db7a6c2	0.089673534
1	0x3f3f5ef7	0.7475428
2	0x3f3142ac	0.6924236
3	0x3ec42b57	0.38314316
4	0xbdb35fc2	-0.08758499
5	0x3d38780a	0.045036353
6	0xbe204a8e	-0.1565344
7	0x3d820c2c	0.06349978
8	0xbc15bd12	-0.009139316
9	0xbea3db83	-0.32003412
10	0xbc9b4147	-0.018952025
11	0x3dc2aada	0.095052436
12	0x3d8920ce	0.0669571
13	0x3aa90082	0.0012893828
14	0x3df2d7af	0.11857545
15	0xbb23b9a1	-0.002498247
16	0x3df4b77e	0.11949061
17	0xbecf3820	-0.40472507
18	0x3dabb130	0.08383405
19	0xbe7dfe4c	-0.24804038
20	0xbc0a5262	-0.008442493
21	0xbdb71efe	-0.08941458
22	0xbe0091c5	-0.12555607
23	0xbe4bce33	-0.19902878
24	0xbef53002	-0.4788819
25	0x3e829438	0.25503707
26	0x3da57432	0.08078803
27	0x3e070927	0.13187085
28	0x3eef3d24	0.46726334
29	0xbd55b7a2	-0.05217708
30	0xbc72b673	-0.014814007
31	0x3d7b1242	0.06129671
32	0xbc68b96d	-0.014204365
33	0x3d225d43	0.039639723
34	0xbccd1ce5	-0.025038192
35	0x3efae594	0.4900328
36	0x3cbeba25	0.02328212
37	0xbe1b61c8	-0.1517402
38	0xbe589df6	-0.21154007
39	0x90630bc2	-4.4776914e-29
40	0xbca2ccef	-0.01987311
41	0xbf87ddab	-1.0614523
42	0xba289886	-0.0006431419
43	0xbe173496	-0.14766154
44	0x3e35a9b0	0.17740512
45	0x3e399f38	0.18127143
46	0x3e131562	0.14363626
47	0xbe4bb443	-0.19892983
48	0x3e376eef	0.17913412
49	0xbff3e6b4	-1.905478
50	0xbd508baf	-0.050914463
51	0x3e959935	0.2921845
52	0x3cbe04b1	0.023195596
53	0x3bc3f3b0	0.0059799775
54	0x3f17163f	0.5901832
55	0xbb66e1f5	-0.0035229896
56	0xbe199040	-0.14996433
57	0xb8a7a636	-7.99414e-05
58	0xbd285158	-0.0410932
59	0x3d907de4	0.07055262
60	0x38488c48	4.7814363e-05
61	0x3eaccfe2	0.33752352
62	0x3cbe22cb	0.02320995
63	0x3e7462cf	0.23865817
64	0x3e52677a	0.20547286
65	0x3eb3ee45	0.35142723
66	0xbd7cceb3	-0.06172056
67	0xbe83044b	-0.25589213
68	0xbd7afae3	-0.06127442
69	0xbef3c0db	-0.47608075
70	0x3e24ff86	0.161131
71	0x3c49169e	0.012273459
72	0xbb4cb7e2	-0.0031237532
73	0xbea568df	-0.32306573
74	0xbf55ea38	-0.83560514
75	0xbe0b8a61	-0.13627006
76	0x3f65c95a	0.89760363
77	0x3ad08ebe	0.0015911681
78	0x3cda477c	0.026645415
79	0x3bf85af2	0.007579201
80	0xbcbcf7c8	-0.02306737
81	0xbb3d0d03	-0.0028846867
82	0x3f85626d	1.0420662
83	0xb63e18c8	-2.832663e-06
84	0xbca0edf3	-0.019644713
85	0x3f51c8c7	0.81946987
86	0x3c87bd20	0.016569674
87	0x3e9fe074	0.31225932
88	0xbb924dd6	-0.004464845
89	0x39ae2001	0.0003321171
90	0x3e41fd45	0.18944271
91	0xbc927f13	-0.01788286
92	0xbe81e120	-0.2536707
93	0x3d01f2b9	0.03172562
94	0x3e6dc85e	0.23220965
95	0xbc9d83e3	-0.019227928
96	0xbf95fedc	-1.1718402
97	0xbf1652d6	-0.5872015
98	0xbea62bfa	-0.32455426
99	0x3dd7c589	0.10535724
100	0xbed0d94d	-0.40790787
101	0xbb3a12c4	-0.0028392533
102	0x3c963870	0.018337458
103	0xb416ab83	-1.4032234e-07
104	0x3e73845c	0.2378096
105	0xbe3c840e	-0.1840975
106	0x3cb8b7e1	0.022548618
107	0x3c3e4089	0.011612066
108	0x3f24d849	0.64392525
109	0xbc8f0049	-0.01745619
110	0x3daa5d8a	0.083186224
111	0x3db62e0c	0.088955015
112	0xbdb1b551	-0.086771615
113	0x3e49b2d2	0.19697121
114	0x3e72f884	0.23727614
115	0x3e237706	0.15963373
116	0x3db4de85	0.08831505
117	0x3dfdbb06	0.123891875
118	0x3ed017b6	0.4064309
119	0xbb45da56	-0.0030189953
120	0x3cac4b03	0.021031862
121	0x39aae005	0.00032591834
122	0x3e7d1edb	0.24718802
123	0xb7c7e018	-2.3827e-05
124	0xbeb5b750	-0.3549142
125	0x3eb17f7d	0.34667578
126	0x3d39fc58	0.04540667
127	0xbe53d2a3	-0.2068582
128	0xbdbb1b1d	-0.09136031
129	0xbe335558	-0.17513025
130	0x3f1688b1	0.58802325
131	0x3c2c3ceb	0.010512571
132	0xbe12ccf1	-0.14335991
133	0xbd0338cc	-0.032036588
134	0x3e57bdb1	0.21068455
135	0x3f03fda5	0.51558906
136	0xbc980f5b	-0.01856201
137	0xbeccc280	-0.39992142
138	0xbd9fda69	-0.0780533
139	0xbd90de5b	-0.07073661
140	0x3f25eeeb	0.64817685
141	0xbecf2dfb	-0.40464768
142	0xbe0148a7	-0.12625371
143	0x3ea5252f	0.3225493
144	0x3e5a3753	0.21310167
145	0x3caa6ecc	0.020804785
146	0x3f1009c9	0.5626493
147	0x3a9a126e	0.001175476
148	0x3d8821cf	0.066470735
149	0xbf8026f0	-1.0011883
150	0xbea2914d	-0.3175148
151	0x3d94151b	0.07230588
152	0xbee6d502	-0.45084387
153	0xbeacbda0	-0.33738422
154	0xbe029337	-0.1275147
155	0x3e34b18f	0.17645858
156	0xbe684b23	-0.22684912
157	0xbc6cbb9f	-0.014449029
158	0x3cbac049	0.022796767
159	0xbf12f622	-0.5740682
160	0xbd0b109e	-0.033951394
161	0xbdc38ee9	-0.09548742
162	0xbd3e1f05	-0.0464163
163	0xbe4c3765	-0.19943006
164	0x3d1d0d7b	0.038342934
165	0xbd047510	-0.032338202
166	0xbe1090ee	-0.14117786
167	0x3b36166b	0.0027784358
168	0x3d8bc8d8	0.06825417
169	0xbe9655d6	-0.29362363
170	0xbc256e4e	-0.0100970995
171	0xbe3e8880	-0.18606758
172	0x3f26bc9a	0.65131533
173	0x3e9eaf9b	0.3099335
174	0xbf82efd3	-1.0229439
175	0xbe857afd	-0.26070395
176	0xbd99b336	-0.07504885
177	0xbf372b85	-0.7155078
178	0xbdb0a1d4	-0.08624616
179	0xbefc00ca	-0.49219352
180	0x3d799e46	0.060941957
181	0x3f0188f4	0.505996
182	0xbdfbecae	-0.123010024
183	0xbb71a1a8	-0.0036870036
184	0xbeb09ab1	-0.3449302
185	0xbedf6168	-0.43629003
186	0x39dfaa18	0.00042660604
187	0x3e897d3e	0.26853365
188	0x87f12b5d	-3.6287136e-34
189	0x3d74a1eb	0.05972473
190	0xbc070123	-0.008240017
191	0xbd80b448	-0.06284386
192	0x3e60d4e1	0.21956207
193	0x3e4f4423	0.20240836
194	0x3e33aaa3	0.17545561
195	0x3f246b3e	0.6422614
196	0x3e35468c	0.17702693
197	0xbda0f039	-0.07858319
198	0x3e318622	0.17336324
199	0x3e14bea9	0.14525856
200	0xbbc3d78c	-0.005976623
201	0xbd4c54e9	-0.049885664
202	0xbe44478b	-0.19167916
203	0x3d045ba4	0.032313958
204	0xbd83f913	-0.064439915
205	0x3a8dfb24	0.0010832292
206	0x3e0857c9	0.13314737
207	0xbe72712a	-0.23675981
208	0xbb5a27bb	-0.0033287841
209	0x3de412e6	0.11136417
210	0x3daace64	0.08340147
211	0x3af60e31	0.001877254
212	0x3e157658	0.14595926
213	0xbf184f73	-0.5949623
214	0xbd199836	-0.037498675
215	0x3ed8bab2	0.42329937
216	0x3df90b71	0.121603854
217	0x3bf940b0	0.0076065883
218	0xbc8d78a5	-0.017269442
219	0xbd4380b5	-0.047730166
220	0xbb3189ac	-0.0027090115
221	0x3e98416e	0.2973742
222	0x3e91f718	0.2850883
223	0xbd960d2a	-0.073267296
224	0xbd0020a0	-0.031281114
225	0x3d19006a	0.03735391
226	0xbdeaafbe	-0.114593014
227	0xbea678ce	-0.32514042
228	0x3f20d9c7	0.628323
229	0x3da00648	0.07813698
230	0xbdae3721	-0.08506609
231	0x3e421d2e	0.18956444
232	0x3e7d9a63	0.24765925
233	0x3fbe2b7c	1.485702
234	0x3ccd47a7	0.02505858
235	0xbe44973e	-0.1919832
236	0xbebf2a1f	-0.37336823
237	0x3e649a58	0.22324502
238	0x3f91ae1c	1.1381259
239	0x3f634514	0.8877728
240	0xbf181ed3	-0.59422034
241	0xbe2ffe44	-0.17186838
242	0x3dcfc5b2	0.10145129
243	0x3f6336ba	0.8875538
244	0xbe7547df	-0.23953198
245	0x3f8a3206	1.0796516
246	0xbd611621	-0.054952744
247	0xbc877f28	-0.016540125
248	0x3fa8c008	1.3183603
249	0xbdb7b047	-0.08969169
250	0xbd0ab75b	-0.033866268
251	0xb98dfa85	-0.00027080267
252	0x3823444c	3.8925835e-05
253	0xbf17608e	-0.59131706
254	0x3bac187c	0.005251942
255	0x3e3b262f	0.18276285

linear.weight f4 [2, 64]
0	0xbda53f21	-0.080686815
1	0xbe27faa8	-0.16404212
2	0xbd1952f6	-0.037432633
3	0x3d034e1e	0.03205692
4	0x3e82eec8	0.255728
5	0x3bcd1487	0.0062585506
6	0x3c2eff65	0.010681008
7	0x3f6bcb7c	0.9210737
8	0xbced92c9	-0.029000657
9	0x3d770392	0.06030614
10	0x3e2cf59b	0.16890566
11	0xbe6399b4	-0.22226602
12	0x3db684be	0.08912037
13	0x3f13240c	0.5747688
14	0x3dfde1fc	0.12396619
15	0xbd27af1e	-0.04093849
16	0x3ee9c78e	0.4566006
17	0xbd6b00c6	-0.057373784
18	0xbc5982d3	-0.01327582
19	0x3e4e3f34	0.20141298
20	0x3e7f1927	0.24911939
21	0x3efea869	0.49737862
22	0x3d157df9	0.03649709
23	0x3ec2521b	0.37953267
24	0x3eb473e8	0.3524468
25	0x3c9bea01	0.01903248
26	0x3b583a37	0.0032993683
27	0x3da2865a	0.07935782
28	0x39e7d569	0.00044218756
29	0xbdd3dbf4	-0.10344687
30	0xbcad43af	-0.021150438
31	0x3ce8facc	0.028439902
32	0x3d03d87b	0.032188874
33	0xbdc2bb09	-0.095083304
34	0xbd1c1400	-0.03810501
35	0x39d60f82	0.00040828815
36	0x3e18e228	0.14930022
37	0xabdc5386	-1.5655123e-12
38	0xbcafb1f1	-0.021447154
39	0xbd73295f	-0.059365626
40	0x3d0f6469	0.035007868
41	0x3c0f5e14	0.008750457
42	0xbe28b1fa	-0.16474143
43	0x3d32459a	0.04352341
44	0x3d9a56cb	0.07536086
45	0x3de9e646	0.11420874
46	0x3e723b87	0.2365552
47	0xbe4d4494	-0.20045692
48	0x3b2498ee	0.0025115567
49	0xbefc6c07	-0.49301168
50	0x3daabdd9	0.08336992
51	0x3d31ee4e	0.043440156
52	0xbe9758b6	-0.2955987
53	0xbda6960a	-0.081340864
54	0x3ca1e25f	0.019761262
55	0xbe4d024b	-0.20020406
56	0x3e244487	0.16041766
57	0x3e030b9c	0.12797397
58	0x3e36521d	0.17804761
59	0x3cc13715	0.023585835
60	0x3d8bc2af	0.06824242
61	0xbe0cfe7b	-0.13768952
62	0x3d5ef4d0	0.05443269
63	0x3c07ca72	0.008288013
64	0x3dd50233	0.1040081
65	0x3e1fc28c	0.15601557
66	0x3d24557c	0.040120587
67	0xbd937216	-0.071994945
68	0xbe2328d2	-0.1593354
69	0xbbccf35d	-0.006254597
70	0x3deca4bd	0.11554859
71	0xbf7568f4	-0.9586327
72	0xbbd8716c	-0.006605318
73	0xbdf13e9e	-0.117795214
74	0xbd176711	-0.036963526
75	0x3e26a309	0.1627313
76	0xbdb24ce3	-0.08706071
77	0xbed32c1d	-0.41244593
78	0xbdae1c6b	-0.08501514
79	0x3e04ae7a	0.12957183
80	0xbee99ec4	-0.4562894
81	0xbd3c5bb1	-0.04598588
82	0xbc9ba1a5	-0.018997977
83	0xbe88c080	-0.26709366
84	0xbe945056	-0.2896754
85	0xbf00cd66	-0.50313413
86	0xbdb1c1bb	-0.08679529
87	0xbec94ac7	-0.39314863
88	0xbebf055a	-0.3730877
89	0x3df6145b	0.12015601
90	0xbb586e38	-0.003302468
91	0xbe03cf44	-0.12872034
92	0xb9e7d539	-0.00044218617
93	0x3de1bcd6	0.11022346
94	0x3e022966	0.12711105
95	0xbda68b81	-0.08132077
96	0xbdde2a2d	-0.10847888
97	0x3e4c7db1	0.19969822
98	0xbb7cf6fd	-0.0038599365
99	0xb9ba14a0	-0.0003549205
100	0xbe18eb4f	-0.14933513
101	0xaaf341f7	-4.3211244e-13
102	0xbd8fd611	-0.07023252
103	0xbaeee28f	-0.0018225479
104	0xbd7acaa2	-0.061228402
105	0xbc1dbb26	-0.009627139
106	0x3e07d1a0	0.1326356
107	0xbd6b349b	-0.057423215
108	0xbd1e8a95	-0.03870638
109	0xbdf98702	-0.12183954
110	0xbe72c333	-0.23707275
111	0x3dfc06d2	0.12305988
112	0xbb2ff255	-0.0026847322
113	0x3efdd3b2	0.49575573
114	0xbbdd3b2e	-0.0067514395
115	0xbdac719f	-0.08420109
116	0x3ea2a778	0.31768394
117	0xbdbf665e	-0.09345697
118	0x3d0a8af7	0.033823933
119	0x3e92f3f9	0.2870176
120	0xbdcb621c	-0.09930822
121	0xbe2a335f	-0.16621159
122	0xbe1908b1	-0.14944722
123	0xbd94defe	-0.07269095
124	0xbdee7258	-0.11642903
125	0x3e193802	0.14962772
126	0xbd8ad222	-0.06778361
127	0xbd80b61b	-0.06284734

linear.bias f4 [2]
0	0x3e2f19b9	0.17099656
1	0xbe76bf9e	-0.24096534
