SCG-SFFL-main/SCG/pretrained_models/kafka.pth (torch, 55195 bytes, 5 tensors)

sage.linear.weight f4 [64, 14]
0	0xbeeaf128	-0.45887113
1	0xbfea6325	-1.8311507
2	0x3f20b557	0.627767
3	0xbe81ab44	-0.25325978
4	0xbf17074b	-0.58995503
5	0xbda46ebd	-0.08028934
6	0x3f08fcc8	0.53510714
7	0x3cf7c55a	0.030245472
8	0x3ec5d8b7	0.38641903
9	0x3e9c6b3e	0.3055057
10	0xbeab93b6	-0.33511132
11	0x3f2bdf30	0.6713743
12	0xbcc42f63	-0.023948377
13	0x3eb614ee	0.35562843
14	0x3f1ec7e7	0.62023777
15	0x3f89846e	1.0743539
16	0x3e6ae285	0.22937973
17	0x3f00f233	0.50369567
18	0x3ecd8c0a	0.40145904
19	0x3ecb8d5b	0.39756283
20	0xbf52d148	-0.8235059
21	0x3e372a0c	0.17887133
22	0xbf052762	-0.5201322
23	0xbe3b4493	-0.18287878
24	0xbe7c6478	-0.24647701
25	0x3e9ceead	0.30650845
26	0x3e057e0c	0.13036364
27	0x3f2fddc4	0.6869776
28	0x3f66d45d	0.9016779
29	0xbf08531c	-0.53251815
30	0xbe6e6ea2	-0.2328439
31	0xbea2b1bd	-0.3177623
32	0x3d480b5b	0.048838954
33	0x3d24b652	0.040212937
34	0x3d024d7a	0.03181217
35	0x3d228b93	0.03968389
36	0x3de8f9fd	0.113758065
37	0xbe8cc17e	-0.27491373
38	0x3d8fb7f1	0.07017506
39	0x3f32846c	0.6973331
40	0x3c5c66e9	0.01345227
41	0xbd883091	-0.06649888
42	0x3c40fcc6	0.011779016
43	0x3ca8a128	0.020584658
44	0xbd0d5621	-0.034505967
45	0x3d67ff8a	0.056640185
46	0x3eb31ec7	0.3498442
47	0x3e610003	0.2197266
48	0x3c9addc4	0.018904574
49	0xbe1b3480	-0.15156746
50	0x3ec8718b	0.39149126
51	0x3ea2409d	0.3168992
52	0x3dec125d	0.1152694
53	0x3f01b3d7	0.5066504
54	0x3de3a07d	0.11114595
55	0x3e97b592	0.29630715
56	0x3f05c507	0.52253765
57	0x3ed3728b	0.41298327
58	0xbe85580b	-0.26043734
59	0x3ece33c9	0.40273884
60	0xbf2032dc	-0.62577605
61	0x3f052630	0.52011395
62	0xbe80a545	-0.2512609
63	0x3e867f90	0.26269197
64	0x3f031d24	0.5121634
65	0x3eef1890	0.46698427
66	0x3dfa0c62	0.12209393
67	0xbebfd2cd	-0.37465516
68	0x3df914f1	0.121621974
69	0xbe82cede	-0.25548452
70	0x3f6cb601	0.92465216
71	0xbdd308fc	-0.10304448
72	0x3ee1a4bb	0.44070992
73	0x3e4fd94d	0.20297737
74	0xbfb0194a	-1.3757718
75	0xbe5636a5	-0.20919283
76	0xbddeaf46	-0.108732745
77	0x3e80ecbf	0.25180623
78	0xbda561fc	-0.0807533
79	0xbd84135e	-0.064490065
80	0x3ea1481f	0.31500337
81	0x3f300ba2	0.6876775
82	0x3ebcdf52	0.3688913
83	0x3ebc91df	0.3683004
84	0xbfac68f7	-1.3469533
85	0x3d8d1b44	0.06889966
86	0x3f30c106	0.6904453
87	0x3df26dbe	0.11837338
88	0x3e53899b	0.20657961
89	0xbe16b7d5	-0.14718564
90	0x3e09e121	0.13464786
91	0xbf162cf5	-0.5866235
92	0x3e1fea4e	0.15616724
93	0x3e042942	0.12906364
94	0x3cdd5c63	0.027021592
95	0x3ef9c57f	0.4878349
96	0x3ed7093c	0.41999233
97	0x3f49c778	0.7881999
98	0xbf0d4ffa	-0.5520016
99	0x3a2abfc0	0.00065135583
100	0xbd948a5d	-0.07252953
101	0xbc12458a	-0.008927712
102	0x36947b26	4.42508e-06
103	0xbd27b2a9	-0.040941868
104	0xbe52d49b	-0.20588915
105	0x3dad7e5d	0.084713675
106	0x0ce32bd3	3.5001264e-31
107	0xb8a3c213	-7.808595e-05
108	0xbeb701d7	-0.3574359
109	0xbaa2d6eb	-0.001242367
110	0xbeeb7a9e	-0.45991987
111	0xb1bdd491	-5.52479e-09
112	0x3e9146b6	0.2837426
113	0x3e93d1d6	0.2887103
114	0xbe9160f3	-0.2839428
115	0x3e4dd9be	0.20102593
116	0xbe63df23	-0.22253089
117	0x3e44fd62	0.19237283
118	0x3f129df0	0.57272243
119	0x3e1f3220	0.15546465
120	0x3ec6c6db	0.3882359
121	0x3dea4f1d	0.11440871
122	0x3cf2bc37	0.029630763
123	0x3ebb415d	0.36573306
124	0x3f1c6924	0.6109793
125	0x3ce73158	0.028221771
126	0xbea1a31a	-0.3156975
127	0x3e889ab2	0.26680523
128	0xbfe0108d	-1.7505051
129	0x3e1efe31	0.15526654
130	0xbe4fab19	-0.20280112
131	0x3e836acb	0.25667414
132	0xbf0af358	-0.54277563
133	0xbf228b07	-0.6349339
134	0xbec1b4b4	-0.37833178
135	0x4003471d	2.0512154
136	0xbf328986	-0.69741094
137	0x3e05a6cf	0.13051914
138	0x3e63ebf3	0.22257976
139	0xbbd5a608	-0.0065200366
140	0xbf43f33f	-0.7654304
141	0xbf79293a	-0.9732853
142	0x3e57e848	0.21084702
143	0xbc5c1521	-0.013432772
144	0x3ea0d9c8	0.31416154
145	0xbdf52890	-0.11970627
146	0x3df20df1	0.11819065
147	0x3ee7e350	0.45290613
148	0x3f8b36dc	1.0876117
149	0xbd9ccb49	-0.07655961
150	0x3ea6fa09	0.32612637
151	0x3e8184e1	0.2529669
152	0x3e83e3b7	0.2575967
153	0xbf3f1b5b	-0.74651116
154	0xbe89154f	-0.2677407
155	0xbe6480e8	-0.22314799
156	0x4006d881	2.1069643
157	0xbf2ed546	-0.6829418
158	0x3eaafe1c	0.33396995
159	0x3d9a8cc3	0.075463794
160	0xbf2ccf1b	-0.6750352
161	0x3ea3c8aa	0.31989032
162	0xbe7fa951	-0.24966933
163	0xbf579791	-0.84215647
164	0xbe683060	-0.22674704
165	0xbe10b6df	-0.1413226
166	0xbe84eb42	-0.25960737
167	0x3d3e9f9a	0.046538927
168	0xbe6d4182	-0.2316952
169	0x3e0f7c52	0.14012268
170	0x3f18d432	0.59698784
171	0x3e0651ad	0.13117094
172	0xbe753eb8	-0.23949707
173	0x3ddb5a9e	0.10710643
174	0xbde6c0ad	-0.11267219
175	0x3e8cb80e	0.27484173
176	0xbe10055c	-0.14064544
177	0xbeea28ca	-0.45734245
178	0xbf9f4600	-1.2443237
179	0xbf740b2d	-0.9532955
180	0x3da5f74b	0.08103808
181	0xbda49a36	-0.08037226
182	0xbec5a0e6	-0.38599318
183	0x3efb3aa1	0.49068168
184	0x3e4771f4	0.19477063
185	0x3f088ae9	0.5333696
186	0xbf552da1	-0.8327275
187	0x3f5065fc	0.81405616
188	0xbf0eea31	-0.558261
189	0xbf5268a7	-0.82190937
190	0x3e8b366e	0.27189964
191	0x3f001efa	0.50047266
192	0x3dcfba9b	0.10143014
193	0xbec6f755	-0.38860574
194	0x3d22ae0c	0.039716765
195	0x3ee50772	0.44732243
196	0x3f493d64	0.786093
197	0xbd3fe61d	-0.046850313
198	0x3f137af3	0.5760948
199	0xbdc6216c	-0.096743435
200	0xbecfae75	-0.40562788
201	0x3e215906	0.15756616
202	0xbe3c4c32	-0.18388441
203	0xbc2f6d13	-0.010707158
204	0xbcc045bc	-0.023470752
205	0xbd60d1ef	-0.05488771
206	0xbda2a058	-0.079407394
207	0x3ead89e0	0.33894253
208	0x3e860b14	0.26180327
209	0xbea3538a	-0.31899673
210	0x3b36a501	0.0027869346
211	0xbf080dc6	-0.53146017
212	0xbec3b644	-0.38224995
213	0x3e76809d	0.240725
214	0x3d0b7aaa	0.03405253
215	0xbf18adbb	-0.5964009
216	0x3d8739ee	0.06602846
217	0x3d5108e7	0.05103388
218	0x3f0f3037	0.55932945
219	0x3f332ab2	0.6998702
220	0x3d0f19c3	0.034936678
221	0xbe40bf43	-0.1882296
222	0x3cd72db3	0.026266908
223	0xbe47bf9d	-0.19506688
224	0xbe7b3b19	-0.24534263
225	0xbc1603b9	-0.009156161
226	0x3f6dfd29	0.92964417
227	0xbee77c59	-0.45212057
228	0xbe227cce	-0.15867922
229	0x3e91c4ed	0.28470555
230	0xbe206d81	-0.15666772
231	0x3f328c26	0.697451
232	0xbea16d2c	-0.31528604
233	0xbe0cf807	-0.1376649
234	0x3e94ec2a	0.2908643
235	0x3d2862e0	0.04110992
236	0x3b9fa919	0.004872453
237	0xbf504465	-0.8135436
238	0x3e1e70fd	0.15472789
239	0x3d94fe85	0.07275108
240	0x3fbe9a80	1.48909
241	0x3f4dad70	0.8034277
242	0xbf47b3b3	-0.78008574
243	0x3cccbf37	0.024993522
244	0xbf14d60d	-0.58139116
245	0xbe78c3bb	-0.24293415
246	0x401037d7	2.2534082
247	0x3e076ac8	0.13224328
248	0x3ee78eac	0.45226038
249	0xbdbea0ad	-0.0930799
250	0x3ee063e6	0.43826216
251	0x3f1a12e5	0.6018508
252	0x3f3cfa44	0.73819375
253	0x3e99b7f6	0.30023164
254	0x3e9567da	0.29180795
255	0x3e84ef7a	0.25963956

weight f4 [64, 64]
0	0x3d103cbd	0.035214175
1	0xbbd0d330	-0.0063728318
2	0x3b2129a6	0.0024591475
3	0xbd3726e3	-0.04471482
4	0xbd1a4b65	-0.037669558
5	0xbcebc74a	-0.028781552
6	0xbd118408	-0.035526305
7	0x8495ff02	-3.526392e-36
8	0xbd2dee24	-0.042463437
9	0x3cd4d9d7	0.02598278
10	0xbd247140	-0.040147066
11	0x3d8695aa	0.06571515
12	0x3d794db4	0.06086512
13	0xbd230c9b	-0.039806943
14	0x3cec0d40	0.028814912
15	0xbc8a5662	-0.016886894
16	0x3cd8c2b9	0.026460038
17	0xbdbbfcae	-0.09179054
18	0xbc704076	-0.014663806
19	0x3d4d054d	0.050053883
20	0xbcaeb0d0	-0.021324545
21	0xbd497901	-0.049187664
22	0x3c52e832	0.0128727425
23	0xbb0882fc	-0.0020830026
24	0x3a93a400	0.0011264086
25	0xbc84ad0b	-0.016195795
26	0xbd0051a3	-0.031327855
27	0xbdaab9c4	-0.08336213
28	0x3d594e6b	0.0530533
29	0xbbe56cbe	-0.0070014885
30	0x3cb83b07	0.022489084
31	0xabe660f7	-1.6369396e-12
32	0xbb2f62b2	-0.0026761708
33	0xbd9d9a08	-0.07695395
34	0x3c52e67e	0.012872336
35	0x3c80976b	0.015697202
36	0x3cf136ec	0.029445134
37	0x3b66a450	0.0035193153
38	0x3d79a5ee	0.06094926
39	0x38d87181	0.000103208244
40	0x3c73d133	0.01488142
41	0x3d86f87a	0.06590362
42	0xbcaf02a2	-0.02136356
43	0xbbcdf2e4	-0.0062850583
44	0xbd37a6d7	-0.044836845
45	0xbc3ec29a	-0.011643076
46	0xbd33920d	-0.043840457
47	0x3bdea1dd	0.006794198
48	0x3caa15f0	0.020762414
49	0x3c3b83e0	0.011445016
50	0xb7291357	-1.0077688e-05
51	0x3b5b173c	0.0033430597
52	0x3d873901	0.066026695
53	0xbcd413ae	-0.02588829
54	0xbd6926e1	-0.056921843
55	0xbcb7d942	-0.022442464
56	0x3c0fe418	0.008782409
57	0x3ba2df01	0.004970432
58	0xbc601adf	-0.013678282
59	0x3cae5941	0.021282794
60	0x3c170f02	0.009219887
61	0x3c594726	0.013261592
62	0x3bfa2b74	0.0076345745
63	0x3a8d969c	0.0010802331
64	0xbb045108	-0.00201899
65	0x3d6f700c	0.058456466
66	0x3c8101b5	0.015747884
67	0x3df53885	0.11973671
68	0xbbd4bbb9	-0.006492105
69	0x3cf13052	0.029441986
70	0x3dcd5f84	0.10027984
71	0x1354c447	2.6854934e-27
72	0x3dc016c1	0.0937934
73	0x3d6a13ac	0.057147667
74	0x3d8b69f1	0.06807316
75	0xbcd625f7	-0.02614115
76	0xbd8d222a	-0.06891282
77	0xbc8f8784	-0.017520674
78	0xbc8aa8d5	-0.016926209
79	0x3cec4136	0.028839689
80	0xbd270905	-0.040780086
81	0x3d30f13d	0.043198813
82	0xbcbe6823	-0.023243016
83	0xbdaaf79b	-0.08348008
84	0x3c833174	0.016014792
85	0x3d3fe5f2	0.046850152
86	0xbd625c08	-0.05526355
87	0x3c28c407	0.010300643
88	0x3b9a98ec	0.0047179367
89	0x3c3fabc4	0.011698667
90	0x3d892872	0.066971675
91	0x3de2d2e8	0.110753834
92	0x3d8955a5	0.067057885
93	0x3dac1a15	0.08403412
94	0xbb1b9ca0	-0.0023744479
95	0x2a40cc0b	1.7123817e-13
96	0xbcc7142e	-0.024301615
97	0x3d960c6e	0.073265895
98	0x3d217682	0.03941966
99	0xbc266700	-0.010156393
100	0xbce96487	-0.028490318
101	0x3c4d32ee	0.01252435
102	0xbd8c994f	-0.06865179
103	0x3a215a51	0.0006155121
104	0xbbd54792	-0.006508776
105	0xbd9005cd	-0.070323564
106	0x3cc4febf	0.024047254
107	0xbd765afa	-0.060145356
108	0x3df7ab9b	0.12093278
109	0x3c41f4ed	0.01183818
110	0x3d9b5336	0.075842306
111	0xbaf78ed4	-0.0018887171
112	0xbdcfeeb7	-0.10152953
113	0x3c2de35c	0.010613289
114	0x36c32e33	5.816831e-06
115	0x3ba91489	0.0051599187
116	0xbc96a5ea	-0.01838966
117	0x3cb3c19f	0.021942912
118	0x3d76717a	0.060166813
119	0x3ca573fa	0.020196903
120	0x3b448926	0.0029988973
121	0x3d95b9d5	0.07310835
122	0x3dac4002	0.08410646
123	0xbd365ac1	-0.044520143
124	0xbc0731c9	-0.008251616
125	0xbb9c1e3d	-0.004764347
126	0xbc14b148	-0.00907547
127	0x3b33fe75	0.00274649
128	0xbc85fcb2	-0.016355846
129	0x3c4640b8	0.012100391
130	0xbaa11205	-0.0012288695
131	0xbd0f64e8	-0.03500834
132	0x3b796742	0.0038055931
133	0xbc7a90c7	-0.015293307
134	0xbd1cb05b	-0.038254123
135	0x86971aed	-5.683945e-35
136	0xbc7fbea6	-0.015609419
137	0x3bcd31aa	0.006262024
138	0xbcedbcc4	-0.029020675
139	0x3d0ba9bd	0.034097422
140	0x3d51aeee	0.051192217
141	0xbc66cf00	-0.014087439
142	0x3c640743	0.013917747
143	0xbc96600d	-0.018356347
144	0x3c97bad9	0.018521713
145	0xbcd925b4	-0.026507236
146	0x3d04c628	0.03241554
147	0x3bf51704	0.0074795503
148	0xbac3bd4e	-0.0014933737
149	0xbcf82d1f	-0.030294953
150	0x3d535d11	0.051602427
151	0x3acbda31	0.0015552697
152	0x3c15b920	0.0091383755
153	0xbb954872	-0.0045557553
154	0xbbbe18e7	-0.0058013084
155	0xbd00fff5	-0.0314941
156	0x3d2d7341	0.042346243
157	0xbc445454	-0.011982996
158	0x3ca2a6a1	0.019854845
159	0xa8eb0688	-2.6093074e-14
160	0xbcb9ba78	-0.022671923
161	0xbc3830eb	-0.011242132
162	0xbc1a46fd	-0.009416339
163	0x3c0dd483	0.008656624
164	0x3bcaf3d3	0.006193617
165	0x3b275d5a	0.002553782
166	0x3cf3348f	0.029688148
167	0x392fc698	0.00016763282
168	0x3c3debca	0.011591861
169	0xbad6cc69	-0.0016387823
170	0xbcdf7f8f	-0.027282504
171	0x3c1c81b7	0.009552411
172	0xbcf23305	-0.029565344
173	0xbc76fd80	-0.015075088
174	0xbcf0a36b	-0.029374799
175	0x3ba2c3df	0.0049671973
176	0x3cc56847	0.024097575
177	0x3c221080	0.009891629
178	0xb681599d	-3.854932e-06
179	0x3ac4232a	0.0014964093
180	0x3d05af09	0.03263763
181	0xbcdb3367	-0.026757909
182	0xbd324822	-0.043525822
183	0xbc00c069	-0.007858374
184	0x3cee783f	0.029110072
185	0xbbefddda	-0.007320148
186	0xbd047682	-0.03233958
187	0x3a8e1588	0.0010840157
188	0x3bf34406	0.0074238805
189	0x3c26ca35	0.010180046
190	0x3c40f63d	0.011777458
191	0x39dab721	0.00041716642
192	0x3ccc26f3	0.024920916
193	0xbcf3a8b5	-0.029743532
194	0x3b1d7a4a	0.0024029189
195	0x3c408d9c	0.011752512
196	0xbc2c8b01	-0.010531188
197	0x3c9775e7	0.018488837
198	0x3b2b2344	0.002611355
199	0x993a9fe2	-9.648263e-24
200	0xbbc7f0bc	-0.006101696
201	0xbb4d4ddc	-0.0031326925
202	0x3c8c2685	0.017108211
203	0x3c8f139d	0.017465407
204	0xbd3b0ee3	-0.045668494
205	0xbbf96881	-0.007611335
206	0xbc888f21	-0.016669812
207	0x3cac7e74	0.021056391
208	0xbc8a2839	-0.016864883
209	0x3d3892aa	0.045061745
210	0xbcd1c7e3	-0.025608009
211	0x3c297638	0.010343127
212	0xbcff7691	-0.031184467
213	0xbc4ce079	-0.01250469
214	0xbd7bb3b2	-0.061450668
215	0xbb6a2b74	-0.0035731466
216	0x3c85bd1f	0.016325532
217	0x3ad6dae1	0.0016392135
218	0xbd975b2d	-0.07390437
219	0xbc3be6c2	-0.011468591
220	0xbd4d739b	-0.050159078
221	0x3bf650da	0.0075169625
222	0xbc92c576	-0.017916422
223	0x288d2178	1.566866e-14
224	0x3d529163	0.051408183
225	0xbcb678a6	-0.022274327
226	0xbcf05655	-0.029338041
227	0x3b86df31	0.004115962
228	0x3c47171a	0.012151504
229	0xbb91e299	-0.0044520614
230	0x3a2149bf	0.00061526516
231	0xb8ec32af	-0.000112627975
232	0xbc2f0b7d	-0.010683891
233	0x3c9e680d	0.019336725
234	0x3d629d0b	0.05532555
235	0xbadff9e3	-0.0017088022
236	0x3c2c2883	0.010507706
237	0x3c68aa5c	0.014200773
238	0x3ba5c3b6	0.005058731
239	0xbb8e587a	-0.0043440433
240	0xbd319523	-0.04335512
241	0xbc22e8ec	-0.009943228
242	0x3604fed1	1.9817855e-06
243	0xbac2075c	-0.0014803219
244	0xbd079582	-0.033101566
245	0x3d16ca68	0.036814123
246	0x3d3774cb	0.044789117
247	0x3c4bd80b	0.012441645
248	0xbd395469	-0.045246515
249	0x3ba8a60c	0.0051467475
250	0x3d20b672	0.039236493
251	0x3c20a3d6	0.0098046865
252	0xbb98350e	-0.0046449965
253	0xbabcb198	-0.0014396189
254	0xbba5ff4e	-0.005065835
255	0xb917c117	-0.00014472414

encoder.sage.linear.weight f4 [64, 128]
0	0x3d85e130	0.06537092
1	0x3c71f630	0.014768168
2	0x3909a590	0.00013127015
3	0xbdd151c0	-0.10220671
4	0x3ca973f2	0.02068517
5	0xbd0ccc0c	-0.03437428
6	0x3f26e588	0.65193987
7	0xb0f31a5a	-1.7688067e-09
8	0x3d08964a	0.03334645
9	0x3ba0b65b	0.004904551
10	0xbda895c1	-0.08231688
11	0x3e604ac5	0.21903522
12	0xbd58d8c7	-0.05294111
13	0xbdcfbab3	-0.10143032
14	0xbcbfd97e	-0.023419138
15	0xbc8a8f0f	-0.016913919
16	0x3ea2c21f	0.31788728
17	0x3f839ad9	1.0281631
18	0xbe05dd99	-0.13072814
19	0x3f3d536b	0.7395541
20	0x3e341df4	0.17589551
21	0xbe621419	-0.22077979
22	0x3ed01545	0.40641227
23	0x3ed0e220	0.4079752
24	0xbf5d706b	-0.8649966
25	0x3ca8c24c	0.02060046
26	0x3ec3e0d1	0.3825746
27	0xbb155c93	-0.0022790774
28	0x3bf746a3	0.0075462623
29	0xbb0e3d1d	-0.0021703907
30	0x3b353bde	0.0027654092
31	0x3f3360a5	0.7006934
32	0x3f5ad642	0.8548318
33	0xbaae2f5c	-0.0013289261
34	0x3e27c3d9	0.16383304
35	0x3d56ae2d	0.0524122
36	0x3e918175	0.2841908
37	0x3dce0e40	0.10061312
38	0x3db8cdae	0.09023605
39	0xbf92190d	-1.1413895
40	0x3db88df8	0.090114534
41	0xbf7b2d8a	-0.9811636
42	0x3f8cf943	1.1013569
43	0xbed59190	-0.41712618
44	0x3a40cfcc	0.0007355183
45	0xbe127b04	-0.14304739
46	0x3e0c077e	0.13674733
47	0xbf9fd1bc	-1.2485881
48	0x3fa79525	1.309239
49	0xbb7ec44b	-0.0038874324
50	0x3e296b4b	0.16544835
51	0xbca9fea6	-0.020751309
52	0xbdecc80a	-0.11561592
53	0x3c601edd	0.013679233
54	0x3e4dfe11	0.2011645
55	0x40264ab5	2.5983098
56	0x3fa96c52	1.3236182
57	0xbea103a9	-0.31448105
58	0xbd3a3291	-0.04545838
59	0x3f068348	0.5254407
60	0xbb191be2	-0.0023362567
61	0xbf24b89b	-0.64344186
62	0xbf355d87	-0.70845836
63	0xb9755ffb	-0.00023400776
64	0x3cda5987	0.026654018
65	0xbbf9b2d0	-0.007620193
66	0xbc116a30	-0.008875415
67	0xbe2909db	-0.16507666
68	0x3cddae57	0.02706067
69	0x3bda9797	0.006670903
70	0xbf4014e9	-0.75031906
71	0x3e9e5e23	0.30931196
72	0x3efc1421	0.49234107
73	0xbe42314b	-0.18964116
74	0x3f2ba527	0.6704888
75	0xbf17db6c	-0.59319186
76	0x38d1d6cf	0.00010005908
77	0x3d9a5610	0.07535946
78	0x3d9194d0	0.07108462
79	0x3e201ad1	0.1563523
80	0xbe22017d	-0.1582088
81	0x3f67787d	0.90418226
82	0xbdd95f7d	-0.10613916
83	0xbc146f9f	-0.009059816
84	0x3e8f1fb3	0.27953872
85	0x3cd862db	0.026414325
86	0x3ddb81ec	0.1071814
87	0xbb2659a3	-0.0025383017
88	0xbb400bae	-0.0029303837
89	0x39ce0f76	0.000393029
90	0x3f5767dc	0.8414285
91	0x3ce77252	0.028252754
92	0x3b31c725	0.0027126756
93	0x3e5b1525	0.21394785
94	0xbadb0711	-0.001671048
95	0xbf188fd3	-0.5959446
96	0xbea46f27	-0.32116053
97	0x3d31832d	0.04333799
98	0xbeb45904	-0.35224164
99	0xbec2f11f	-0.38074586
100	0xbb6de8b7	-0.003630204
101	0x3ec654eb	0.38736662
102	0x3c70f51e	0.014706878
103	0xb91a1715	-0.00014695183
104	0x39a6f4d0	0.00031844387
105	0xbde07e8c	-0.10961637
106	0xbef2d7e3	-0.47430333
107	0xbe3c923f	-0.18415163
108	0x3cb25d9c	0.021773152
109	0xbe313f43	-0.17309289
110	0x3e6e841c	0.23292583
111	0xbd640d03	-0.05567647
112	0xbf2ba5d4	-0.6704991
113	0xbc90a22e	-0.017655458
114	0xbd13e57a	-0.036107518
115	0x3a2abf28	0.000651347
116	0xbb6c6294	-0.00360695
117	0x3bf46c58	0.0074592046
118	0x3e96d694	0.29460585
119	0x3ecb419b	0.3969849
120	0xbe23a5dc	-0.15981239
121	0x39964674	0.0002866272
122	0xbd4b7b7e	-0.04967832
123	0x3c928b59	0.017888712
124	0xbe83887d	-0.2569007
125	0x3ae6d58b	0.0017611248
126	0xbe9109d5	-0.28327814
127	0x3dd02186	0.10162644
128	0xbf105ae9	-0.5638872
129	0x3daab5d8	0.08335465
130	0x3f7ba5b9	0.9829975
131	0x3f3b5bac	0.73186755
132	0x3dd7d893	0.10539355
133	0x3f8b22b7	1.0869969
134	0x3e40069d	0.18752523
135	0x3ba550b0	0.005045019
136	0xbdb79101	-0.08963204
137	0x3f97355f	1.1813163
138	0xbdb4c3f3	-0.08826437
139	0x3f5ce793	0.86290854
140	0x3fb1c730	1.3888912
141	0xbec54168	-0.38526464
142	0x3db279fa	0.087146714
143	0xbdae4aa8	-0.08510333
144	0x3f0003cf	0.5000581
145	0xbe607816	-0.21920809
146	0x3deea448	0.11652428
147	0x3eb82c0e	0.3597111
148	0x3f00f7b9	0.50377995
149	0x3ddd503e	0.108063206
150	0xbccebb41	-0.025235774
151	0xbe4aa673	-0.19790058
152	0x3d76cad4	0.060252026
153	0xbeb801f9	-0.35939005
154	0x3e652311	0.22376658
155	0xbd99a314	-0.07501808
156	0xbd2527c8	-0.04032114
157	0x3d3aba9b	0.045588117
158	0xbde4716f	-0.11154448
159	0x370c74e1	8.371863e-06
160	0x3e381948	0.17978394
161	0xbf39c260	-0.7256222
162	0x3f62c109	0.885758
163	0xbd00e96f	-0.03147262
164	0xbd22c8d5	-0.03974231
165	0xbf8c01cc	-1.0938048
166	0xbcf37d7c	-0.029722922
167	0x3b27ce07	0.002560498
168	0xbd1cf8a0	-0.038323045
169	0xbc3044e5	-0.010758613
170	0xbe7511a9	-0.23932518
171	0xbeeee8ae	-0.46661896
172	0xbc734d83	-0.014850023
173	0x3ec7e28f	0.39040038
174	0x3f1b1c82	0.60590374
175	0xbd2e07f5	-0.042488057
176	0x3f69bdca	0.9130522
177	0xbfaad43f	-1.3346022
178	0x3d61c7cd	0.055122185
179	0xbc12f474	-0.008969415
180	0x3f59d0e5	0.8508437
181	0x3dd0326f	0.101658694
182	0x3ee45deb	0.44602904
183	0x3dc2073c	0.09474036
184	0x3e597776	0.21236977
185	0xbd13cbf1	-0.036083166
186	0x3f2bbf4f	0.6708879
187	0xbcbe2296	-0.023209851
188	0xbf04bf47	-0.51854366
189	0xbd8e3f5f	-0.06945681
190	0x3f4f2656	0.8091787
191	0xbe8f2783	-0.27959833
192	0xbf33c8ef	-0.70228475
193	0xbdbcb447	-0.09214073
194	0x3bd5acf8	0.0065208636
195	0xbe625d58	-0.2210592
196	0x3d9b9df8	0.075984895
197	0xbf277a27	-0.65420765
198	0xbde19e8c	-0.110165685
199	0x95d237f4	-8.49066e-26
200	0x3d874ad1	0.06606067
201	0xbea457c0	-0.32098198
202	0xbe22fd22	-0.15916875
203	0xbfafe4c6	-1.3741691
204	0xbe04eb38	-0.12980354
205	0x3e87168d	0.26384392
206	0xbebfd66a	-0.37468272
207	0x3e667017	0.22503696
208	0xbc3a493e	-0.011370001
209	0x3f181598	0.5940795
210	0xbd3b1cbe	-0.045681708
211	0xbdb004f6	-0.08594696
212	0xbdb375d7	-0.087627105
213	0x3f0c40d6	0.5478643
214	0xbfa1a201	-1.2627565
215	0xbc2c5be0	-0.010519952
216	0xbed2117f	-0.41028973
217	0x3bfac6f3	0.007653111
218	0xbef2a70d	-0.47393075
219	0xbf64df9a	-0.8940369
220	0x3cfb77cb	0.03069677
221	0xbead04cf	-0.3379273
222	0x3e77517c	0.24152178
223	0x3cc70468	0.024294093
224	0xbf1f761c	-0.62289596
225	0xbd085a34	-0.03328915
226	0xbe52a827	-0.20571958
227	0x3ce59ce3	0.028028911
228	0xbf256660	-0.64609337
229	0x3de28be6	0.1106184
230	0x3d1f74bb	0.038929682
231	0x3ab4f4d7	0.0013805878
232	0x3ca9a042	0.0207063
233	0x3ef41da2	0.47678858
234	0x3d978957	0.07399242
235	0x3f554abc	0.8331716
236	0xbfd1f768	-1.6403627
237	0x3c6cd342	0.014454665
238	0xbdb56742	-0.088575855
239	0x3b5f0800	0.0034031868
240	0x3cd9279c	0.026508145
241	0xbd54189f	-0.051781293
242	0x36823953	3.8809753e-06
243	0x3b87f2fe	0.00414884
244	0xbd263b02	-0.040583618
245	0xbe4f9e4a	-0.20275226
246	0xbe9a4535	-0.30130926
247	0xbeb5d76d	-0.3551592
248	0x3c079f44	0.008277718
249	0x3d76c4cc	0.060246274
250	0xbeaf5135	-0.34241644
251	0x3c7e877f	0.0155352345
252	0x3bfd8ee4	0.007737981
253	0x3cef3060	0.029197872
254	0xbe127868	-0.14303744
255	0x3b186df1	0.002325889

linear.weight f4 [2, 64]
0	0x3cfa1ea3	0.030532187
1	0x3d99a5c6	0.07502322
2	0x3ec01157	0.3751323
3	0x3d113c18	0.0354577
4	0x3c594755	0.013261636
5	0xbcb9836b	-0.022645673
6	0x3d6290ad	0.055313755
7	0xbcd90761	-0.026492776
8	0x3e14f99e	0.14548346
9	0xbd41c2da	-0.047304966
10	0x3d2fda30	0.04293269
11	0x3ea824d8	0.3284061
12	0xbe0d0093	-0.1376975
13	0xbd57d655	-0.052694637
14	0x3d018af1	0.031626645
15	0xbd60937e	-0.05482816
16	0x3d0c9538	0.034321994
17	0x3dd3864e	0.10328351
18	0xbd63a7f4	-0.055580094
19	0xbef6315e	-0.4808454
20	0xbdcc4af1	-0.099752314
21	0x3d1e5f55	0.038665134
22	0x3dd1b250	0.102390885
23	0x3d0aff78	0.03393504
24	0xbd93c9bd	-0.07216213
25	0x3d119a00	0.035547256
26	0x3d24f024	0.04026808
27	0x3dd4d8bd	0.10392902
28	0xbec1517b	-0.37757477
29	0xbe270c98	-0.16313398
30	0xb95aeabc	-0.00020877545
31	0x3e2274d6	0.15864882
32	0xbdd7ebb6	-0.10543005
33	0x3ba85698	0.005137276
34	0x3ddb6cb3	0.10714092
35	0xbd328961	-0.043588046
36	0x3e9d372c	0.30706155
37	0x3f28e2d0	0.6597109
38	0xbe4330db	-0.19061606
39	0x3dd8d276	0.10587017
40	0x3e835765	0.25652614
41	0xbcdc7b54	-0.026914276
42	0xbdd40b68	-0.10353738
43	0x3ebc45fb	0.3677214
44	0xbcbd8ca0	-0.023138344
45	0x3c0b7d7b	0.008513804
46	0x3e638c26	0.22221431
47	0x3d6667a5	0.056251187
48	0x3d426f6a	0.047469534
49	0x3eee823c	0.46583736
50	0x3d337e08	0.043821365
51	0x3ceef5c5	0.029169926
52	0x3e637afd	0.22214885
53	0xbdce1827	-0.100632004
54	0x3dd77385	0.105200805
55	0xbcaf46f0	-0.02139613
56	0xbe88fa26	-0.26753348
57	0x3f509692	0.8147975
58	0xbf303efc	-0.68846107
59	0x3e0df2fc	0.13862222
60	0x3e91c610	0.28471422
61	0xbf0ba90c	-0.5455482
62	0x3e7b435b	0.24537413
63	0x3d3f195a	0.046655037
64	0x3ca11334	0.019662477
65	0xbd6647ab	-0.05622069
66	0xbea5462c	-0.322801
67	0xbda0d0c9	-0.078523226
68	0xbd8386f8	-0.064222276
69	0xbc989f5a	-0.018630672
70	0xbd4f412e	-0.05059927
71	0xbe0848fb	-0.1330909
72	0xbe0cf193	-0.13764028
73	0xbd1d68e6	-0.038430117
74	0xbd22bff3	-0.03973384
75	0xbe930421	-0.28714088
76	0x3cabe754	0.02098433
77	0xbcf7c1ad	-0.030243719
78	0xbce124be	-0.02748334
79	0x3d17fb8d	0.037105132
80	0xbccefc3a	-0.025266755
81	0xbd6ebdb3	-0.05828638
82	0x3d27ac32	0.040935703
83	0x3edf12af	0.43568942
84	0x3da05025	0.07827786
85	0xbe148cc4	-0.14506823
86	0xbcf9d2e1	-0.030496063
87	0x3dc02911	0.09382833
88	0x3d52a263	0.051424395
89	0x3cd468eb	0.025928935
90	0x3d88e210	0.06683743
91	0xbb111128	-0.002213547
92	0x3eb34540	0.3501377
93	0x3d1cae9c	0.038252458
94	0x395a8495	0.00020839491
95	0xbe28a318	-0.16468465
96	0x3c495218	0.012287639
97	0xbd4893f7	-0.048969235
98	0xbe3a874f	-0.18215679
99	0x3beeddcb	0.0072896234
100	0xbecef6e1	-0.4042273
101	0xbf139362	-0.57646763
102	0x3de2db3b	0.11076971
103	0xbe0b261c	-0.13588756
104	0xbdd8722c	-0.105686516
105	0xbca50fa5	-0.020149061
106	0x3ddf3695	0.108990826
107	0xbea122ba	-0.31471807
108	0xbd10bcaf	-0.035336193
109	0x3deee1e1	0.11664177
110	0xbe3baaa1	-0.18326809
111	0xbda88e49	-0.08230264
112	0xbccf7162	-0.02532262
113	0xbf06737d	-0.5251997
114	0xbde48344	-0.111578494
115	0xbd34bb30	-0.04412383
116	0xbdf1b92e	-0.11802898
117	0x3c70d448	0.014699049
118	0xbdedea5a	-0.11616965
119	0xbc6d1c2c	-0.014472049
120	0x3e7dd6f1	0.24789025
121	0xbf528377	-0.8223185
122	0x3f3b21b0	0.7309828
123	0xbcf543cc	-0.029939555
124	0xbe814ef1	-0.2525554
125	0x3f0d67ac	0.55236316
126	0xbe6273d2	-0.22114494
127	0xbe0d2bc6	-0.1378623

linear.bias f4 [2]
0	0x3d0bdc2a	0.03414551
1	0x3d8bfa91	0.06834901
