SCG-SFFL-main/SCG/pretrained_models/realm-java.pth (torch, 55195 bytes, 5 tensors)

sage.linear.weight f4 [64, 14]
00000000: 49a0 aa3d 571c da3d eb2e 67bf 5cc7 8e3d
00000010: 1a57 983e d883 96bd 3392 b53e 6fae 5a3e
00000020: 561d 143e 5d0c b23e 5316 8bbc 8da7 0d3f
00000030: 7a53 d1bc ab60 03be e54e 2b3d 0430 cbbd
00000040: 02fa 563f 7044 7a3f f00e f8be 37cf a33e
00000050: 0455 aabe 7325 cf3e 0e95 3cbe 7306 10bf
00000060: 0c7b 33be 97f7 243f baef a53e d8f7 913e
00000070: b5f2 a3bd a978 a0bf 93ef ea3f 390e acbe
00000080: 0d18 6f3e 22e7 1fbf e7da 093e f34d e73e
00000090: ac4f 4cbd 7f8b a4bf c980 a83e 87d5 07bf
000000a0: daba 50be 6d63 c6be 3b41 14be 7a72 f9be
000000b0: bb0d 473e a1ec d33e 32ef ac3e 0971 a73f
000000c0: cab2 df3f d293 16bf f424 553e 4fc6 b23c
000000d0: 4f60 a03f 36ea 663e 438b ebbc 7aaf 99bf
000000e0: fd6b 5cbd 68b2 083d 582c dcbf 8cf3 c5bc
000000f0: 2cc9 d6be 25ee 443d 5125 493e 1dfa c6bd
00000100: 7594 61bd 10b1 1e3f 4458 123b d22b 43bc
00000110: 59b3 9abe 24d6 38bc 34c4 df3e 2dff ae3d
00000120: 04ab 1c3f cefe 28be 5411 43bd 1aba d4bb
00000130: 69f0 d0ba 39cd 8ebf 631d b6be 4d31 93bf
00000140: 1db8 56bd e468 183f 1424 1f3c 1f65 cd3d
00000150: 5d2c 343f 8714 44bc addf 6ebe 12d2 5cbb
00000160: b9fd 17be e112 ba3c 1339 e4b7 226a a6bd
00000170: 91e4 183f 00ac 9dbf 0eea 2c3e b1be e63c
00000180: 5d50 a7bd db66 393f bb1f 0a3f 26e3 b93f
00000190: 3d5e f3bc 22c5 1a3f 10b5 2bbf 6748 ee3e
000001a0: 321e 653f c31e 633f a7c2 913e e5f4 493f
000001b0: a330 3bbe 4868 c73f badc 51bc fe69 cabf
000001c0: e826 873e a54f f23e 57ef 643f 4f6e 653e
000001d0: 6573 4b3f 276b f93e 1f7a 57be 775a 8b3e
000001e0: 0920 293f 57a7 b4bf f60c 05bd 0c9d f4be
000001f0: 1f58 34bf 8699 273e 6b07 2f3f 2bfa 953e
00000200: 70c9 b43e efa7 ad3e ed7b 363e 9e70 e6bd
00000210: 2d36 19bf 6bd8 0c3f e44e 403e c66c 41bf
00000220: e786 ccbd f692 fd3e de8b a5be 27fe db3e
00000230: a9db 83bf c6d9 8dbd 6102 0740 854a cc3d
00000240: 4811 45bf 48ab d1be 2e84 503d 4e04 123e
00000250: 7a83 113f abb7 963f 7ce5 3a3e 700d 413f
00000260: 7cb3 d5be 6616 8d3e c076 053f ba2e bdbf
00000270: effe 2ebe 7e9a 0dbf d603 203f 73fc 0cbf
00000280: 012a 5a3e 025c 943f f053 0d3f b7ec 1a3f
00000290: 9f04 14bf 6902 8d3f 954d e33d 00b4 823e
000002a0: e815 2b3f cf8c 653f e0ae 853b 5480 3f3f
000002b0: 0342 033f 2960 193f fd28 173f 896d f43e
000002c0: 7bd7 4dbf 533b 30bc 9d73 43bd fc1c 9abe
000002d0: 87b8 013f 23dc 89bd 7819 ca3f bd09 e8be
000002e0: 43c2 06bf 483b f83d 4b43 803b 38c8 153e
000002f0: bdbe 393f 63a0 0f3f bd5a a8be 64ab 22be
00000300: aefb 89bc d6ae a2bd a4d1 df3e d221 d43d
00000310: 90cb ba3c 83b3 73bd d3de 0abe eb56 603d
00000320: c8fb b43d f321 b03e 2b59 563d 53e6 abbd
00000330: f7cf 7fbd aca1 e8bd 392d 50bc 243a ff3e
00000340: 0942 6abe 612c 753d 0388 30be 000d 14be
00000350: 6740 3c3d 25a1 273f 5811 fa3b 2c3b 263e
00000360: c134 18bc 4b2d a63e 1523 7bbf 2b00 26be
00000370: df82 a5bc c3f2 b93d aaf5 123d 5334 cabe
00000380: 88d0 c13f a228 11bf 53ff 743f f0b1 223e
00000390: c4f9 803f b648 5a3f ea26 c9be 4173 943f
000003a0: a86e 933f a03c 9cbf b0fc 4c3f cee4 2ebf
000003b0: 55fd b63e 888e 893f 580b 863f 6670 b33e
000003c0: 02f1 993f c8cb 403f d1fc 9c3e fa5d 623e
000003d0: 7a68 6ebf 449d 9fbf 0be6 3d3d c2f1 70bd
000003e0: 614b 6a3e d69b a43d 4ca8 9ebd 4e8c b53c
000003f0: ded1 253d 8dd8 c3bd 06bf dcbd 5f0e d7be
0.08331353 0.10649937 -0.90305966 0.069716185 0.29753953 -0.07349366 0.35463104 0.21355604
0.14464316 0.34775057 -0.016978418 0.5533379 -0.0255525 -0.12829845 0.041823287 -0.09921268
0.8397523 0.9776068 -0.48448896 0.3199403 -0.33267987 0.4045826 -0.18416235 -0.5625984
-0.17527407 0.6444029 0.3240946 0.28509402 -0.08005277 -1.2536823 1.8354362 -0.336046
0.23349018 -0.62462056 0.13462411 0.45176658 -0.04988067 -1.2855071 0.32910755 -0.5306019
-0.20383778 -0.3874773 -0.14478008 -0.4872015 0.19438832 0.4139147 0.33776242 1.308137
1.7476437 -0.58819306 0.20814878 0.021823077 1.2529391 0.22550282 -0.028752929 -1.2006676
-0.053813923 0.033373266 -1.7201033 -0.024163984 -0.41950357 0.048078675 0.19643141 -0.09715674
-0.05507322 0.61988926 0.0022330442 -0.011912303 -0.30214956 -0.011281524 0.4370438 0.08544765
0.6119845 -0.1650345 -0.047623947 -0.0064919116 -0.0015940788 -1.1156379 -0.35569295 -1.149942
-0.052421678 0.5953505 0.009713192 0.10029053 0.70380193 -0.011967785 -0.23327513 -0.0033694548
-0.14842881 0.02271408 -2.7206295e-05 -0.08125712 0.59723765 -1.2318115 0.1688616 0.0281671
-0.08169625 0.7242257 0.53954667 1.4522445 -0.029708022 0.6045705 -0.67073154 0.46539614
0.894992 0.88718814 0.2846882 0.78889304 -0.18280272 1.5578699 -0.012808973 -1.5813596
0.2639687 0.4732639 0.89427704 0.2240536 0.79472953 0.48714563 -0.21042679 0.27217457
0.66064507 -1.4113568 -0.032483064 -0.47776067 -0.7044696 0.16367158 0.68370694 0.29292426
0.35309935 0.33917186 0.17820711 -0.11251949 -0.5984829 0.5501773 0.18780094 -0.755566
-0.09986668 0.49526185 -0.32333273 0.4296734 -1.030141 -0.069263026 2.1095202 0.09975151
-0.76979494 -0.4095099 0.050907306 0.14259455 0.5684124 1.1774801 0.18251604 0.7541113
-0.41738498 0.2755615 0.52134323 -1.4779885 -0.17089437 -0.5531386 0.62505853 -0.55072707
0.21305086 1.1590579 0.55206203 0.6051745 -0.5781955 1.101636 0.11098782 0.25527954
0.668303 0.8966798 0.0040796846 0.7480519 0.512726 0.59912354 0.5904692 0.4773982
-0.8040692 -0.0107563315 -0.04771768 -0.30100238 0.5067219 -0.06731441 1.5789022 -0.4531993
-0.5264017 0.12120682 0.003914272 0.14627159 0.7255667 0.56104106 -0.32881728 -0.15885693
-0.016843643 -0.079435036 0.4371463 0.10358013 0.022802144 -0.059497368 -0.13561563 0.05477039
0.08837086 0.344009 0.05233113 -0.0839354 -0.06245419 -0.113589615 -0.012706094 0.49849045
-0.22876753 0.059856776 -0.17239384 -0.14458084 0.045959856 0.6548026 0.007631462 0.1623351
-0.009289921 0.3245643 -0.98100406 -0.16211002 -0.020204006 0.09079506 0.035878815 -0.39493045
1.5141764 -0.56702626 0.95702094 0.1588819 1.0076222 0.852672 -0.39287502 1.1597673
1.1518145 -1.2206001 0.8007307 -0.6831788 0.35740152 1.0746622 1.0472212 0.3504669
1.2026675 0.75310946 0.30661634 0.22106162 -0.9312817 -1.2469869 0.046361964 -0.05882431
0.22880317 0.08037536 -0.07746944 0.022161629 0.040483348 -0.09562788 -0.10778622 -0.42003152

weight f4 [64, 64]
00000000: 9b07 b63b 3a97 773b 53a3 95bc 3ba3 2c3c
00000010: 97ed 49b8 640b 0439 a8d6 44b9 95bb e93a
00000020: 09f2 95bc 6e15 04bb 27fe 0e3c ba0f cf3c
00000030: e44c 02bc 6fb0 86ba 262c c33a 206d 8838
00000040: 6b04 0cbc 3cdf 42bc 5383 0c3a d333 c425
00000050: 2cc3 a9bb 88e8 ac3c 4f0f 073c 1ecf 1abc
00000060: 848c 09bc ce7c 4907 2fa3 4ebc 0d58 a53b
00000070: 47ee 183a 6aa9 74bb ffe1 843c 4191 babb
00000080: 5f67 883b 1a47 a73b 2b9a 433b 91fa 47bc
00000090: 7ca8 2f3c c46d a43b e684 6ebb ad58 9e3c
000000a0: 291b 063a 76e0 193c 2a74 3b3c d528 a33c
000000b0: 836c a299 2832 1938 7507 5e3c 3f10 81bc
000000c0: 985b bf3b 08d1 183c 119a ff3a 70ed 093c
000000d0: 2a42 93bb c957 dcba 902f 33bb 7d15 3abb
000000e0: 3d11 92bc 07c6 393a 766c 113c 7d03 a73c
000000f0: e1e3 303c 5e94 91bb 1898 1abc 8899 6a3b
00000100: 582a a33c 5c98 523c 342a 76bd 49da 193d
00000110: aac9 0bb9 3539 203b da9d 57ba 3cf7 1bbb
00000120: edc4 8cbd 8ebc 3ebc 0937 f93c 5af1 bd3d
00000130: 2833 01bd d2e9 88bb c316 bb3b 28de 2139
00000140: 78ba 1cbd d093 26bd dea3 cf3a b350 8126
00000150: 534f a2bc 2d68 a33d 5517 b53c 1379 fcbc
00000160: f197 fabc 812d 5f23 de19 29bd f867 833c
00000170: 63f0 953a bf1d 19bc 8bea 713d ef5c aabc
00000180: fe3b 8c3c b9b7 a53c cb9e 6c3c 40dc 4cbd
00000190: 139d 253d 2242 d43c 0908 5cbc 6d54 8d3d
000001a0: 268b b43a c0b0 063d cc96 173d 17ad 963d
000001b0: 04bf 09a0 7d43 0539 edac 3c3d 2182 6ebd
000001c0: 2d25 c43c cd1a 0f3d c80c 0c3c d78f d33c
000001d0: 480d 98bc d5cb cfbb 226f 5abc dda0 27bc
000001e0: 02f0 92bd 65b8 483c 4086 003d 429a 9b3d
000001f0: 9c8d 243d 4ffa 8abc 4658 10bd 5790 a53c
00000200: cede 91bc b242 39bc 85db 5a3d ffe7 06bd
00000210: 8849 d638 c90f e5ba ab94 1c3a ba6a a03a
00000220: faaf 753d 3b0b 1c3c 84e1 d9bc 7c06 a6bd
00000230: d419 e03c 28d7 633b 8a26 9bbb 2119 d537
00000240: 622a 073d 8fb7 133d 18de afba c649 2da8
00000250: 0d5a 8f3c 9b65 8ebd f8d2 a5bc 14ca dd3c
00000260: c2af dd3c 542e 9f8d 1383 153d 88b8 66bc
00000270: 4df6 90ba 1e25 133c 9e69 54bd 53bf 943c
00000280: 4280 76bc 8110 8ebc 6b94 4dbc f721 313d
00000290: 482e 10bd c535 b2bc 1647 393c 36af 77bd
000002a0: 0c3b a7ba 20ca eabc e4b0 0abd f449 83bd
000002b0: ea01 0707 7ce1 f2b8 fda9 25bd 718e 503d
000002c0: 4694 a9bc db3e f9bc 5ace dcbb 6f86 babc
000002d0: 5884 853c 71b7 b43b 9629 3a3c 9ec0 123c
000002e0: 09f9 7e3d 1740 21bc d7df e9bc 2e99 87bd
000002f0: cf58 0ebd c980 703c 1956 f83c 3f11 88bc
00000300: 6712 413c 6c27 0f3c 1756 26bd ec8d c43c
00000310: 57f9 6eb8 42a7 8239 d3ab d2b9 672d 873b
00000320: 8dfa 29bd d145 a1bb d761 943c 783c 6a3d
00000330: e371 93bc 285d 31bb aaa4 5d3b 7bd0 0739
00000340: 2e26 a3bc e383 d6bc 1258 a33a d675 dc26
00000350: 36c5 41bc ae0f 423d 9037 953c 2cc9 acbc
00000360: cce6 98bc 5b46 5690 807d e8bc 7bd9 383c
00000370: 590b 993a 5adf 0abc 0154 1b3d 4949 52bc
00000380: 7785 1f3c a8a8 303c c88c 0d3c 9295 e5bc
00000390: 4a6b c63c e9eb 543c 12ee 03bc 08dc 323d
000003a0: 66b3 953a df29 a23c 6890 cc3c 3656 373d
000003b0: 0b80 601e 367a ae38 3612 f73c 4310 13bd
000003c0: 2a01 4c3c d4ff ac3c 086f bd3b a74f 973c
000003d0: 211a 28bc 294b 7abb 731b d0bb 657b d7bb
000003e0: cd07 27bd ef48 263b 03b6 a53c 05c8 3c3d
000003f0: e5e4 b73c 13a2 24bc 21ee abbc 73ef f23b
0.005555106 0.0037779347 -0.018266356 0.010536964 -4.8143407e-05 0.00012592744 -0.00018771982 0.0017832393
-0.018303888 -0.0020154375 0.008727587 0.025276054 -0.0079529025 -0.001027597 0.0014890477 6.5053115e-05
-0.008545975 -0.011894044 0.0005360145 3.4035698e-16 -0.005180737 0.021106973 0.008243396 -0.009448795
-0.008395318 1.5158236e-34 -0.012612148 0.005045897 0.0005833846 -0.0037332424 0.016221045 -0.005693585
0.0041627134 0.0051049115 0.002984653 -0.012205736 0.010721322 0.005017968 -0.0036395132 0.019329393
0.00051157415 0.009391895 0.01144127 0.019916931 -1.6794235e-23 3.6524754e-05 0.013551583 -0.015754817
0.0058397762 0.009327181 0.0019500871 0.008418426 -0.0044939714 -0.001681083 -0.0027341582 -0.0028394156
-0.017830485 0.00070866983 0.008875957 0.020387406 0.010796518 -0.0044427356 -0.009435676 0.0035797078
0.019917652 0.012853708 -0.06009884 0.03756169 -0.00013331199 0.002444816 -0.0008225121 -0.0023798486
-0.06873498 -0.011641635 0.03042175 0.0927455 -0.031542927 -0.004178264 0.0057095005 0.00015436916
-0.038263768 -0.04066831 0.0015841683 8.973047e-16 -0.019813215 0.07978854 0.022105852 -0.030819451
-0.03059003 1.209849e-17 -0.041284434 0.016040787 0.0011439439 -0.009345471 0.05906157 -0.020796267
0.01711845 0.020229207 0.014442156 -0.050014734 0.040433 0.02591044 -0.01342965 0.069008686
0.001377438 0.032883406 0.037009045 0.07357233 -1.1667553e-19 0.0001270901 0.046063352 -0.05822957
0.023943508 0.03493767 0.008547969 0.025825424 -0.01856102 -0.0063414373 -0.01333216 -0.010231224
-0.07174684 0.012250994 0.03137803 0.07597782 0.04017411 -0.01696506 -0.035240434 0.020210428
-0.017806437 -0.011307405 0.053432006 -0.032936092 0.000102180114 -0.0017476018 0.0005973081 0.0012238838
0.059982277 0.009524162 -0.026596792 -0.081067055 0.027356066 0.0034765694 -0.004734819 2.540328e-05
0.032999404 0.036063727 -0.001341763 -9.619426e-15 0.017498994 -0.069529735 -0.0202422 0.027073897
0.027061347 -9.810285e-31 0.036501955 -0.014082082 -0.0011059731 0.008981017 -0.051858537 0.018157637
-0.0150452275 -0.017341854 -0.012547593 0.043245282 -0.035200387 -0.021754155 0.011308452 -0.06046983
-0.0012758686 -0.028660834 -0.033860102 -0.0641059 1.0156834e-34 -0.00011581459 -0.040445317 0.050917093
-0.020700585 -0.03042548 -0.006738466 -0.022769181 0.016298458 0.005515032 0.011362454 0.008957056
0.062249217 -0.00984194 -0.028549118 -0.066210136 -0.034752663 0.014679142 0.030314492 -0.016609786
0.011784173 0.008737426 -0.040609445 0.023993455 -5.6975838e-05 0.0002492015 -0.0004018234 0.0041252854
-0.04149871 -0.004921653 0.01811306 0.057186574 -0.017998641 -0.0027063582 0.0033820071 0.00012952268
-0.019915666 -0.026185935 0.001246216 1.5297506e-15 -0.011826804 0.047378235 0.01821497 -0.02109202
-0.01866474 -4.2258258e-29 -0.028380156 0.01128232 0.0011676355 -0.008476103 0.03792191 -0.012834855
0.00973641 0.010782398 0.008639522 -0.028025422 0.024221081 0.0129956985 -0.008052366 0.04366687
0.0011421263 0.019795356 0.024971202 0.04475995 1.188494e-20 8.31973e-05 0.03016005 -0.03590418
0.012451449 0.021118082 0.005781058 0.018470598 -0.010260136 -0.0038191772 -0.0063509285 -0.006575989
-0.040778924 0.0025373062 0.020228392 0.04608919 0.022448013 -0.010048407 -0.020987572 0.0074137985

encoder.sage.linear.weight f4 [64, 128]
00000000: 0a9e 8abe 6bfb c0be 89c1 93bc 01b9 5bbe
00000010: 1a29 323f 3435 c2bd fcf8 4ebc 55d4 083e
00000020: 71b3 37bf 70e1 813e ff89 293e 1957 423e
00000030: 17a7 55bf 65b0 f53d 3f08 dd3c f845 1e3e
00000040: a0ba 8d3d e885 99be e611 d8bd 1470 4b3f
00000050: 20a7 5cbe bca1 a6bd 50d2 e33e 5b5b 473e
00000060: 9a6c 8a3e 5484 8fb8 99fc f1bd 746e 11be
00000070: 6146 a6bc e656 af3e 640f 61bd 260a fbbd
00000080: cac9 373c 09ca b6be 72c4 f5bd c5e7 513e
00000090: f569 f73e 1093 49bd daeb febd 6b2c 703e
000000a0: 2491 40b9 2980 ca3e 5842 0dbf d7ee 86bd
000000b0: 00d6 9789 e43a 4439 203f 7e3e cd27 65be
000000c0: 0aa9 e7be 5e2f 27bd af97 1b3d b1c9 1ebc
000000d0: 2422 60be caa1 ca3c 4745 02bf a9dd 77be
000000e0: c972 283e 068e 30be 4c6c 5abd d5d2 4b3e
000000f0: 76ba 9abe edcf 4f3c 92b7 38bf c900 c73e
00000100: 12c8 b53c 8067 6cbd bd5a 29bf d2db 25be
00000110: d763 163e 6f2a e1be 05d6 5b3d 86b5 243e
00000120: ec23 5a3d d3dc bf3d 8a5e 9fbe 1018 3d3e
00000130: 822d 213e 5cd2 873f e646 e6bc d282 5f3b
00000140: 1b13 14bf 39df ff3e 03e8 4ebe b33f ccab
00000150: d3f0 1f3e 0f95 683f b671 c3bd 52d6 dbbe
00000160: 57b5 21bf bf9f a9be 7bef 293f 4358 b1be
00000170: d9d0 82bc 2c9e e6be 7703 253f f672 b9bd
00000180: 27ae 98be 632f 28bf 64a0 c93e ec61 e33d
00000190: ed2a 97bf 1b04 443e 5a87 aebd f72b 193f
000001a0: d986 48bd 2d56 c0be 0a5e 8a3d 40fd 4d3e
000001b0: fd6f 3fbf 1343 3a3d 7c55 a13e 93bd 203e
000001c0: b103 213f 61bb cbbd cb61 c7bc 4d24 db3e
000001d0: 0b0b 403f 99b0 2a3c 74a8 14be c3fd ef3e
000001e0: a185 bbbf 737d be3e 1d8f 073e 199f a9be
000001f0: a42e 173f b8e5 c9be 3a63 2bbf da8b 933d
00000200: 41ab 1fbe 0e51 143f e651 ec3d d444 0840
00000210: 4f2c e63e e912 bebd 0338 9d3e d09c 14bd
00000220: 9802 3ebe 5a40 473f c6a4 973f 70b2 d6be
00000230: d412 383f 3f63 4e3c 7e7b aa39 0c5d 4e3c
00000240: a88c 88be 5b81 a3bf 1fb4 0fbe 9de8 103c
00000250: c189 0ebe ab03 8c3e 1305 883f e755 38bf
00000260: 177b 37be 0d12 3e3e 72c1 62bf 9ed0 85bd
00000270: c371 a0bd 98b2 71bf c7a0 99bf ed43 92be
00000280: 8071 ebbf d878 df3e 0de9 fabf ef4e 8b3e
00000290: e5d0 f7be e5a7 24bf e6ba f43e 5c05 993f
000002a0: 8298 41be c221 c23e b5b2 993e 6aa4 a83f
000002b0: 3bf3 bf11 d175 c03e 0ae1 54be afd1 a4be
000002c0: 93f7 833f c12a 383e f5e7 1ebc 0281 75be
000002d0: bd84 5f3e 7c2f aebc 8808 cd3f cc7e c53c
000002e0: 8d7b a6be d390 0ebf 73f3 3ebf b606 08bf
000002f0: 1dfc 123e c6ef 84b9 5ffc 14bf da98 273e
00000300: 05f9 5cbe ffe4 943d 0ad5 0840 6d27 933f
00000310: e2c2 ac3d 761f 0dba 34a2 41b8 0278 333f
00000320: 8723 503d 0dc2 38bc b512 e83e b4f9 0abf
00000330: 7310 c4bc 1bd9 a3bd eb51 37bc 66f7 d133
00000340: 63bd 323e d3da 573e 9fab d9be 602c f6a0
00000350: dd7b a8be c0de 35be ecf0 a0bf a622 0e3b
00000360: a54f 14be 64f4 e73b 54ed 853e 04bb 5abe
00000370: 0f9b e53d 6b4e 813e fb81 c43e 2a78 8fbd
00000380: 112e 8d3d 4ab3 49be ea5b 8c3c b5fc 1a3f
00000390: 7df6 bb3f 1254 44bd 265c 45be 5ede 05bf
000003a0: 16d6 1fb9 990c cabe 8044 8c3d 2897 5dbd
000003b0: 5847 5fbe 635d 493f 8eab 6bbb c97f 6bbe
000003c0: 65ec 1ebf 0061 96be d0cf ebbe d26c c6be
000003d0: da15 37be f9d3 a9ba 4bda cc3e e648 393e
000003e0: 78ab a63f 19ca e83f 4f6f 743f 3857 afbe
000003f0: 6d3c 293f a9f6 dfbd d8eb 493f 2e32 283f
-0.270737 -0.37691817 -0.01803662 -0.21457292 0.69593966 -0.09482804 -0.012632605 0.13362248
-0.7175818 0.25367308 0.16556548 0.18978538 -0.83458084 0.11996535 0.026981471 0.15456378
0.069203615 -0.29984975 -0.10550289 0.7946789 -0.21548128 -0.08136317 0.44496393 0.19468443
0.2703598 -6.8434194e-05 -0.11815757 -0.14202291 -0.020297231 0.34245986 -0.05494632 -0.12257795
0.011217544 -0.35701016 -0.120003596 0.2049857 0.48323026 -0.049212515 -0.12447329 0.23454444
-0.00018364616 0.39550903 -0.5517936 -0.06588524 -3.6553172e-33 0.00018713955 0.24828768 -0.22378464
-0.45246154 -0.040816657 0.037986454 -0.009691642 -0.21888024 0.02473535 -0.5088696 -0.2420565
0.16450037 -0.17241678 -0.053325936 0.19904645 -0.30220383 0.012683851 -0.72155106 0.38867787
0.022190128 -0.057715893 -0.6615408 -0.16197136 0.14686523 -0.43977687 0.0536709 0.1608487
0.053256914 0.09368291 -0.31126815 0.1846621 0.15740016 1.0611072 -0.028109979 0.0034105075
-0.5784165 0.49974993 -0.20205693 -1.4512752e-12 0.15619211 0.90852445 -0.09543173 -0.4293695
-0.6316733 -0.3312969 0.66381043 -0.3463765 -0.015968727 -0.4504255 0.6445841 -0.0905513
-0.29820368 -0.65697306 0.3938018 0.111026615 -1.1809975 0.19142191 -0.0852191 0.5983271
-0.048956726 -0.37565747 0.06756218 0.20116138 -0.74780256 0.045474123 0.31510532 0.15697317
0.6289626 -0.09947849 -0.024338624 0.42801133 0.7501685 0.010418081 -0.14517385 0.46873292
-1.4650155 0.37205085 0.13238187 -0.33129194 0.5905554 -0.39433074 -0.6694828 0.07204409
-0.15592672 0.5793618 0.115390584 2.129201 0.4495568 -0.092809506 0.30706796 -0.03628236
-0.18555677 0.7783257 1.184716 -0.41933012 0.7190373 0.012596904 0.00032516936 0.012595426
-0.26669812 -1.2773851 -0.14033554 0.008844522 -0.13919736 0.27346548 1.0626549 -0.72006077
-0.17918049 0.18561573 -0.88576424 -0.06533931 -0.07834198 -0.9441314 -1.200219 -0.28567448
-1.8394012 0.43646884 -1.9602371 0.2720866 -0.4840156 -0.64318687 0.47798842 1.195476
-0.18905833 0.3791638 0.30019155 1.3175175 3.028439e-28 0.37589887 -0.2078897 -0.32191226
1.0309929 0.1798506 -0.009698858 -0.23974994 0.2182798 -0.021262877 1.6018229 0.024108313
-0.32516137 -0.55689734 -0.74590224 -0.5313524 0.14353986 -0.00025355647 -0.5819759 0.16366902
-0.21579368 0.0727024 2.1380029 1.1496407 0.084356084 -0.0005383411 -4.616585e-05 0.7010499
0.05081513 -0.011276734 0.45326772 -0.54287267 -0.023933625 -0.08000394 -0.011188964 9.7773224e-08
0.17455058 0.21079569 -0.4251375 -4.1703386e-19 -0.32907 -0.17760754 -1.2573524 0.0021688133
-0.14483507 0.007078694 0.2615763 -0.21360403 0.11211216 0.2525514 0.38380417 -0.07005341
0.06893552 -0.196973 0.017133672 0.6054185 1.4684597 -0.04793174 -0.19273433 -0.5229243
-0.00015243175 -0.39462736 0.06849003 -0.054099232 -0.21804559 0.7865812 -0.003596041 -0.22997965
-0.6207946 -0.2937088 -0.46056986 -0.38754898 -0.1787943 -0.001295685 0.40010294 0.18094215
1.3021078 1.8186675 0.95482343 -0.3424623 0.6610783 -0.109357186 0.78875494 0.6570157

linear.weight f4 [2, 64]
00000000: 0a0a c4bd fc00 383d 0060 d93d 1528 0dbe
00000010: f7ef 19bc 2268 ec3c 3581 dd3b 3e34 ea3b
00000020: d5b7 3f3e b641 973d 1e48 873d ff6b d5bc
00000030: e115 613c 142d 2e3e e2b6 e33e b49c ccbc
00000040: 06a4 2cbd a2b9 9b3e 5a18 593d 3168 003d
00000050: addf fb3e 357c 973e 79c5 c3bc b756 d1bd
00000060: fc3f 743d ee8e a23e 5b26 463c ad4c 733c
00000070: 1db1 2ebe 4ac2 6fbc bfd7 353d c04b dfbc
00000080: 69b8 343d c726 46bd 3f3f 8bbe 9d21 3e3e
00000090: 4666 0d3e 90bf 973b 2bbd 12be 23ea 78bc
000000a0: 8775 89be a8ce 8dbd b72e 1e3e 80df 033e
000000b0: 7912 193e e88e 95bc fc71 35bc 9c85 13bd
000000c0: 449d edbe a937 143f 9c07 923d e0ea 13be
000000d0: 67e1 a63b f717 55be e039 f3bc 9402 83bd
000000e0: 4adf d3bc 8ed5 29bf 2f3f b43e a470 adbd
000000f0: 0258 3f3e 8f25 dcbb fbdd 2d3e 9850 7abd
00000100: f1f1 5d3e 00ed 433d a901 cebd 1fe9 023e
00000110: db14 073c c7b6 41bd 6ed4 8bbb b2ad a43c
00000120: 010a 3fbe ca66 71be c9ce 9c3d c53c a4bd
00000130: 8bfd a13b a239 cebd b0d8 f4be 9548 ee3d
00000140: 9dac 4c3d 5fe4 71be dbaf a03c 56fe d0bc
00000150: 761f 04bf 68bc a8be fae9 24bc 4bb2 423e
00000160: 7bc4 c33b 95d5 e5be 4fba 87bb 0ac0 8b3c
00000170: 92f9 443e e894 a638 e27d ce3c 0343 95bc
00000180: bfb2 b13c 7bbf aebc 40aa 8c3e 8e53 19bd
00000190: c039 06be c771 b33c 9959 233e fc7d e8bb
000001a0: 3415 863e 1b38 7ebd c48c d8bd ec43 1cbd
000001b0: b38f 5bbe 7f07 a4bd 5805 e13d 0c28 ab3c
000001c0: b2be 013f dc6b 16bf 0a85 04bd 2198 513e
000001d0: baf2 a2bb 3d5a 263e 13da 47bb 7161 d13c
000001e0: 9f98 873d 6c84 193f 5e07 c2be fb35 e93d
000001f0: 0d9b 99be 9b14 9d3c 1eb7 f0bd 73c6 9c3d
-0.09572227 0.044922814 0.10614014 -0.13784821 -0.009395591 0.028858248 0.0067597874 0.007147341
0.1872247 0.0738558 0.06605552 -0.026052473 0.0137381265 0.17009383 0.44475466 -0.024977066
-0.042148612 0.30415064 0.05300174 0.031349365 0.4919409 0.2958695 -0.023897873 -0.10221618
0.059631333 0.31749672 0.012094106 0.014849824 -0.17059751 -0.0146337245 0.044395205 -0.0272578
0.04412118 -0.048376825 -0.2719669 0.1856751 0.13808545 0.0046309903 -0.14329974 -0.015192541
-0.2684748 -0.06924182 0.15447508 0.12878227 0.14948453 -0.01825662 -0.011074539 -0.03601609
-0.46409047 0.5789743 0.071303576 -0.14445066 0.005092788 -0.20809923 -0.029690683 -0.06396976
-0.025863308 -0.66341484 0.35204455 -0.0846875 0.18685916 -0.0067183445 0.1697921 -0.061112016
0.21674325 0.047833443 -0.100589104 0.12784241 0.008244718 -0.04729345 -0.004267267 0.020102356
-0.1865616 -0.23574367 0.07656629 -0.08019403 0.0049435548 -0.10069586 -0.4782157 0.11634938
0.049969304 -0.23622273 0.019615104 -0.025511902 -0.51610506 -0.32956243 -0.01006555 0.19013326
0.00597435 -0.44889513 -0.0041420828 0.017059345 0.19235829 7.943233e-05 0.02520651 -0.01822043
0.021691678 -0.02133154 0.2747364 -0.0374332 -0.13107967 0.02190484 0.15952148 -0.0070950966
0.26188052 -0.062065225 -0.10573724 -0.038150713 -0.21441536 -0.08009242 0.10987347 0.02089312
0.506816 -0.5875833 -0.03235344 0.20468189 -0.004972783 0.1624536 -0.0030494973 0.025559159
0.06620907 0.59967685 -0.37896246 0.11387249 -0.30001107 0.019174865 -0.11753677 0.07655039

linear.bias f4 [2]
00000000: bec7 ac3d 2313 07bd
0.08436535 -0.032977235
