SCG-SFFL-main/SFFL/best_model.pt (torch, 799425 bytes, 15 tensors)

conv1.att_src f4 [1, 8, 32]
2.5191634e-37 1.2242352e-18 -2.18742e-39 -1.3053662e-37 4.4518408e-35 -1.0738828e-29 -7.296163e-38 -3.514518e-35
-1.1069773e-15 3.2615626e-33 1.03762664e-32 -2.8375648e-12 -4.5117945e-09 -1.9693255e-22 -4.3717995e-38 -2.4851274e-36
9.753835e-38 -1.9552972e-11 -1.3461334e-38 -5.8063042e-12 -1.1578444e-20 1.4430942e-31 8.6222343e-07 -4.3943764e-09
1.1151468e-22 -1.9771455e-28 2.66841e-39 -4.501443e-39 3.978869e-15 6.569935e-39 1.6064877e-08 -1.5439605e-06
-1.7384639e-38 -1.2316085e-11 -1.7595249e-24 -7.5519284e-07 5.4436732e-08 -1.6560746e-06 -4.352128e-14 -1.9865411e-38
2.894922e-12 9.2353334e-35 -3.4591386e-36 -4.027013e-12 2.5961363e-15 -3.749601e-07 3.4618868e-08 -1.0600753e-24
1.4342898e-38 4.4633456e-32 4.9494113e-22 -5.9410638e-08 1.3124981e-20 -4.2237304e-11 4.563265e-39 -1.4303965e-36
1.5958025e-38 -4.4485105e-37 1.668778e-06 8.636429e-12 -2.158871e-15 -1.447843e-28 -1.7756473e-27 3.3823505e-30
-4.237925e-15 1.4859193e-36 -3.5855265e-15 1.6929217e-36 2.3138344e-11 1.6444979e-07 -1.0956342e-06 -6.1316536e-19
3.333056e-39 -1.3754643e-38 -2.5542535e-13 -4.9047663e-12 -1.7194899e-38 6.385311e-39 -2.0627645e-23 -3.905171e-12
3.5894888e-38 -1.2024973e-21 -1.3862803e-10 7.539738e-12 1.2555385e-10 2.6123484e-37 1.329677e-37 2.2739756e-37
-4.0682888e-36 -4.2788596e-08 -8.7715094e-08 -8.9199405e-37 3.4605992e-07 -4.3661208e-34 -2.3372722e-08 9.5527746e-33
-2.2662127e-06 5.430223e-10 -1.9403956e-06 -2.702679e-18 -3.577673e-34 -5.443808e-37 -5.7448176e-33 8.09058e-39
-2.052477e-20 6.453536e-39 -1.7658287e-20 -1.10149e-39 1.1666708e-26 -1.1456249e-26 1.1745065e-26 4.892164e-39
-5.0891926e-33 -8.2699204e-38 -1.2228325e-09 2.6487534e-38 1.6403726e-07 6.89803e-36 -9.439354e-39 -1.9563047e-22
-2.879166e-38 -5.2603436e-29 -2.3263163e-32 6.960938e-39 -1.3181996e-38 -5.811161e-39 1.832037e-39 1.762326e-10
5.5293685e-07 -4.2321137e-37 -1.3188462e-11 3.092956e-32 -5.94484e-40 8.767144e-38 -7.64377e-31 -1.0089801e-15
-3.6019772e-36 -1.2604597e-06 -2.082545e-20 -8.079237e-23 3.012412e-09 4.4946356e-22 2.5670887e-22 -2.494872e-07
-3.1333944e-10 -5.744751e-07 -6.3284142e-09 3.7010373e-14 -7.609247e-24 -1.2051999e-06 7.06189e-21 2.39433e-40
-2.257641e-38 -2.7438175e-26 -1.5673449e-07 1.8886872e-23 -7.0647084e-09 4.2595708e-35 -4.0153355e-35 7.470601e-16
-1.2964881e-07 1.520837e-07 1.6673227e-34 1.1087232e-09 -1.4357885e-06 -5.580175e-32 2.1970235e-08 -1.6799214e-08
-2.798931e-37 -2.186425e-38 7.625028e-12 -3.2851183e-08 -1.5748417e-35 -8.0879304e-38 -1.6904093e-34 4.750341e-09
-1.4490412e-28 -2.5686398e-38 4.52627e-33 -2.0829959e-20 1.0793829e-11 -5.7553144e-15 -6.8627576e-35 -5.847654e-39
-1.9978291e-38 -1.5998534e-35 2.419125e-39 -2.7674764e-07 -2.1365194e-07 9.965169e-08 1.0754105e-38 6.1060134e-21
6.6561048e-15 8.967392e-07 9.7863255e-33 5.813272e-07 -6.9771194e-23 -9.68188e-39 -8.204757e-38 -1.766798e-39
1.3808229e-31 1.4042254e-07 1.066951e-22 -1.0676978e-29 -2.792678e-10 4.799937e-10 2.6174774e-11 1.3512731e-38
-2.3745213e-22 -1.39547245e-11 1.18926e-39 6.916333e-07 3.9715246e-08 -1.5244647e-06 -4.5798068e-36 1.8378397e-30
8.607581e-39 2.1412465e-20 1.6692344e-07 3.3880574e-09 -2.699094e-39 4.5168477e-38 -8.8768435e-21 1.3682643e-37
-3.2431187e-34 1.9869924e-06 6.7638027e-37 -3.3115075e-08 3.4834677e-37 -1.3877615e-33 1.2525249e-08 -2.5104066e-22
1.1570128e-38 -4.821703e-18 3.2659162e-07 -8.3014015e-16 1.16774726e-32 -4.6629527e-12 -8.824373e-34 9.01063e-34
-1.2157933e-34 4.0021706e-07 1.3835118e-37 -1.2687515e-30 2.6649276e-09 7.191001e-07 6.225324e-10 1.6646735e-38
1.4142327e-17 -3.1403404e-29 -3.399329e-14 3.3048093e-07 -1.4311008e-08 5.7381566e-08 5.4657754e-32 -1.917299e-39
00000000: 0472 ab02 4caa b421 a3d1 1780 60ad 3182
00000010: 51b3 6c06 2fcf 598f d69e c681 24dd 3a86
00000020: 4188 9fa6 e27a 8709 b281 570a 06ad 47ac
00000030: 2a06 9bb1 ac13 6e9b fe05 6e81 4869 5384
00000040: 28c3 0402 61fd abad b994 9280 8a4a ccac
00000050: ebb5 5a9e 0853 3b0c 8b73 6735 58fd 96b1
00000060: 1fd0 061b 0aa2 7a91 710e 1d00 3104 3180
00000070: 975a 8f27 4e8a 4700 0aff 8932 143a cfb5
00000080: 4d4d bd80 b7aa 58ad fb22 0898 75b8 4ab5
00000090: d2cd 6933 4a46 deb5 9f00 44a9 af50 d880
000000a0: 47b6 4b2c 6c84 f506 af22 9384 1cb0 8dac
000000b0: 4312 3b27 204e c9b4 d9af 1433 e909 a497
000000c0: 2a2e 9c00 0ac0 670b 3796 151c b02a 7fb3
000000d0: 83ec 771e fac2 39ae 87b0 3100 8e5e f383
000000e0: 7bc4 ad00 fe5f 1783 c7fa df35 05ef 172d
000000f0: 2490 1ba7 3189 3791 68ae 0c93 5634 890e
00000100: f5af 98a7 ead0 fc03 a52e 81a7 9204 1004
00000110: eb86 cb2d 9d93 3034 b40d 93b5 77f9 34a1
00000120: 344b 2400 59c6 9580 acca 8faa 3592 acac
00000130: 623c bb80 a687 4500 937f c799 a766 89ac
00000140: 2c6e 4301 5cb7 b59c 526c 18af f6a3 042d
00000150: 440c 0a2f 87c9 b102 7bfc 3402 3ec2 9a02
00000160: be0b ad84 8fc6 37b3 e25d bcb3 d2c3 9783
00000170: 1dca b934 d916 1188 29c5 c8b2 4367 460a
00000180: 3d15 18b6 cc43 1530 be37 02b6 2a6c 47a2
00000190: f4c6 ed87 423e 3983 61a1 ee89 3f19 5800
000001a0: d9d9 c19e d545 4600 1ec7 a69e 82fe 0b80
000001b0: 3d15 6714 15ea 6294 8ea2 6814 5d45 3500
000001c0: 9465 d389 ef20 e181 9810 a8b0 3c36 1001
000001d0: 3822 3034 73b4 1205 14c9 6680 b380 6c9b
000001e0: b8c1 1c81 955d 8590 1894 f18a 43cc 4b00
000001f0: 0b8a 8f80 2747 3f80 f9f2 1300 11c5 412f
00000200: 886d 1435 e902 1083 8d03 68ad 7098 200b
00000210: 2e79 0680 14aa ee01 f50d 788d cc68 91a6
00000220: 0f36 9984 112d a9b5 d9b0 c49e 0e58 c39a
00000230: ea02 4f31 8fd7 071c c62b 9b1b 42f1 85b4
00000240: 9b42 acaf a135 1ab5 5271 d9b1 0eae 2629
00000250: 2b2f 1399 5ac2 a1b5 3465 051e 719b 0200
00000260: d9d5 f580 05de 0795 d94a 28b4 a1a9 b619
00000270: d5bd f2b1 467a 6206 ea7d 5586 4e53 5726
00000280: 9835 0bb4 734c 2334 0da0 5d07 bb61 9830
00000290: 51b5 c0b5 a0de 908b 0fb9 bc32 dd4d 90b2
000002a0: 417c be82 a214 ee80 1324 062d 4218 0db3
000002b0: 4577 a785 a62c dc81 a6b1 6087 7138 a331
000002c0: 13b0 3791 9dd9 0b81 8f03 bc09 c0bb c49e
000002d0: 16e3 3d2d 685b cfa7 8271 b686 e1ac 3f80
000002e0: 598b d980 2720 aa85 8957 1a00 e893 94b4
000002f0: 3368 65b4 1900 d633 121a 7500 bdad e61d
00000300: bbcf ef27 73b7 7035 0841 4b0a 800c 1c35
00000310: 47b2 a89a 246d 6980 d05a df81 1d3d 1380
00000320: b63d 330c 0ec7 1634 89fc 001b 0a8e 588f
00000330: 7387 99af 8ef0 0330 5a3c e62d ff23 9300
00000340: f087 8f9b 7e7e 75ad 2cf3 0c00 aea8 3935
00000350: 6093 2a33 359c ccb5 aecd c284 701a 150e
00000360: 6fba 5d00 2a3c ca1e 913b 3334 56d3 6831
00000370: fa63 1d80 abeb 7501 c8ad 279e 0d3d 3a02
00000380: ce8a d787 4558 0536 0829 6603 693a 0eb3
00000390: 9112 ed02 d994 e688 a12e 5732 a9be 979b
000003a0: cffc 7d00 b3e3 b1a2 6956 af34 8845 6fa6
000003b0: 1888 720a 2510 a4ac bb9e 9288 fbb6 9508
000003c0: 4d9b 2187 6add d634 5a50 3c02 e0dd cd8d
000003d0: e721 3731 2f08 4135 d31e 2b30 5344 b500
000003e0: a070 8223 f33b 1f90 9817 19a9 f46c b134
000003f0: 7bdc 75b2 b373 7633 4fe6 8d0b a6e0 1480

conv1.att_dst f4 [1, 8, 32]
-1.2211577e-06 -4.4659977e-08 -8.4862165e-20 5.207428e-36 -2.5745521e-08 2.8185224e-10 -1.1050616e-06 7.0571486e-15
-5.6630135e-08 -2.8401e-15 5.361837e-09 -8.143025e-11 -4.6821363e-36 8.1578444e-10 -2.578829e-18 5.9879276e-36
1.7106166e-25 3.8876816e-29 5.9978724e-08 -1.5327219e-29 1.7602777e-37 -1.1250557e-08 -3.8730766e-31 -1.693434e-23
-6.605248e-14 -7.74118e-40 3.5987608e-08 4.668e-40 -2.326069e-18 4.1858954e-34 7.859274e-08 4.759385e-36
2.868707e-39 9.8826274e-11 1.9724312e-10 2.0652126e-10 -1.1724858e-37 -1.919668e-39 1.3049722e-26 8.482529e-39
5.959951e-36 1.3614666e-06 2.4503066e-07 1.3919758e-08 -2.047415e-34 1.7189527e-18 4.0919976e-16 6.333869e-30
-1.2663449e-08 1.8339442e-38 -2.0068699e-14 9.164429e-08 6.7198005e-12 2.2753256e-38 -4.1056283e-10 2.0096872e-38
2.432976e-36 -1.185692e-37 2.3566946e-29 -1.4808096e-08 9.863927e-28 -1.6512266e-09 1.9970558e-30 3.7029722e-15
-9.73364e-28 -3.8873023e-07 -8.49868e-38 -1.125523e-37 5.2403357e-09 -9.550778e-31 1.173456e-10 -5.2684313e-29
-2.6109566e-09 -2.2631292e-09 -2.9033127e-38 5.4283397e-11 2.693693e-30 2.2037826e-10 -6.544563e-39 -1.5356184e-38
-1.6954748e-14 -2.5687526e-28 -3.5379876e-37 -6.7510435e-21 5.658595e-11 -3.6240372e-11 3.4890442e-22 6.4859765e-37
-1.9805897e-07 2.4238648e-36 -6.07838e-40 5.8495067e-31 2.3030863e-12 2.5896982e-18 1.949665e-09 -4.7660164e-11
2.0128292e-20 8.14433e-07 -1.1212506e-07 -1.3921099e-38 -9.056168e-38 2.7682203e-33 5.4194382e-09 -5.5388845e-18
-2.5111753e-35 1.2933088e-36 -2.8863185e-32 2.6168303e-32 -2.2572083e-06 2.0433645e-06 5.3960024e-25 1.2813194e-19
-6.84609e-10 7.1607915e-09 -1.0268215e-09 -8.25247e-07 -1.8663214e-20 -5.193236e-39 3.0341609e-31 -3.0687893e-08
6.273883e-09 -7.086932e-21 -3.764828e-39 -2.8810329e-27 -1.3850171e-15 -1.341448e-37 1.8308021e-19 -2.5934108e-38
2.3594408e-38 2.3197515e-07 -1.6603172e-27 2.0224683e-21 2.7690664e-38 3.204339e-09 -4.2275508e-07 1.4685983e-38
-3.188967e-09 -2.214558e-38 -6.991966e-39 -5.7877926e-38 2.787963e-32 -1.3631637e-11 1.9704196e-07 -2.015645e-06
-6.1230304e-25 -1.007512e-16 -1.0617758e-35 -6.764527e-07 -3.5570854e-38 -6.3966046e-38 -2.3629921e-08 3.7404465e-08
1.2359346e-11 1.1195167e-38 -1.471111e-09 2.3630157e-37 -2.6709085e-13 -2.7815824e-37 -2.5264512e-07 3.538255e-10
-1.6993929e-06 6.209888e-08 -3.01323e-40 -9.3546724e-08 -6.459151e-37 -4.8792643e-08 -8.1041314e-20 -5.1290265e-13
-8.744301e-39 -1.194969e-18 4.7133944e-13 -5.816944e-39 -1.1142247e-19 -2.0569935e-08 -4.9375114e-19 2.7171928e-14
-6.8550456e-12 4.0866945e-35 -4.4661713e-16 -2.2011825e-11 -4.6502374e-10 -1.8548674e-38 6.441478e-36 -1.0511923e-29
1.8403648e-35 -5.2604866e-21 -7.8588557e-13 6.2062827e-10 -1.0260966e-33 7.0484236e-30 8.9332744e-08 -4.354926e-39
-1.2622898e-38 -1.5075956e-27 9.338282e-34 6.744025e-37 6.3721604e-21 2.709212e-07 -1.7003733e-09 4.1132073e-10
2.066879e-39 -1.9301997e-06 2.7996495e-37 4.4222037e-13 -4.0965645e-35 -1.7812933e-18 -5.004725e-39 -1.4532862e-06
-3.8022645e-29 4.810209e-39 1.5604837e-11 4.2384975e-29 -3.3364993e-09 1.8297971e-10 -2.805215e-36 5.474299e-37
1.1378054e-38 2.2668066e-06 5.1455016e-29 2.3013624e-32 5.076367e-14 3.4324604e-30 5.71022e-31 4.862731e-35
-5.67234e-39 -2.0314414e-33 4.128825e-20 2.371043e-32 -3.170144e-39 -7.938978e-08 -5.812e-41 1.8401337e-06
-5.9401985e-31 -1.9586762e-06 -1.4196256e-31 -4.5176063e-33 4.513643e-14 7.73723e-12 3.588092e-08 -2.753229e-10
-2.3780611e-37 -6.208373e-35 -6.3671787e-37 -7.780765e-13 1.2613251e-08 2.2131249e-38 -6.538412e-36 -9.317094e-34
-5.5004705e-33 3.9669656e-12 -1.897098e-33 -8.161026e-12 -1.2580328e-07 -1.9313645e-10 -5.4141114e-12 -1.6561355e-26
00000000: a9e6 a3b5 2ad0 3fb3 0860 c89f df7f dd04
00000010: 0027 ddb2 2df3 9a2f a151 94b5 b542 fe27
00000020: 7e39 73b3 99a6 4ca7 383b b831 2811 b3ae
00000030: f327 c784 ba3d 6030 b448 3ea2 c2b2 fe04
00000040: 9bc3 5316 fe20 4510 a7cd 8033 bc6f 9b8f
00000050: ba98 6f02 7948 41b2 8660 fb8c 65c7 a399
00000060: aabc 94a9 ed6d 0880 cb90 1a33 4015 0500
00000070: 33a2 2ba2 a919 0b08 d1c6 a833 1d71 ca04
00000080: ca3c 1f00 3f52 d92e 01df 582f 9112 632f
00000090: 2b97 1f82 41e7 1480 fa3c 8114 d75d 5c00
000000a0: 1f82 fd04 a3bb b635 c28c 8334 be23 6f32
000000b0: f612 8887 32ac fd21 3ae3 eb25 5477 000f
000000c0: 708e 59b2 e7b2 c700 45c3 b4a8 fbcd c433
000000d0: 956e ec2c d2c2 f700 95b5 e1af e7d5 da00
000000e0: 86f9 4e04 5663 2182 4aff ee0f b266 7eb2
000000f0: d74c 9c12 5ff1 e2b0 3a05 220e e469 8527
00000100: 563c 9a92 adb2 d0b4 285b e781 c132 1982
00000110: 7b0e b431 61f8 9a8d da05 012f 1392 8590
00000120: 6f6c 33b1 6485 1bb1 4612 1e81 acbd 6e2e
00000130: d189 5a0e f74e 722f 9443 4780 cb36 a780
00000140: fdb6 98a8 65d0 a291 70c8 f082 160c ff9d
00000150: 1ede 782e 0863 1fae 58e6 d21b d3b4 5c03
00000160: 09aa 54b4 1a33 4e04 689e 0680 cdd3 3d0d
00000170: b710 222c 0416 3f22 dffa 0531 939c 51ae
00000180: 391b be1e 699f 5a35 67c9 f0b3 5c96 9780
00000190: 4888 f681 89f9 6509 e235 ba31 4959 cca2
000001a0: 5984 0586 8b0b dc03 c1dd 158b a4df 070b
000001b0: 8b7a 17b6 bc20 0936 89ff 2617 8145 1720
000001c0: 132f 3cb0 fd0a f631 1220 8db0 8b86 5db5
000001d0: e244 b09e a18c 3880 a5ed c40c b2cd 03b3
000001e0: a991 d731 4dde 059e cffe 2880 4a42 6493
000001f0: 1d9a c7a6 a496 3682 9924 5820 df32 0d81
00000200: ce75 0001 d814 7934 3c8b 0393 3ad0 181d
00000210: 27c3 1601 5433 5c31 04f7 e2b4 8cea 9f00
00000220: e724 5bb1 de24 f180 c222 4c80 078f 9d81
00000230: 62c2 100b 6fcf 6fad 7b92 5334 8444 07b6
00000240: a57f 3d97 0351 e8a4 93d0 6185 7a95 35b5
00000250: 89aa 4181 d421 ae81 bffa cab2 a5a6 2033
00000260: 8c6d 592d 92e7 7900 1e30 cab0 8ad1 a002
00000270: d95b 96aa 004e bd82 48a3 87b4 8384 c22f
00000280: b216 e4b5 385b 8533 f747 0380 dbe3 c8b3
00000290: 24cb 5b83 1490 51b3 785a bf9f 885e 10ab
000002a0: 8e37 5f80 a758 b0a1 96ab 042b 4657 3f80
000002b0: 608b 03a0 c4b1 b0b2 c8ba 11a1 33be f428
000002c0: c330 f1ac 3449 5906 87ba 00a6 399e c1ad
000002d0: 46a6 ffaf 28fa c980 befe 0805 0635 558f
000002e0: 7fb3 c305 4ebc c69d 0635 5dab d598 2a30
000002f0: 537d aa88 82f5 0e0f 32d7 bf33 c36b 2f80
00000300: 8173 8980 58e3 ee92 a928 9b08 be7c 6503
00000310: c1bb f01d 2073 9134 91b2 e9b0 3f20 e22f
00000320: 9e81 1600 9488 01b6 c688 be02 acf2 f82a
00000330: 8ccf 5986 ae6f 03a2 237f 3680 890e c3b5
00000340: 37cc 4090 e860 3400 f842 892d d8ea 5610
00000350: 5148 65b1 3630 492f 2ca4 6e84 df47 3a03
00000360: 63e5 7b00 711f 1836 3774 8210 b5fc ee0a
00000370: 879e 6429 b53c 8b0e a74e 390d 0846 8106
00000380: 2dc4 3d80 fbc3 2889 6efa 421f 2239 f60a
00000390: 1285 2280 fe7c aab3 04a2 0080 83fa f635
000003a0: 3dc5 408d cd71 03b6 2747 388c 6ea7 bb89
000003b0: c346 4b29 631d 082d 7d1b 1a33 415c 97af
000003c0: abd7 a182 ff0b a586 f3a9 5883 5202 5bab
000003d0: aab1 5832 ebfc f000 800e 0b85 89ce 9a88
000003e0: 097b e489 4093 8b2c d09a 1d89 fe91 0fad
000003f0: 8b14 07b4 145b 54af fb7d beac 0604 a494

conv1.bias f4 [256]
-0.00328009 0.009501181 -0.02551885 -0.015516518 -0.030874522 -0.010389703 0.004235386 0.02286438
0.022282142 -0.010493966 0.016125917 -0.010935012 0.007925283 0.01243729 0.0195349 0.032551367
-0.016278 0.029462134 -0.023231333 -0.009245318 0.024399765 0.030515388 0.028868083 -0.029261831
0.00018287885 0.024182651 0.0145012 0.01398727 0.015672242 -0.024209611 0.0057308353 -0.013093047
0.035495676 -0.007900312 0.028835297 0.00026521718 0.024855826 0.023564907 0.007861333 -0.027750421
-0.0030376068 -0.014097871 0.019959485 -0.01836019 -0.029935207 -0.034612488 0.01158075 -0.010514701
-0.007171654 -0.0031578264 0.0024066493 -0.024375651 -0.000109758366 0.008376342 -0.017948626 0.006183486
-0.035824664 0.0011712089 0.003590477 0.019125007 0.021124553 -0.022036005 0.0025039944 0.011935691
0.0034569923 0.0035771553 0.023159977 -0.016092194 0.00093029346 -0.00825257 0.021616308 -0.020120325
0.012944304 0.029575387 0.0023460917 -0.018422833 0.020053515 -0.0076327575 0.013878354 -0.01924499
-0.029207783 -0.0018992987 -0.017015846 -0.017580584 -0.011423139 -0.008039607 -0.0004803771 0.01675873
-0.0012938991 -0.028185776 -0.046513986 0.01058483 -0.027902486 -0.00090338464 -0.0047060116 -0.006469633
0.0062012207 -0.0025531722 -0.029045753 0.017683683 -0.0059135132 0.023164969 0.045964014 -0.0018626506
0.022189163 0.00074362656 0.03582865 -0.01667113 0.013383017 0.0043112426 0.021425666 -0.012748902
-0.012112823 0.009316855 0.00047614487 0.018704126 0.0048793545 -0.0064611 0.013879251 0.009571497
0.0005873427 0.005163825 -0.0060855257 -0.017165069 -0.018820893 0.029506452 -0.035025332 -0.014412583
-0.013826482 0.0179086 -0.016493425 0.0065770494 -0.001391289 -0.0017127935 0.00038737114 0.007697849
-0.00037280988 0.012473562 0.018670222 0.025950177 -0.01482288 -0.015148575 0.04560178 0.018790372
-0.022132704 0.033122014 0.02346853 0.020678027 -0.022383148 0.017499482 0.02312265 -0.018761752
0.0035417574 -0.0154989585 0.0002856672 -0.015677392 -0.045966998 -0.0002668194 0.023861485 0.013161599
-0.021860821 -0.0063987602 0.02258494 -0.017806048 -0.014689289 -0.035279136 -0.016294492 -0.012460186
0.014061306 -0.04773342 0.005987023 0.0007914303 0.03831376 -0.0011532045 -0.012976858 -0.00071868656
0.05315263 -0.017714966 0.007530673 0.0228962 0.0038444896 -0.0029085467 -0.00663064 -0.00698968
0.019705195 0.0029865669 0.022642788 0.03361765 -0.013672502 -0.023169134 0.013268261 0.031989172
-0.014047688 -0.0017010472 -0.010953119 -0.0033187272 -0.0018134456 -0.03735787 -0.014874702 0.051160615
0.019762998 0.013329772 0.014055913 -0.030715458 -0.012931758 -0.013529911 0.012074663 0.007852571
0.003158755 0.032862898 0.011822929 -0.012583654 0.024496365 0.01863259 0.035330962 -0.02331025
0.030734476 0.0032839994 0.026439726 0.008798195 0.0038657056 0.010386968 0.011061165 0.04048923
0.04261864 -0.025302434 -0.0044387565 0.035331134 -0.0004765446 0.028611865 0.0028068486 -0.009810077
0.017779132 0.037716854 -0.0019955442 -0.015826818 -0.03144368 -0.012066533 0.02028192 0.013893906
0.007848964 0.005107347 -0.0016534812 0.0009936524 0.026270363 -0.0056271246 -0.010176203 -0.009819895
-0.019669691 -0.012010461 0.013334991 -0.002978353 0.015932579 0.021204798 0.0030589693 -1.3827226e-05
00000000: c7f6 56bb d7aa 1b3c e80c d1bc fe38 7ebc
00000010: 91ec fcbc 9339 2abc fec8 8a3b 154e bb3c
00000020: 0a89 b63c e2ee 2bbc 801a 843c c428 33bc
00000030: 0cd9 013c c6c5 4b3c a807 a03c 9554 053d
00000040: 7159 85bc 935a f13c a34f bebc ad79 17bc
00000050: 04e2 c73c 68fb f93c c27c ec3c 82b6 efbc
00000060: 2bc3 3f39 b21a c63c 7196 6d3c dd2a 653c
00000070: 1363 803c 3c53 c6bc bbc9 bb3b 3884 56bc
00000080: ea63 113d 4f70 01bc 0038 ec3c d90c 8b39
00000090: 729e cb3c 310b c13c d2cc 003c da54 e3bc
000000a0: 9612 47bb c2fa 66bc 1382 a33c 1c68 96bc
000000b0: ae3a f5bc d3c5 0dbd 30bd 3d3c da45 2cbc
000000c0: 3200 ebbb 89f3 4ebb e0b8 1d3b 72af c7bc
000000d0: 132e e6b8 ed3c 093c ff08 93bc d79e ca3b
000000e0: e2bc 12bd 4083 993a 354e 6b3b 0cac 9c3c
000000f0: 660d ad3c da84 b4bc 0e1a 243b eb8d 433c
00000100: b58e 623b b56e 6a3b feb9 bd3c c7d3 83bc
00000110: f0de 733a ca35 07bc af14 b13c 61d3 a4bc
00000120: 5914 543c 1548 f23c e3c0 193b 7beb 96bc
00000130: 4547 a43c 361c fabb 0962 633c aba7 9dbc
00000140: 2945 efbc e4f1 f8ba d164 8bbc 2805 90bc
00000150: 1e28 3bbc 8eb8 03bc 1fdb fbb9 9b49 893c
00000160: 0d98 a9ba dbe5 e6bc 7385 3ebd ff6b 2d3c
00000170: c193 e4bc 1ed1 6cba e334 9abb 37ff d3bb
00000180: 9c33 cb3b 1f53 27bb 5cf1 edbc 5fdd 903c
00000190: 25c6 c1bb 76c4 bd3c c344 3c3d 2f24 f4ba
000001a0: 0cc6 b53c efef 423a 10c1 123d e591 88bc
000001b0: 7144 5b3c 5345 8d3b e184 af3c c5e0 50bc
000001c0: dd74 46bc b9a5 183c 15a3 f939 6539 993c
000001d0: fee2 9f3b a3b7 d3bb cc65 633c c5d1 1c3c
000001e0: e7f7 193a 4e35 a93b 1769 c7bb c29d 8cbc
000001f0: 462e 9abc 84b7 f13c b976 0fbd c122 6cbc
00000200: 7888 62bc 0eb5 923c 381d 87bc 4a84 d73b
00000210: ea5b b6ba d07f e0ba 1318 cb39 3d3e fc3b
00000220: b275 c3b9 e95d 4c3c 4bf2 983c 7795 d43c
00000230: aadb 72bc bb31 78bc efc8 3a3d 44ee 993c
00000240: a54f b5bc f3aa 073d 1341 c03c f764 a93c
00000250: dd5c b7bc 135b 8f3c b66b bd3c 3fb2 99bc
00000260: d41c 683b 58ef 7dbc 9ac5 9539 e06d 80bc
00000270: e447 3cbd e5e3 8bb9 2979 c33c bfa3 573c
00000280: 7715 b3bc b1ac d1bb 0d04 b93c fddd 91bc
00000290: 58ab 70bc db80 10bd 077c 85bc cf25 4cbc
000002a0: 6461 663c 1e84 43bd ca2e c43b fd77 4f3a
000002b0: e4ee 1c3d 1f27 97ba e39c 54bc 3d66 3cba
000002c0: 92b6 593d fa1e 91bc ddc3 f63b d090 bb3c
000002d0: d5f3 7b3b 519d 3ebb d745 d9bb b009 e5bb
000002e0: ca6c a13c 47ba 433b 5e7d b93c a9b2 093d
000002f0: a102 60bc 32cd bdbc 1f63 593c 1407 033d
00000300: 4628 66bc acf5 deba b674 33bc 017f 59bb
00000310: 23b1 edba 9104 19bd 06b5 73bc cb8d 513d
00000320: 03e6 a13c 1e65 5a3c c64a 663c fc9e fbbc
00000330: b9df 53bc 8fac 5dbc cfd4 453c 12a8 003c
00000340: 1d03 4f3b 3f9b 063d f5b4 413c ac2b 4ebc
00000350: 9aac c83c 60a3 983c 33b7 103d 23f5 bebc
00000360: dec6 fb3c 5e38 573b 2098 d83c 4e26 103c
00000370: c757 7d3b 1a2e 2a3c e339 353c 09d8 253d
00000380: e290 2e3d 0d47 cfbc fd72 91bb 61b7 103d
00000390: bcd8 f9b9 6e63 ea3c 1bf3 373b 72ba 20bc
000003a0: 8ba5 913c fd7c 1a3d adc7 02bb 3ea7 81bc
000003b0: 17cb 00bd b5b2 45bc 4526 a63c 44a3 633c
000003c0: f198 003c 885b a73b 9fb9 d8ba 713d 823a
000003d0: f234 d73c be63 b8bb 17ba 26bc a0e3 20bc
000003e0: 5522 a1bc 86c7 44bc 027b 5a3c 7930 43bb
000003f0: 0a85 823c afb5 ad3c fd78 483b 7cfb 67b7

conv1.lin_src.weight f4 [256, 256]
0.010685492 -0.03173404 -0.0005021283 0.0435948 0.051949453 0.044210244 0.054502055 0.04109139
-0.013549906 0.0059077605 -0.05949072 0.03404152 -0.0016712759 0.06016654 -0.065207385 0.012581098
-0.022486335 0.047119573 0.03719242 -0.027645888 -0.05675147 -0.009322717 -0.03572888 -0.024102613
0.03655352 0.03231286 0.002984859 -0.005910749 -0.02814858 -0.038990382 0.047920283 0.021725953
0.017344618 -0.0023810165 0.007872164 0.03671776 0.011480596 -0.010761964 -0.03219061 0.015877696
0.026267983 -0.060971692 -0.0038461955 0.0701903 -0.040362462 0.013422732 0.033548065 -0.006756361
-0.04201489 -0.008009473 -0.055602275 0.07156147 -0.027897893 -0.029229702 0.010003321 0.0131503
0.013200939 -0.056689933 -0.027467702 -0.054525584 -0.06199011 0.0062305206 0.015044377 0.03501325
0.003211943 -0.023732843 -0.020198047 0.05288633 0.011339763 -0.054229908 0.054143745 -0.011416572
-0.019383062 -0.064319395 -0.0027997352 -0.032080762 0.03942407 0.0070960885 0.033230357 0.06853316
0.047574203 -0.013774518 -0.07191615 -0.04520998 -0.050898492 0.049727354 0.020030616 -0.051794503
-0.028681654 0.008146388 -0.013313437 -0.04182856 -0.030495577 -0.011625053 -0.00786024 0.009890868
0.0512194 0.031542625 -0.016593827 -0.02640472 -0.004012534 -0.016154807 -0.012350747 0.046668988
0.029084818 0.00805833 0.031179179 0.037508838 -0.038533382 -0.06903941 -0.010747038 -0.06117487
0.019688861 -0.039446812 -0.043246858 0.024393668 0.048733685 -0.018154593 0.023811886 -0.040305827
-0.051008053 -0.03969233 0.026488341 0.02316915 -0.05292655 -0.0024521002 -0.051702313 0.048524585
-0.058069088 -0.02295831 -0.011076963 -0.035425104 -0.03559691 -0.012578618 -0.016920503 -0.004790372
-0.05933219 -0.0553871 -0.018232243 0.030807324 0.0019510114 -0.028669778 0.05074037 -0.0070055495
-0.050921332 0.026578553 -0.03901834 -0.04345851 -0.051202115 0.011191169 0.02033328 -0.058936205
0.021236338 0.012200612 -0.012971412 0.010777889 0.0013766481 -0.012596233 0.0020998772 0.01307739
0.04246846 0.0059636505 0.029770209 0.04917177 0.060258307 0.029197821 -0.060892865 -0.026769085
-0.040550973 -0.023780618 0.02257807 0.0076826867 -0.0045098998 0.0032814622 0.0057052737 0.016046474
0.029382618 0.02289085 0.021361507 0.036161244 -0.00461353 -0.05084469 -0.071081184 0.01658075
0.027003653 0.011105032 -0.031622276 -0.027247908 0.023741273 0.03209365 -0.015279144 -0.016735965
0.04347112 -0.072571576 0.0047722487 0.040318593 0.0006609442 -0.017794287 -0.048108757 0.060694136
-0.0058547654 -0.0017057784 0.009350449 -0.019920988 -0.04338485 0.0561605 -0.018152997 -0.0026867564
-0.008955081 -0.005933539 0.057529572 -0.050464302 -0.02175869 0.0484547 -0.04649024 -0.022308804
0.03210398 0.0063322596 -0.049362313 -0.034782603 -0.061383355 0.023297476 -0.017390218 0.04876544
0.026105713 0.05555174 -0.025535936 -0.00950332 0.012978098 -0.00035286587 -0.036755573 -0.08250399
0.014290962 0.05540324 -0.051388994 0.029012322 -0.022154586 0.04136039 -0.070767 -0.0065126955
0.043593846 -0.019145373 0.035535622 0.035855222 0.036634237 -0.0011020596 0.013329296 0.0014436789
-0.008223871 -0.007864033 -0.0403152 -0.047219936 0.05701115 -0.071798034 -0.024422877 -0.012843924
00000000: 3412 2f3c 8dfb 01bd 43a1 03ba 7690 323d
00000010: f3c8 543d cd15 353d 8c3d 5f3d 724f 283d
00000020: 6d00 5ebc e395 c13b 8bac 73bd 1f6f 0b3d
00000030: b70e dbba 3171 763d 738b 85bd f320 4e3c
00000040: 4335 b8bc 7400 413d 1457 183d a179 e2bc
00000050: 3b74 68bd 4fbe 18bc 7258 12bd d872 c5bc
00000060: 25b9 153d 7d5a 043d a09d 433b f5ae c1bb
00000070: da97 e6bc 61b4 1fbd 0f48 443d a0fa b13c
00000080: 4d16 8e3c d40a 1cbb 40fa 003c 5d65 163d
00000090: 1c19 3c3c f352 30bc 4dda 03bd f111 823c
000000a0: f42f d73c 74bd 79bd 7410 7cbb efbf 8f3d
000000b0: 1c53 25bd 05eb 5b3c b269 093d 7764 ddbb
000000c0: ce17 2cbd 2a3a 03bc 36bf 63bd d28e 923d
000000d0: 1f8a e4bc 2173 efbc f8e4 233c 5b74 573c
000000e0: c048 583c b433 68bd f203 e1bc 3856 5fbd
000000f0: 57e9 7dbd 6529 cc3b b17c 763c 0e6a 0f3d
00000100: 767f 523b 616b c2bc 6076 a5bc 569f 583d
00000110: 6aca 393c 2e20 5ebd d5c5 5d3d 930c 3bbc
00000120: 3ac9 9ebc e3b9 83bd c37b 37bb 1e67 03bd
00000130: 227b 213d 4e86 e83b 8e1c 083d 1d5b 8c3d
00000140: 2bdd 423d 84ae 61bc c648 93bd 1a2e 39bd
00000150: f07a 50bd e9ae 4b3d 3f17 a43c 7926 54bd
00000160: caf5 eabc 6e78 053c 9a20 5abc 6d54 2bbd
00000170: dcd1 f9bc 0277 3ebc 3cc8 00bc 4f0d 223c
00000180: 6fcb 513d d732 013d c7ef 87bc b64e d8bc
00000190: 937b 83bb 1657 84bc ca5a 4abc fb27 3f3d
000001a0: 4943 ee3c 1607 043c 7a6b ff3c dea2 193d
000001b0: 2ed5 1dbd 8964 8dbd 5814 30bc 8092 7abd
000001c0: 894a a13c fb92 21bd 9e23 31bd 3bd5 c73c
000001d0: f99c 473d f1b8 94bc 2511 c33c b917 25bd
000001e0: d2ed 50bd 6d94 22bd 14fe d83c 3bcd bd3c
000001f0: 83c9 58bd 6ab3 20bb cec5 53bd b7c1 463d
00000200: dad9 6dbd 1113 bcbc 267c 35bc ea19 11bd
00000210: 11ce 11bd 8c16 4ebc de9c 8abc 8ef8 9cbb
00000220: 4f06 73bd 95dd 62bd c95b 95bc a45f fc3c
00000230: 14b9 ff3a e2dc eabc 22d5 4f3d cf8e e5bb
00000240: e392 50bd 44bb d93c b2d1 1fbd 8d01 32bd
00000250: 4fb9 51bd 2a5b 373c fb91 a63c 1767 71bd
00000260: d4f7 ad3c 13e5 473c 0c86 54bc be95 303c
00000270: a570 b43a 6e60 4ebc 189e 093b 8d42 563c
00000280: 68f3 2d3d ba6a c33b a7e0 f33c 5768 493d
00000290: 6ad1 763d 4530 ef3c cc6a 79bd d74a dbbc
000002a0: c718 26bd 92cf c2bc a5f5 b83c 0cbf fb3b
000002b0: c8c7 93bb cd0d 573b 4ef3 ba3b e573 833c
000002c0: d1b3 f03c 9885 bb3c 54fe ae3c d01d 143d
000002d0: 182d 97bb 8642 50bd 0393 91bd 5ad4 873c
000002e0: c436 dd3c e1f1 353c 5c86 01bd 0137 dfbc
000002f0: 0f7d c23c a274 033d 6055 7abc dd19 89bc
00000300: c60e 323d 68a0 94bd 8660 9c3b 1c25 253d
00000310: 3743 2d3a 53c5 91bc b00d 45bd 6a9a 783d
00000320: 55d9 bfbb 6d94 dfba a032 193c 5731 a3bc
00000330: 50b4 31bd 8d08 663d 98b5 94bc 4b14 30bb
00000340: 55b8 12bc 226e c2bb 21a4 6b3d a8b3 4ebd
00000350: 483f b2bc 6f78 463d 8d6c 3ebd f4c0 b6bc
00000360: 777f 033d d87e cf3b 2330 4abd 3478 0ebd
00000370: 1d6d 7bbd 59da be3c ee75 8ebc 45be 473d
00000380: a6db d53c 398a 633d bd30 d1bc d0b3 1bbc
00000390: 17a2 543c db00 b9b9 038d 16bd daf7 a8bd
000003a0: a424 6a3c 82ee 623d 447d 52bd 40ab ed3c
000003b0: 897d b5bc 8369 293d 4aee 90bd 7368 d5bb
000003c0: 768f 323d c2d6 9cbc cd8d 113d eddc 123d
000003d0: c80d 163d fc72 90ba 1f63 5a3c d339 bd3a
000003e0: 6abd 06bc 25d8 00bc 8d21 25bd b169 41bd
000003f0: 8684 693d d90a 93bd 7c12 c8bc 526f 52bc

conv1.lin_dst.weight f4 [256, 256]
0.010685492 -0.03173404 -0.0005021283 0.0435948 0.051949453 0.044210244 0.054502055 0.04109139
-0.013549906 0.0059077605 -0.05949072 0.03404152 -0.0016712759 0.06016654 -0.065207385 0.012581098
-0.022486335 0.047119573 0.03719242 -0.027645888 -0.05675147 -0.009322717 -0.03572888 -0.024102613
0.03655352 0.03231286 0.002984859 -0.005910749 -0.02814858 -0.038990382 0.047920283 0.021725953
0.017344618 -0.0023810165 0.007872164 0.03671776 0.011480596 -0.010761964 -0.03219061 0.015877696
0.026267983 -0.060971692 -0.0038461955 0.0701903 -0.040362462 0.013422732 0.033548065 -0.006756361
-0.04201489 -0.008009473 -0.055602275 0.07156147 -0.027897893 -0.029229702 0.010003321 0.0131503
0.013200939 -0.056689933 -0.027467702 -0.054525584 -0.06199011 0.0062305206 0.015044377 0.03501325
0.003211943 -0.023732843 -0.020198047 0.05288633 0.011339763 -0.054229908 0.054143745 -0.011416572
-0.019383062 -0.064319395 -0.0027997352 -0.032080762 0.03942407 0.0070960885 0.033230357 0.06853316
0.047574203 -0.013774518 -0.07191615 -0.04520998 -0.050898492 0.049727354 0.020030616 -0.051794503
-0.028681654 0.008146388 -0.013313437 -0.04182856 -0.030495577 -0.011625053 -0.00786024 0.009890868
0.0512194 0.031542625 -0.016593827 -0.02640472 -0.004012534 -0.016154807 -0.012350747 0.046668988
0.029084818 0.00805833 0.031179179 0.037508838 -0.038533382 -0.06903941 -0.010747038 -0.06117487
0.019688861 -0.039446812 -0.043246858 0.024393668 0.048733685 -0.018154593 0.023811886 -0.040305827
-0.051008053 -0.03969233 0.026488341 0.02316915 -0.05292655 -0.0024521002 -0.051702313 0.048524585
-0.058069088 -0.02295831 -0.011076963 -0.035425104 -0.03559691 -0.012578618 -0.016920503 -0.004790372
-0.05933219 -0.0553871 -0.018232243 0.030807324 0.0019510114 -0.028669778 0.05074037 -0.0070055495
-0.050921332 0.026578553 -0.03901834 -0.04345851 -0.051202115 0.011191169 0.02033328 -0.058936205
0.021236338 0.012200612 -0.012971412 0.010777889 0.0013766481 -0.012596233 0.0020998772 0.01307739
0.04246846 0.0059636505 0.029770209 0.04917177 0.060258307 0.029197821 -0.060892865 -0.026769085
-0.040550973 -0.023780618 0.02257807 0.0076826867 -0.0045098998 0.0032814622 0.0057052737 0.016046474
0.029382618 0.02289085 0.021361507 0.036161244 -0.00461353 -0.05084469 -0.071081184 0.01658075
0.027003653 0.011105032 -0.031622276 -0.027247908 0.023741273 0.03209365 -0.015279144 -0.016735965
0.04347112 -0.072571576 0.0047722487 0.040318593 0.0006609442 -0.017794287 -0.048108757 0.060694136
-0.0058547654 -0.0017057784 0.009350449 -0.019920988 -0.04338485 0.0561605 -0.018152997 -0.0026867564
-0.008955081 -0.005933539 0.057529572 -0.050464302 -0.02175869 0.0484547 -0.04649024 -0.022308804
0.03210398 0.0063322596 -0.049362313 -0.034782603 -0.061383355 0.023297476 -0.017390218 0.04876544
0.026105713 0.05555174 -0.025535936 -0.00950332 0.012978098 -0.00035286587 -0.036755573 -0.08250399
0.014290962 0.05540324 -0.051388994 0.029012322 -0.022154586 0.04136039 -0.070767 -0.0065126955
0.043593846 -0.019145373 0.035535622 0.035855222 0.036634237 -0.0011020596 0.013329296 0.0014436789
-0.008223871 -0.007864033 -0.0403152 -0.047219936 0.05701115 -0.071798034 -0.024422877 -0.012843924
00000000: 3412 2f3c 8dfb 01bd 43a1 03ba 7690 323d
00000010: f3c8 543d cd15 353d 8c3d 5f3d 724f 283d
00000020: 6d00 5ebc e395 c13b 8bac 73bd 1f6f 0b3d
00000030: b70e dbba 3171 763d 738b 85bd f320 4e3c
00000040: 4335 b8bc 7400 413d 1457 183d a179 e2bc
00000050: 3b74 68bd 4fbe 18bc 7258 12bd d872 c5bc
00000060: 25b9 153d 7d5a 043d a09d 433b f5ae c1bb
00000070: da97 e6bc 61b4 1fbd 0f48 443d a0fa b13c
00000080: 4d16 8e3c d40a 1cbb 40fa 003c 5d65 163d
00000090: 1c19 3c3c f352 30bc 4dda 03bd f111 823c
000000a0: f42f d73c 74bd 79bd 7410 7cbb efbf 8f3d
000000b0: 1c53 25bd 05eb 5b3c b269 093d 7764 ddbb
000000c0: ce17 2cbd 2a3a 03bc 36bf 63bd d28e 923d
000000d0: 1f8a e4bc 2173 efbc f8e4 233c 5b74 573c
000000e0: c048 583c b433 68bd f203 e1bc 3856 5fbd
000000f0: 57e9 7dbd 6529 cc3b b17c 763c 0e6a 0f3d
00000100: 767f 523b 616b c2bc 6076 a5bc 569f 583d
00000110: 6aca 393c 2e20 5ebd d5c5 5d3d 930c 3bbc
00000120: 3ac9 9ebc e3b9 83bd c37b 37bb 1e67 03bd
00000130: 227b 213d 4e86 e83b 8e1c 083d 1d5b 8c3d
00000140: 2bdd 423d 84ae 61bc c648 93bd 1a2e 39bd
00000150: f07a 50bd e9ae 4b3d 3f17 a43c 7926 54bd
00000160: caf5 eabc 6e78 053c 9a20 5abc 6d54 2bbd
00000170: dcd1 f9bc 0277 3ebc 3cc8 00bc 4f0d 223c
00000180: 6fcb 513d d732 013d c7ef 87bc b64e d8bc
00000190: 937b 83bb 1657 84bc ca5a 4abc fb27 3f3d
000001a0: 4943 ee3c 1607 043c 7a6b ff3c dea2 193d
000001b0: 2ed5 1dbd 8964 8dbd 5814 30bc 8092 7abd
000001c0: 894a a13c fb92 21bd 9e23 31bd 3bd5 c73c
000001d0: f99c 473d f1b8 94bc 2511 c33c b917 25bd
000001e0: d2ed 50bd 6d94 22bd 14fe d83c 3bcd bd3c
000001f0: 83c9 58bd 6ab3 20bb cec5 53bd b7c1 463d
00000200: dad9 6dbd 1113 bcbc 267c 35bc ea19 11bd
00000210: 11ce 11bd 8c16 4ebc de9c 8abc 8ef8 9cbb
00000220: 4f06 73bd 95dd 62bd c95b 95bc a45f fc3c
00000230: 14b9 ff3a e2dc eabc 22d5 4f3d cf8e e5bb
00000240: e392 50bd 44bb d93c b2d1 1fbd 8d01 32bd
00000250: 4fb9 51bd 2a5b 373c fb91 a63c 1767 71bd
00000260: d4f7 ad3c 13e5 473c 0c86 54bc be95 303c
00000270: a570 b43a 6e60 4ebc 189e 093b 8d42 563c
00000280: 68f3 2d3d ba6a c33b a7e0 f33c 5768 493d
00000290: 6ad1 763d 4530 ef3c cc6a 79bd d74a dbbc
000002a0: c718 26bd 92cf c2bc a5f5 b83c 0cbf fb3b
000002b0: c8c7 93bb cd0d 573b 4ef3 ba3b e573 833c
000002c0: d1b3 f03c 9885 bb3c 54fe ae3c d01d 143d
000002d0: 182d 97bb 8642 50bd 0393 91bd 5ad4 873c
000002e0: c436 dd3c e1f1 353c 5c86 01bd 0137 dfbc
000002f0: 0f7d c23c a274 033d 6055 7abc dd19 89bc
00000300: c60e 323d 68a0 94bd 8660 9c3b 1c25 253d
00000310: 3743 2d3a 53c5 91bc b00d 45bd 6a9a 783d
00000320: 55d9 bfbb 6d94 dfba a032 193c 5731 a3bc
00000330: 50b4 31bd 8d08 663d 98b5 94bc 4b14 30bb
00000340: 55b8 12bc 226e c2bb 21a4 6b3d a8b3 4ebd
00000350: 483f b2bc 6f78 463d 8d6c 3ebd f4c0 b6bc
00000360: 777f 033d d87e cf3b 2330 4abd 3478 0ebd
00000370: 1d6d 7bbd 59da be3c ee75 8ebc 45be 473d
00000380: a6db d53c 398a 633d bd30 d1bc d0b3 1bbc
00000390: 17a2 543c db00 b9b9 038d 16bd daf7 a8bd
000003a0: a424 6a3c 82ee 623d 447d 52bd 40ab ed3c
000003b0: 897d b5bc 8369 293d 4aee 90bd 7368 d5bb
000003c0: 768f 323d c2d6 9cbc cd8d 113d eddc 123d
000003d0: c80d 163d fc72 90ba 1f63 5a3c d339 bd3a
000003e0: 6abd 06bc 25d8 00bc 8d21 25bd b169 41bd
000003f0: 8684 693d d90a 93bd 7c12 c8bc 526f 52bc

conv2.att_src f4 [1, 8, 32]
-1.2872612e-21 -1.4148309e-23 2.736633e-13 3.6606313e-12 -8.1471755e-31 8.11392e-08 3.9063653e-38 -3.518836e-39
1.3918695e-07 4.481779e-25 1.1114837e-38 2.3001646e-35 2.597842e-18 -3.189795e-39 1.671298e-38 3.051937e-08
4.9797713e-08 -1.4097116e-12 2.3728987e-22 4.872155e-34 8.933276e-37 2.5597183e-15 2.6723232e-10 2.7984334e-30
2.5045468e-36 -1.778311e-10 4.7173814e-12 -1.6256578e-27 -3.0328263e-07 -8.9189325e-07 -4.9547526e-07 -1.66074e-38
-6.1808204e-11 2.7288146e-32 9.3543485e-11 3.2238237e-10 1.090113e-06 -1.3150442e-30 2.037514e-23 3.9245722e-07
3.077182e-13 2.8762584e-10 -4.8185323e-14 -5.834525e-16 -3.6704489e-37 -1.7055356e-17 -1.0116842e-09 2.421847e-08
1.7287003e-23 -1.0398931e-32 -2.0807959e-06 -1.3280113e-37 -1.0023921e-29 -2.7480738e-07 8.7247395e-07 1.5238447e-36
4.0043354e-13 -2.4897517e-34 -1.2472038e-18 2.9004224e-38 -2.3052338e-10 -5.623127e-07 -6.472618e-08 -1.9393565e-30
1.8432115e-25 2.512398e-09 5.863982e-38 -2.4678564e-09 3.3086254e-38 -6.840683e-25 2.46745e-09 2.7225506e-38
-9.143869e-24 -1.6356311e-23 -1.7359867e-23 9.024749e-14 4.1703515e-08 -6.558975e-09 2.8117246e-09 -1.2787168e-24
9.1623264e-07 1.9093105e-30 7.366709e-10 -1.5102045e-18 -1.7902525e-29 -4.5917168e-38 -4.26649e-40 1.3187199e-06
-2.7686813e-28 -2.9375083e-28 2.5882453e-19 -5.926368e-28 -3.6517994e-22 -5.6336944e-07 -3.4752468e-22 -2.7447987e-07
2.6000832e-38 -4.4654476e-29 -2.275087e-39 9.783709e-17 1.3297207e-24 9.962396e-38 -9.3278324e-38 -1.7865868e-27
4.318775e-33 8.539178e-12 8.292609e-08 8.496815e-09 5.2236976e-07 -2.1997128e-37 -1.4070075e-38 -1.1340019e-38
9.942285e-37 -9.039697e-08 -3.5406918e-37 1.3198564e-11 4.7335216e-11 -2.088966e-38 6.2880953e-26 -1.7830841e-27
-5.8892495e-11 -1.416714e-18 8.343704e-09 1.5456743e-34 -2.6931379e-14 2.682977e-37 1.3706835e-09 -2.5934108e-38
-5.801406e-07 1.3144016e-06 -6.542711e-11 2.6981768e-32 -9.223559e-21 2.95444e-39 -1.6321245e-07 2.6999387e-14
-1.420596e-06 8.861223e-12 2.4696568e-38 6.014271e-35 3.7117365e-37 -9.018219e-10 2.4624439e-18 -1.7244378e-38
-1.7085132e-08 1.1567001e-31 4.907077e-08 -1.8239346e-07 1.5721522e-30 -1.661931e-17 1.773951e-22 9.1138297e-10
1.4281057e-36 -4.8127484e-14 -1.9776754e-25 3.0721003e-38 -5.0485308e-26 -1.506408e-17 -2.4311394e-18 8.821804e-07
9.818457e-39 -2.585497e-33 -6.3995618e-09 -3.0533475e-13 9.84214e-12 4.4427083e-25 -1.5685678e-10 6.971956e-07
-1.6162696e-18 -4.5050153e-12 -2.151505e-32 -5.6822103e-12 -2.1929763e-13 -8.882416e-36 1.331659e-10 7.216735e-31
-7.790652e-12 3.3407486e-21 1.0084732e-36 -4.56687e-29 -2.7688066e-26 -9.478032e-39 -1.4069074e-10 7.96994e-33
4.8349147e-10 -1.6132001e-10 8.980867e-09 7.461388e-19 4.433509e-09 -1.0207183e-31 2.1914437e-36 -8.465241e-37
-2.352888e-39 2.1810934e-25 -3.9242e-40 1.087131e-26 -3.8064765e-38 8.613669e-30 4.647272e-39 -2.0096513e-28
-5.418165e-37 -1.5510285e-13 3.727741e-32 2.2671686e-37 -2.6066514e-08 1.92746e-39 6.325589e-37 -7.841352e-25
4.2279006e-16 -1.6169648e-10 -8.778505e-08 7.733793e-13 4.1462222e-13 5.964056e-07 8.530142e-39 1.3495684e-27
-1.9316661e-28 -1.2026736e-37 -7.66585e-08 -8.1865615e-08 1.8986176e-08 1.4600958e-38 -5.640649e-38 -1.1438709e-32
-7.57922e-17 -4.496388e-07 5.88677e-07 -1.6011775e-11 -3.5889653e-37 -4.876596e-28 1.1798417e-06 1.22246e-10
1.435518e-39 -7.2176837e-38 -1.7826957e-14 2.4523442e-30 -7.958444e-12 3.9504688e-33 -9.848126e-09 2.767008e-34
1.433006e-38 6.971867e-07 3.248946e-07 -1.28313164e-26 -4.8623344e-37 9.851055e-28 1.1535319e-12 1.016935e-38
2.103819e-28 1.5060389e-15 1.820414e-22 1.3380221e-24 -7.328631e-37 2.0618401e-31 1.3314692e-22 2.0907984e-38
00000000: 8186 c29c 84d5 8899 0a0f 9a2a 09cc 802c
00000010: 0b32 848d bf3e ae33 c9ae 5401 1551 2680
00000020: 6b73 1534 50b4 0a17 a507 7900 7098 f405
00000030: d9af 3f22 dabb 2280 fdfc b500 6714 0333
00000040: 2ae1 5533 3766 c6ab d46e 8f1b b6e7 2108
00000050: e8fd 9703 7872 3827 9be9 922f 3009 630e
00000060: 3310 5504 0187 43af 65fa a52c 42cc 0093
00000070: d9d2 a2b4 706a 6fb5 cd00 05b5 add6 b480
00000080: edea 87ae 2bb0 0d0b 4db4 cd2e 493b b12f
00000090: ff4f 9235 cd60 d58d 670e c519 e9b2 d234
000000a0: de3a ad2a bd1f 9e2f e501 59a9 322b 28a6
000000b0: 3dcc f982 d24e 9da3 790b 8bb0 fb08 d032
000000c0: 8c30 a719 33fa 578a cda3 0bb6 71c2 3482
000000d0: 2c4f 4b8f 3d89 93b4 f433 6a35 66a2 0104
000000e0: 8e6c e12a ee78 a587 070e b8a1 fde9 1d01
000000f0: 9076 7daf d6f1 16b5 98ff 8ab3 dc56 1d8e
00000100: b42d 6416 93a6 2c31 fda1 9f01 fd96 29b1
00000110: 8223 3401 79b5 5397 d78f 2931 d13a 1401
00000120: 3fde 3099 4430 9e99 f3e4 a799 2338 cb29
00000130: 801d 3333 5b5d e1b1 6238 4131 31df c597
00000140: 07f3 7535 d4e6 1a0e 9b7e 4a30 eadd dea1
00000150: 9d8d b58f 31ff 7981 53a5 0480 dffe b035
00000160: 6c7c af91 cc2f ba91 75c8 9820 69d0 3b92
00000170: dcbc dc9b 743a 17b5 d710 d29b 3a5c 93b4
00000180: df8f 0d01 d36c 6290 04c6 1880 d398 e124
00000190: aac3 cd17 e299 0702 81ed fd81 498c 0d93
000001a0: 1865 b309 0a39 162d 1a15 b233 63f9 1132
000001b0: fa38 0c35 67b4 9582 a535 9980 5c7b 7b80
000001c0: c228 a903 4320 c2b3 8df7 f082 0c31 682d
000001d0: b72e 502e e077 e380 8aaf 9b15 3e45 0d93
000001e0: 8781 81ae f111 d1a1 0058 0f32 9274 4d07
000001f0: 8893 f2a8 0d98 b602 a362 bc30 df32 0d81
00000200: f5ba 1bb5 7f6a b035 30e0 8fae ec18 0c0b
00000210: 653a 2e9e c72b 2000 7f3f 2fb4 5930 f328
00000220: 4fab beb5 67e3 1b2d fe75 0601 02e3 9f06
00000230: 929b fc02 13e4 77b0 40b2 3522 4fc6 bb80
00000240: 9ac2 92b2 f425 160c e2c1 5233 efd7 43b4
00000250: a618 ff0d 3c49 99a3 2075 561b e084 7a30
00000260: c7fa f203 36bf 58a9 09d3 7496 d442 2701
00000270: bbfd 7995 0ef1 8aa3 ed62 33a2 face 6c35
00000280: dde9 6a00 71cb 5689 24e3 dbb1 60e3 abaa
00000290: 0f25 2d2d c37e 0917 4277 2caf eb26 3b35
000002a0: f084 eea1 9281 9eac d06c df8a cdec c7ac
000002b0: 3de8 76aa 79e8 3c85 de6a 122f 4a32 6a0d
000002c0: fa0d 09ad 7a6b 7c1d 3495 ab03 5d91 6790
000002d0: cb1a 0995 e634 6780 ecb0 1aaf 7887 250a
000002e0: b0e6 0430 8c5f 31af 454a 1a32 a738 5c21
000002f0: 8f55 9831 2f7f 048c 6b6d 3a04 5307 9083
00000300: e59e 1980 ce00 8716 e845 0480 1754 5714
00000310: 8a3e 4f81 bab4 2e0f b49a 3200 eac0 7e91
00000320: e05e 3883 5aa1 2eaa 2d8e 410b a64b 9a02
00000330: dfe8 dfb2 f9fc 1400 a73f 5703 97ad 7297
00000340: cdb8 f325 83c9 31af 5784 bcb3 daaf 592b
00000350: 5c69 e92a ae18 2035 91e2 5c00 00d9 d512
00000360: 26de 7491 0fb3 2382 759f a4b3 19ce afb3
00000370: 0b17 a332 88fd 9e00 968d 9981 9c92 6d8a
00000380: d1c3 aea4 e365 f1b4 9305 1e35 50d7 8cad
00000390: 9840 f482 a68b 1a92 0d5b 9e35 3169 062f
000003a0: a4a1 0f00 ea7b c481 2a92 a0a8 32f5 460e
000003b0: a501 0cad 9718 a409 8430 29b2 34e6 b707
000003c0: 610a 9c00 4e26 3b35 2c6d ae34 8126 7e94
000003d0: e874 2583 a018 9c12 5e58 a22b 03bc 6e00
000003e0: 6a58 8511 070b d926 1613 5c1b 840c cf17
000003f0: 6161 7983 32d2 850c faf6 201b f4aa e300

conv2.att_dst f4 [1, 8, 32]
7.8284966e-31 7.1703796e-33 -1.1440365e-20 -4.8248093e-29 -1.1940414e-06 2.5981476e-18 -1.553466e-38 -2.8032285e-10
-7.071352e-14 3.7037794e-22 -1.6286445e-28 4.5508876e-36 -5.8490275e-07 1.2299206e-13 -4.199492e-11 -1.7840567e-27
7.2388804e-14 -2.7330103e-07 -1.1569379e-25 -6.2937566e-08 -5.41917e-10 2.1759291e-07 2.1025254e-10 -4.1655373e-33
-1.235038e-15 -9.82636e-09 1.2987942e-09 7.102e-39 -4.619336e-11 4.457459e-09 -2.4726324e-10 -2.9626928e-30
-6.319e-08 2.0039613e-37 -1.8446592e-08 2.6612894e-09 4.2501106e-35 1.1209751e-24 3.645723e-08 -1.2053708e-26
1.335175e-39 5.96446e-08 2.5479318e-21 -1.0239244e-06 -1.1938783e-07 8.07292e-07 5.9594746e-38 -6.328536e-35
-1.3441787e-38 4.279059e-09 2.8656502e-10 7.836815e-23 1.528984e-38 -2.3902715e-20 1.7644538e-32 3.6659418e-37
1.855793e-11 2.7185449e-08 1.8620012e-20 -7.5015854e-36 5.3699867e-25 -2.3750446e-36 1.3818884e-38 3.7430868e-38
5.512868e-09 7.403309e-26 -4.643662e-25 -3.5585673e-25 3.4019934e-38 1.0440169e-08 5.039244e-17 1.9126576e-38
1.8242151e-13 -2.1563028e-06 2.3670266e-32 -5.375932e-28 2.0655509e-07 -2.1179937e-21 1.790716e-35 2.565029e-38
-1.48703775e-36 -1.446854e-30 2.7682875e-38 1.02061665e-25 -6.015648e-39 -1.8643644e-07 8.6226965e-35 -2.312469e-36
1.8327805e-36 -1.1304452e-06 2.9040955e-32 -2.513615e-18 -1.595921e-20 -8.132533e-07 -2.064624e-38 4.2913652e-13
2.2006423e-34 -8.4401344e-14 1.8542863e-38 -1.6919336e-31 4.612335e-39 6.94302e-39 -2.2672222e-36 7.5232674e-21
-9.175816e-07 7.946951e-32 -7.512903e-19 -1.5415253e-08 3.2946693e-07 8.43636e-36 1.2799299e-33 6.503725e-13
1.6589158e-31 -1.0254595e-34 6.863455e-10 6.458875e-36 -7.319296e-10 -2.5585154e-11 -2.0514557e-07 -3.4573496e-08
1.2635231e-20 2.6795644e-32 1.2395525e-27 -4.0281994e-16 2.1949183e-12 -5.0307506e-07 1.2096795e-07 2.7320244e-09
1.3037953e-26 8.531834e-39 3.4372245e-08 -1.7279383e-28 -4.463927e-22 -2.823297e-29 -1.4430032e-07 2.48115e-10
1.15599615e-26 1.0881366e-32 -1.5735413e-38 3.6292118e-07 -1.3677393e-14 1.4446801e-10 2.4030862e-07 2.0559666e-38
2.6893812e-37 2.3774884e-09 1.373051e-39 -3.56836e-40 8.858522e-29 -4.760909e-27 1.7462754e-38 -7.848138e-08
-4.4478416e-38 1.0754758e-37 -4.06158e-09 -3.694648e-18 6.029058e-30 -1.269602e-39 -2.7460715e-08 1.8393103e-09
-7.8196614e-08 -3.8666707e-38 2.8549e-13 2.401279e-39 6.738921e-32 -2.6946768e-38 -6.8108555e-08 -2.5191483e-12
4.302e-41 -6.8423117e-07 5.250527e-07 -2.3436466e-15 4.5345278e-10 -6.779225e-37 4.211602e-38 6.783248e-22
-1.8720298e-37 -8.752102e-25 -1.48121e-22 6.911339e-38 -5.4802595e-12 -8.3890124e-33 -2.8383354e-28 -2.3097508e-07
3.111907e-39 1.308171e-38 1.4136979e-09 4.2906874e-22 -7.237547e-07 -8.607248e-12 -1.0142173e-09 1.215182e-39
2.4675313e-09 -3.9944386e-28 -1.4724787e-38 -1.7083533e-32 5.805623e-14 3.5181962e-08 -8.711661e-38 -1.427417e-39
-6.291698e-15 -5.66927e-39 1.6128582e-06 -6.56554e-30 -1.4041061e-08 2.006235e-37 -8.665085e-09 -6.025773e-12
1.8699341e-37 4.949588e-33 -2.6299488e-38 -4.950689e-07 -1.8733535e-38 -3.5758771e-38 -1.1579057e-25 5.573045e-17
-5.24407e-18 -1.037463e-29 -3.4671558e-07 -1.0841651e-33 7.193386e-09 -3.977885e-09 9.013444e-35 2.0005843e-20
5.618939e-39 1.7000121e-10 -4.2284394e-30 -7.177664e-39 4.014758e-11 5.6706853e-08 -9.2404356e-26 -1.269354e-39
-2.492823e-32 1.0465991e-24 3.78132e-40 -1.0925196e-15 2.2608056e-37 8.542708e-34 3.7769092e-07 1.19416436e-35
-7.949569e-22 -7.948117e-12 6.8536545e-13 -6.278643e-13 -1.315641e-35 -1.5537824e-23 -1.2739772e-38 3.1681576e-08
5.7077905e-28 1.9651887e-34 1.2121544e-06 6.805521e-39 -5.178833e-08 1.1730412e-27 2.0603962e-10 3.712392e-38
00000000: 9b0c 7e0d 47ec 140a 361a 589e 9ba5 7490
00000010: f342 a0b5 9fb5 3f22 5028 a980 ef1b 9aaf
00000020: 923b 9fa9 36e1 df1b 8974 4e91 c792 c104
00000030: 3602 1db5 0c7a 0a2a 14b2 38ae f858 0d93
00000040: 4e01 a329 35ba 92b4 d338 0f96 4b28 87b3
00000050: 05f6 14b0 7ca3 6934 d42c 672f 9707 ad89
00000060: dcfc b1a6 cad0 28b2 4281 b230 7d55 4d00
00000070: 1a29 4bae 3928 9931 35ef 87af b95c 708e
00000080: 12b3 87b3 ee61 8802 7c74 9eb2 e6e1 3631
00000090: 82f9 6106 6676 ad17 2695 1c33 90bf 6e94
000000a0: ed89 0e00 f715 8033 2b84 401d c66d 89b5
000000b0: 1431 00b4 afb4 5835 7a3b a201 c93d a886
000000c0: 3c5e 9280 0007 9331 718a 9d2f 897b bd1a
000000d0: da7d a600 38c1 e19e 3a3b b70a b77d f902
000000e0: be3c a32d 6f85 e932 6ddc af1e 848a 1f85
000000f0: 6b31 2617 e40b 4a84 6d79 9600 04cb 4b01
00000100: b36b bd31 0c4c b715 e1b6 0f97 c043 dc96
00000110: de38 3901 595c 3332 e464 6824 1d45 d000
00000120: 6c63 4d2a 00b5 10b6 5cce f50a be5e 2a92
00000130: 6ec9 5d34 f507 209d ed6b be05 49a7 0b01
00000140: a101 fd83 f7c3 ea8d 4cb8 1601 44b1 fc15
00000150: 2e81 4180 422f 48b4 083b e506 1db9 4484
00000160: 6dea 1b04 cdb9 97b5 0dca 160b d878 39a2
00000170: 01bb 969e 574e 5ab5 51d1 e080 1795 f12a
00000180: fd41 9207 100e bea9 f5e9 c900 23a0 5b8c
00000190: 5039 3200 519a 4b00 badf 4084 4a1c 0e1e
000001a0: ba4f 76b5 8c50 ce0b e4bd 5da1 806a 84b2
000001b0: 97e1 b034 ea6b 3305 32aa d408 4710 372b
000001c0: ef56 570c 944e 0887 45a9 3c30 765d 0905
000001d0: f730 49b0 a50c e1ad fc45 5cb4 f67d 14b3
000001e0: 3aac 6e1e 8521 0b0b 396a c412 bb35 e8a5
000001f0: 2274 1a2c 0e0b 07b5 6be3 0134 48be 3b31
00000200: 231f 8114 48e7 5c00 afa0 1333 ce0a 5b91
00000210: f6e9 069c 7e28 0f90 f8f0 1ab4 1567 882f
00000220: f8f7 6414 44ff 610a ee57 ab80 82d7 c234
00000230: d863 76a8 21d8 1e2f c403 8134 fcdf df00
00000240: a107 b702 3861 2331 82f3 0e00 b7e2 0380
00000250: 1897 e010 5a99 bc93 0e27 be00 9889 a8b3
00000260: dd29 7281 dd62 1202 098e 8bb1 f74e 88a2
00000270: 5191 f40e 22d3 0d80 c0e2 ebb2 faca fc30
00000280: 0bed a7b3 8685 5281 72b7 a02a ca25 1a00
00000290: d0f3 ae0b 50b6 1281 1343 92b3 f144 31ac
000002a0: ec77 0000 02ac 37b5 59f1 0c35 a6e0 28a7
000002b0: ce49 f92f 61af 6683 2a4d 6501 d702 4d1c
000002c0: b8ce 7e82 a66e 8797 3b11 339b 0125 bc01
000002d0: cad1 c0ac a43b 2e8a a0e6 b391 f201 78b4
000002e0: bbe2 2100 7c72 8e00 134c c230 96ad 011c
000002f0: 0b48 42b5 996b 17ad 9964 8bb0 6f3b 0d00
00000300: 4591 2931 792d fd91 b756 a080 d267 b18a
00000310: 23bb 8229 fa1a 1733 6b27 ed81 0f8b 0f80
00000320: acae e2a7 9ebb 3d80 6379 d835 3c2a 058f
00000330: 3d39 71b2 8b89 8802 72dd 14b2 5703 d4ac
00000340: b285 7e02 0c99 cd09 2330 0f81 e0e4 04b5
00000350: 79fd cb80 74b0 4281 7f57 0f96 7381 8024
00000360: d778 c1a2 296c 528f 3a24 bab4 4923 b488
00000370: b129 f731 d9ad 88b1 529e ef06 29f3 bc1e
00000380: 512f 3d00 16eb 3a2f a086 ab8e 6828 4e80
00000390: 2892 302e d88d 7333 38c8 e495 71d2 0d80
000003a0: 4d6f 018b 10f4 a117 141e 0400 dc72 9da6
000003b0: cadc 9902 a9f0 8d08 72c5 ca34 7ef8 7d05
000003c0: d042 709c 23d3 0bad c9e9 402b 64ba 30ab
000003d0: 28e7 8b85 ca45 9699 4db9 8a80 4312 0833
000003e0: 19e3 3412 f49b 8207 4fb1 a235 061b 4a00
000003f0: df6d 5eb3 34e0 b912 ff8a 622f 311f 4a01
