SCG-SFFL-main/SFFL/pretrained_models/activemq.pt (torch, 799425 bytes, 15 tensors)

conv1.att_src f4 [1, 8, 32]
-1.3483667e-31 -4.4625718e-13 2.2073132e-32 -6.471527e-32 -2.8914853e-30 -4.6506786e-24 4.1222315e-32 7.6968714e-30
-2.949361e-11 -2.4696063e-27 -4.5570457e-27 -3.7088104e-09 -5.972516e-07 -9.488719e-17 -3.737577e-32 -3.3615172e-31
1.3996465e-31 -1.35807205e-08 -8.163344e-33 -5.982361e-09 -4.425791e-15 3.455425e-26 2.6145937e-05 -5.861983e-07
6.7253946e-17 -1.9571955e-22 1.7801279e-33 1.2502822e-33 6.024428e-11 -2.9302973e-33 1.4746681e-06 -4.0005296e-05
-1.3147803e-32 -9.927424e-09 -1.9202448e-18 -2.3738141e-05 3.5366274e-06 -4.2109496e-05 -2.5184163e-10 7.132074e-33
3.7584282e-09 3.383442e-29 2.8317516e-31 -4.682982e-09 4.7243844e-11 -1.4264859e-05 2.554986e-06 3.12331e-19
2.86373e-31 -5.0433076e-26 1.9085634e-16 -3.766091e-06 5.3487827e-15 -2.2964766e-08 1.7073082e-33 7.421311e-31
7.637798e-33 1.6588513e-31 4.2345226e-05 7.8125e-09 -4.259303e-11 -2.1952997e-22 -1.8349646e-22 1.8281713e-24
-6.246796e-11 -1.2099981e-30 -5.67548e-11 1.1979281e-30 1.5228508e-08 7.849654e-06 -3.1138392e-05 2.6110873e-13
6.431109e-33 1.3600644e-33 -7.684427e-10 -5.3429474e-09 -4.262258e-33 3.3380638e-33 2.9259035e-18 -4.587914e-09
-3.376064e-32 -2.289916e-16 -5.2033926e-08 7.1302004e-09 4.8589015e-08 8.7335904e-32 8.99007e-32 3.4435576e-31
1.3469995e-30 -2.9747075e-06 -4.9861405e-06 5.663918e-31 1.345796e-05 -1.180768e-28 -1.9281085e-06 -3.9959083e-27
-5.2974916e-05 1.3448262e-07 -4.7284444e-05 1.1865373e-12 -6.162124e-29 1.3292282e-31 3.2596827e-27 6.7663174e-33
-1.3204958e-14 1.7577263e-33 5.5980404e-14 -3.6862618e-33 -4.00274e-21 2.2377126e-21 -7.275751e-21 -4.7592603e-33
3.057001e-27 2.8156887e-32 -2.3758824e-07 8.153048e-33 7.835564e-06 -2.6594732e-30 -3.1645516e-32 -9.4482006e-17
-1.309007e-32 -1.9665687e-23 -5.349718e-26 -2.6362709e-33 5.101156e-32 1.1234138e-32 -2.6435888e-34 6.144191e-08
1.8918223e-05 1.3969267e-31 -1.0397744e-08 -5.2259946e-26 -9.20722e-34 -6.959885e-32 -1.4898995e-25 -2.8055107e-11
2.5055216e-30 -3.449372e-05 -1.3964947e-14 -5.654848e-17 4.4867662e-07 1.7165403e-16 1.453474e-16 -1.0614568e-05
-9.163568e-08 -1.9451543e-05 -7.593638e-07 2.2786828e-10 1.8362879e-17 -3.3382647e-05 2.250536e-15 4.497909e-33
2.1655609e-33 -6.0516915e-20 -7.581626e-06 -9.2156705e-18 -8.211573e-07 3.49823e-30 -2.7320508e-29 2.3902021e-11
-6.610317e-06 7.4183085e-06 6.373912e-29 2.2178442e-07 -3.793759e-05 6.0682443e-27 1.84459e-06 -1.5225164e-06
-2.3531166e-31 1.2828683e-32 7.1841226e-09 -2.4607243e-06 1.6629534e-29 -2.0303584e-32 2.2808942e-28 6.194871e-07
1.6520223e-23 7.5022004e-33 -1.4364772e-27 -1.3976914e-14 9.080565e-09 -7.458025e-11 -1.2138203e-29 -3.984782e-33
4.7445512e-33 4.8861268e-30 1.763093e-33 -1.1443443e-05 -9.486722e-06 5.4666666e-06 -2.9107782e-33 1.8661658e-15
8.1194364e-11 2.6904765e-05 -4.080217e-27 1.9620153e-05 -5.2542605e-17 -2.6030288e-33 -3.2985286e-31 2.1256259e-32
3.6276274e-26 7.00265e-06 6.561111e-17 -4.6227344e-24 -8.4582354e-08 1.2337645e-07 1.6562149e-08 -4.7286644e-33
2.7092357e-17 -1.080325e-08 7.4345637e-34 2.2265578e-05 2.819614e-06 -3.963535e-05 7.0604244e-31 9.428674e-25
-1.51691375e-33 1.9396568e-14 7.935018e-06 4.875712e-07 -2.0911703e-33 1.0525466e-32 -3.0465573e-15 4.768195e-32
-4.3832056e-29 4.8112706e-05 -4.1652728e-32 -2.4748806e-06 -1.6314117e-31 5.4145907e-28 1.2346151e-06 -1.1149276e-16
3.6269713e-33 -3.3137171e-12 1.290394e-05 -2.5276259e-11 9.335005e-27 -5.165248e-09 -3.0208787e-28 6.459836e-29
-4.771379e-29 1.4956276e-05 4.4924973e-32 -1.0487837e-24 4.1143448e-07 2.2906108e-05 1.4797152e-07 5.7898218e-33
4.3095115e-12 -7.137627e-24 -2.1626025e-10 1.3015385e-05 -1.3577882e-06 3.673147e-06 -1.6490484e-25 -1.0773321e-33
00000000: 2b07 2f8c 7038 fbaa 7338 e50a ad02 a88b
00000010: cd95 6a8e 17ea b398 db09 560b 711c 1c0f
00000020: dab6 01ae 91a9 4393 ef85 b493 15de 7eb1
00000030: d152 20b5 83cb daa4 eb10 428b c92c da8c
00000040: 3caf 350c a450 69b2 c88b 298a 678d cdb1
00000050: b874 9fa7 b71a 2b15 f953 db37 3e5b 1db5
00000060: b913 9b24 449c 6c9b 22e3 1309 20bd cf08
00000070: 847a 842e 8870 7389 36ed c535 5ccb 27b8
00000080: db88 888a 468d 2ab2 66b0 0da2 4521 c7b7
00000090: cc56 6d36 ba9e 30b8 8f73 8aaf 9c20 140a
000000a0: 7c23 8131 978f 2b10 8bca b70c f2e7 a0b1
000000b0: d7c7 4f2e 1a53 6fb7 5376 2b36 205e b820
000000c0: e0dd b90c 85bb 7995 d90a 5c25 f3bc 7cb6
000000d0: d0b5 c027 0e44 c5b2 6ed6 0d09 d7d5 700d
000000e0: 80a1 1e0a ca54 570c d79b 3138 bd37 0632
000000f0: 7d53 3bae 9eb2 849b 67d5 5d9b aa72 0d18
00000100: 565e 89ae 5b55 c48d 399c 79ae fd5f c20d
00000110: d8cf 8232 02b2 0337 989a 02b8 bcfd 922a
00000120: a491 050a befa e108 593a 53b0 1095 b7b1
00000130: 1a0c b189 62a8 8a09 c1e4 5722 b8a3 9db1
00000140: 964b 2f8b 3201 84a5 e87b 5fb3 e8fd f431
00000150: 30b0 5033 aabc e20b 4365 e90b ea7f df0c
00000160: 2c90 da0d 16a1 47b6 9f4e a7b6 fdcd 370d
00000170: 80c9 6137 1dae 1591 a764 01b6 534b 9e93
00000180: 6231 5eb8 4d66 1034 4953 46b8 83fd a62b
00000190: 793a 9c90 2f8b 2c0c 1c21 8113 ea87 0c0a
000001a0: 1fe1 6da8 b406 1209 031d 7c29 0f1f 9989
000001b0: 2038 979d a813 291d 5f6f 099e 23b1 c589
000001c0: 5933 7213 ec32 120b c21b 7fb4 0a55 290a
000001d0: 7e75 0337 19c3 578e 1b50 248b 55dc d9a4
000001e0: 60ef 878a e231 be99 de73 8495 4803 5b89
000001f0: ff6e 840b ec52 690a 55b2 af87 0cf2 8333
00000200: 93b2 9e37 da54 350c c3a1 32b2 ad63 8195
00000210: 2ffb 9888 5fb0 b48b cd70 3896 7cc6 f6ad
00000220: a645 4b0e 5aad 10b8 f391 7ba8 5564 82a4
00000230: a5e1 f034 54e7 4525 fb92 2725 3915 32b7
00000240: 3fc9 c4b3 df2b a3b7 15d7 4bb5 388b 7a2f
00000250: 1f5e a923 5804 0cb8 102b 2227 f9d5 ba09
00000260: 63e8 3309 3be4 8e9f ac65 feb6 c6ff 29a3
00000270: 806d 5cb5 b3e7 8d0e 0c88 0a90 913e d22d
00000280: 31ce ddb6 c9ea f836 0e99 a110 a323 6e34
00000290: 2d1f 1fb8 4f63 f013 a193 f735 4459 ccb5
000002a0: dbb9 988c 7d38 850a 36d8 f631 ec22 25b6
000002b0: bda4 a80f 2fd8 d28a a091 9011 d44a 2635
000002c0: 17c6 9f19 8ad0 1b0a 709e e392 24c9 7ba8
000002d0: bf00 1c32 f300 a4ae 2731 768f 7885 a589
000002e0: b914 c509 7134 c60e d778 1209 37fd 3fb7
000002f0: 2929 1fb7 4f6e b736 68d1 7189 af78 0627
00000300: 5d8c b22e 8bb1 e137 51a2 a193 f595 a437
00000310: 5c4f 72a4 4d40 5889 3516 d68c d4bc dc0a
00000320: a4a1 3315 4ef8 ea36 f749 9724 58d5 b298
00000330: a4a3 b5b3 7679 0434 8d44 8e32 c96b c489
00000340: 05e2 f923 3299 39b2 460e 7708 f7c6 ba37
00000350: 9a38 3d36 223e 26b8 b61f 650d d3e6 9117
00000360: 600a fc88 71b5 ae28 a520 0537 a3e1 0235
00000370: 46ba 2d89 fa9a 5a0a 1087 5ba7 2f94 770b
00000380: 4341 5e90 a0cc 4938 f945 588b 2016 26b6
00000390: f4c4 538c 6198 2b12 0db5 a535 db8a 00a5
000003a0: 93a8 9609 9f2e 69ac 007e 5837 1355 dead
000003b0: 19e6 3814 007a b1b1 8f78 bf91 bcc6 a310
000003c0: 0af0 7190 b7ec 7a37 8843 690b 9a4a a297
000003d0: 20e3 dc34 7e26 c037 1ae2 1e34 f27f f009
000003e0: a1a0 972c d10f 0a99 d9c7 6daf a75c 5a37
000003f0: 3f3d b6b5 2f80 7636 6e24 4c96 a400 b388

conv1.att_dst f4 [1, 8, 32]
-3.3704648e-05 -3.0675117e-06 8.807085e-14 -2.1596248e-30 -2.0663597e-06 8.5124725e-08 -3.133371e-05 8.4026154e-11
-3.6384781e-06 -4.9703224e-11 6.750646e-07 -3.6041815e-08 8.072231e-31 1.7881918e-07 1.6421976e-12 2.25782e-29
3.464313e-20 3.678023e-23 3.7920202e-06 3.880832e-23 -3.1709906e-32 -1.1436452e-06 -5.883632e-25 -2.7022455e-19
-3.2637948e-10 -6.354763e-34 2.6270945e-06 -1.131161e-34 1.8096451e-12 5.1220107e-28 4.606657e-06 1.13042985e-30
-5.3889516e-32 4.1187384e-08 6.643089e-08 6.858536e-08 -5.3994435e-32 -3.8042572e-34 -3.5311153e-21 -1.071238e-33
2.2571476e-29 3.649187e-05 1.0476989e-05 1.3312035e-06 -1.1371448e-28 -6.1329636e-13 1.750311e-11 3.9398617e-23
-1.2443128e-06 -6.539762e-34 -1.5676506e-10 5.1461166e-06 6.598968e-09 -4.397968e-33 -1.1062993e-07 -8.4015226e-33
2.4615296e-31 -5.903182e-32 -3.8280668e-23 -1.391307e-06 -3.3037593e-22 -2.9351688e-07 1.3196118e-24 5.781026e-11
3.3142361e-22 -1.46435e-05 2.7291517e-32 1.6022273e-32 6.6415896e-07 -7.5044244e-25 4.6372133e-08 -3.1796557e-23
-4.0553755e-07 -3.665903e-07 1.1076865e-31 2.7274632e-08 4.118683e-24 7.174759e-08 1.0984305e-33 4.3092918e-32
-1.4157318e-10 -3.4202292e-23 1.6418311e-31 -2.1229689e-15 2.8063303e-08 -2.0680599e-08 1.654675e-16 -3.1539354e-32
-8.980407e-06 7.2394573e-31 -5.37793e-34 -1.8925677e-25 3.2287917e-09 -1.6329556e-12 3.2998926e-07 -2.4946049e-08
1.2379596e-14 2.5081048e-05 -5.9522667e-06 3.3339018e-33 3.7800322e-32 -2.3050808e-27 6.801967e-07 -3.4062358e-12
2.1331845e-30 1.1945524e-30 1.2368479e-26 -1.0184153e-26 -5.282085e-05 4.910822e-05 -1.3820105e-18 -1.05325755e-13
-1.5815127e-07 8.290776e-07 -2.1015073e-07 -2.532327e-05 -1.0147414e-14 3.9932708e-33 -4.462479e-25 -2.3434109e-06
7.547102e-07 4.9570526e-14 -1.2904165e-33 2.3444074e-21 -3.3316e-11 -5.347561e-32 -1.254767e-13 -1.2015605e-32
-1.7391352e-32 1.0069503e-05 -3.656841e-22 4.653871e-16 1.6097666e-32 4.687269e-07 -1.556368e-05 -6.417595e-33
-4.6713072e-07 -2.07349e-34 3.019416e-33 -2.1627155e-32 5.3283973e-26 -1.0633278e-08 8.9468385e-06 -4.862032e-05
1.3522122e-18 -8.984121e-12 4.6466404e-30 -2.1908641e-05 3.4423315e-32 3.351482e-32 -1.943279e-06 2.7008725e-06
9.951071e-09 -5.1658918e-33 -2.7058556e-07 -8.8793105e-32 -7.9079177e-10 8.372861e-32 -1.0711865e-05 9.972915e-08
-4.2911743e-05 3.8880517e-06 -2.7729276e-33 -5.223034e-06 6.767839e-32 -3.2689986e-06 8.6468166e-14 -1.2049689e-09
-6.467897e-33 4.370275e-13 1.1406766e-09 2.0053873e-32 9.8845763e-14 -1.7596693e-06 2.2518245e-13 1.8852458e-10
-6.6878973e-09 -2.6751413e-30 -1.8299072e-11 -1.4719749e-08 -1.2067535e-07 8.313079e-33 -2.3943438e-30 -4.5494788e-24
-1.1292771e-29 -1.54528e-15 -1.5908662e-09 1.4765403e-07 5.982841e-28 3.1739444e-24 5.052179e-06 -1.5650256e-33
-3.8976763e-33 2.2333533e-22 1.1738975e-28 1.5174113e-32 1.9709688e-15 1.1268196e-05 -2.9964315e-07 1.1076973e-07
1.3096303e-30 -4.710283e-05 -1.355294e-31 1.0945692e-09 -3.460813e-29 6.3649124e-13 -1.4920669e-33 -3.827402e-05
-3.6947405e-23 -5.0740114e-33 1.1652816e-08 -3.655997e-23 -4.8231124e-07 6.306246e-08 -6.88586e-31 -1.4876201e-31
6.9632245e-33 5.2985288e-05 1.8587963e-23 -8.435582e-27 2.7704383e-10 4.2961136e-24 2.0749426e-25 2.7548354e-29
4.1814097e-33 1.3203959e-28 -6.84606e-14 6.026986e-27 -1.5789749e-33 -4.640264e-06 -9.869237e-35 4.5483637e-05
-2.0400636e-25 -4.7610745e-05 -3.5213648e-26 1.4427872e-27 2.5758773e-10 7.2551267e-09 2.621484e-06 -8.3748866e-08
-1.3858795e-32 -2.2401999e-29 -1.7414693e-31 -1.580567e-09 1.2407819e-06 6.69696e-33 3.047596e-30 6.0690656e-28
3.1846228e-27 4.6362185e-09 -1.8452124e-28 -7.520205e-09 -6.4679775e-06 -6.546901e-08 -5.7085177e-09 9.075697e-21
00000000: 175e 0db8 73db 4db6 6351 c629 a735 2f8e
00000010: caab 0ab6 d0cd b633 516c 03b8 85c6 b82e
00000020: 942c 74b6 db98 5aae 1636 3535 65cc 1ab3
00000030: bcfa 820d 7101 4034 671e e72b 5cf8 e40f
00000040: f998 231f b8db 311a 697a 7e36 60aa 3b1a
00000050: b2a5 248b 5a7f 99b5 ef16 3697 2e83 9fa0
00000060: d46d b3af 582c 5388 244d 3036 6a5b 1687
00000070: 56af fe2b b052 2212 e292 9a36 386c b70d
00000080: bae7 8b8b 02e6 3033 c5a8 8e33 3349 9333
00000090: 752d 8c8b 15d6 fc87 da66 859d 6dfd b188
000000a0: e7e6 e40f d90e 1938 53c6 2f37 ceab b235
000000b0: 7526 1091 a9a0 2cab 80f5 992d 2085 3e1a
000000c0: 4302 a7b5 2452 5988 715d 2caf ceac ac36
000000d0: 23bd e231 38af b689 7293 edb3 287e 2e8a
000000e0: 2dc3 9f0c 6041 998b 2c1d 399a f2bc bab5
000000f0: 33b3 c79b a794 9db4 3633 cc17 9140 7e2e
00000100: 5255 c81b 5bad 75b7 a6b4 0d0b 8262 a60a
00000110: a848 3235 2d40 6897 b32a 4733 3bc2 199a
00000120: a8b8 d9b4 cacf c4b4 33c9 0f0c 8d49 ea32
00000130: 7655 9f18 a813 9a33 1182 b608 50c0 5f0b
00000140: 4fa9 1baf 6364 259a 321f 550c ddf9 18a7
00000150: db0f f132 1ea5 b1b2 63c5 3e25 fec2 238b
00000160: 8eaa 16b7 0fef 6a0d 5eb6 3288 dd49 6a96
00000170: 81e1 5d31 6dd1 e5ab 6129 b134 f148 d6b2
00000180: cf02 5f28 2465 d237 95b9 c7b6 207c 8a09
00000190: 3f45 440b 98a0 3693 c396 3635 4ab1 6fac
000001a0: 8210 2d0e c4d3 c10d a4fb 7414 cab7 4994
000001b0: f58b 5db8 8df9 4d38 e1f2 cba1 2a2c eda9
000001c0: 4ad0 29b4 c78d 5e35 cba5 61b4 4f6d d4b7
000001d0: b0cc 36a8 bddf a509 671b 0a97 7e43 1db6
000001e0: 4a97 4a35 ed3e 5f29 3f68 d688 6f23 311d
000001f0: 7b86 12ae a4d4 8a8b 3246 0daa ea8d 798a
00000200: 259a b48a 30f0 2837 e00a dd9b 8223 0626
00000210: f02a a70a 56a5 fb34 c08e 82b7 ca49 058a
00000220: f5c9 fab4 9bce 8987 e0d7 7a09 d796 e08a
00000230: bbec 8315 a7ad 36b2 611a 1637 aced 4bb8
00000240: 228d c721 e20c 1ead 797d bc0e 73c8 b7b7
00000250: 6fbc 320b d604 2e0b 4769 02b6 a340 3536
00000260: 46f5 2a32 2f95 d689 ff44 91b4 2485 e68b
00000270: 065f 59b0 355f d90b 1cb7 33b7 ae2a d633
00000280: 22fc 33b8 1c76 8236 a65d 6689 8541 afb6
00000290: 01b4 af0b f860 5bb6 81b5 c229 139c a5b0
000002a0: 3d55 068a 4d06 f62a fdc5 9c30 5740 d00a
000002b0: b494 de29 c72d ecb5 6c88 7d2a f448 4f2f
000002c0: 5ecb e5b1 8308 598e d9f5 a0ad 24e2 7cb2
000002d0: fd92 01b4 e9a7 2c0a 9340 428e dbff af98
000002e0: 6b0b 658f c5b2 dea6 a1a5 dab0 d58a 1e34
000002f0: 939a 3d12 7292 7518 e385 a936 6a04 0289
00000300: 34e7 a189 78ff 861b 27cf 1411 b693 9d0a
00000310: f505 0e27 890c 3d37 a4de a0b4 4ee0 ed33
00000320: ea7f d40d 4790 45b8 5eed 2f8c bb6f 9630
00000330: ec7b 2f90 0728 332b 82e9 f788 6b88 20b8
00000340: acaa 329a 25c4 d289 a031 4832 0dcb 309a
00000350: 2d78 01b5 f46c 8733 7d75 5f8d a81a 418c
00000360: da9e 100a 853c 5e38 91c5 b319 7b15 2794
00000370: 744e 982f a632 a618 c76e 8016 cfaf 0b10
00000380: 60b0 ad09 4c61 2711 d928 9aa9 e6c0 ee13
00000390: 152d 0389 90b3 9bb6 462f 0387 afc5 3e38
000003a0: 328c 7c96 a6b1 47b8 9a5e 2e95 679e e412
000003b0: 409c 8d2f c548 f931 c1ec 2f36 6dd9 b3b3
000003c0: ffea 8f8a ea2e e38f 3e0e 628c 423b d9b0
000003d0: f188 a635 2617 0b0a 1840 770e 1c56 4012
000003e0: d34f 7c13 9c4c 9f31 91e8 6991 3632 01b2
000003f0: 8107 d9b6 f897 8cb3 a724 c4b1 616f 2b1e

conv1.bias f4 [256]
0.013528071 0.011650611 -0.023743674 -0.008829604 0.02537005 0.02487498 -0.02435574 0.0023303328
-0.017672626 -0.027806701 -0.0050412803 -0.002291932 0.010470513 -0.0048295115 -0.018482573 0.03232014
0.023387462 -0.0059121046 0.006154704 -0.003286492 0.012905655 0.018498957 0.04676717 -0.02554141
0.026625635 0.024549166 0.017136822 0.008589637 -0.00045725345 -0.01109251 -0.002030271 0.007870611
0.04022507 0.0052038403 -0.00017443084 -0.009089018 0.00081908563 -0.0071480963 0.015879216 1.9443453e-06
-0.019013364 -0.012462388 -0.0003653144 -0.0040492024 -0.012204374 -0.025172764 -0.0125463735 -0.02905112
0.011956204 -0.035206154 -0.005413833 0.007610082 0.026795438 -0.0066511435 -0.022507543 -0.008914292
0.0077769724 -0.0062197396 0.0030444502 0.025901398 -0.0079534175 -0.0098899035 0.008475921 0.01713188
0.003395901 0.0011542207 -0.043046642 0.0036962286 -0.004809439 0.017815156 0.023430705 -0.011938281
-0.019676428 0.0029282481 0.023956073 0.0043262094 0.024635801 0.004107722 -0.026234826 0.019042086
-0.016270658 0.006544816 0.018586447 0.003472096 -0.019502463 0.0021917687 0.0110474685 -0.001230941
-0.007026223 -0.026952988 -0.018966306 -0.0030097775 0.0051943376 -0.0074698697 0.022728946 -0.0318674
-0.016226362 -0.009832519 0.0043020644 -0.015486178 0.008204033 0.027697952 0.03731393 0.004477141
0.01039335 0.0045996443 0.033726875 -0.0148229 0.033131793 0.0043458906 -0.0011957271 0.025504842
-0.024950014 0.0099458685 -0.007738089 0.020336112 0.0018165851 -0.027174858 -0.00030248787 0.0075586396
0.0061324392 -0.011507459 -0.011624602 0.011558819 -0.00419278 -0.00315929 -0.021810248 0.0026343665
0.012799787 0.039506912 -0.005609804 0.007965224 0.0018638584 -0.020342568 -0.0023590736 0.0021814255
-0.0029367725 -0.0014431045 -0.0165492 -0.008278908 -0.014786259 0.007809818 0.026745839 -0.0008998553
0.0069518597 -0.014075883 0.0077090138 -0.0053797048 0.01252758 -0.028833134 -0.011667083 0.0017047961
0.013506435 0.010873918 -0.017332207 -0.015232602 0.007608033 0.011351847 -0.0061376584 0.009033116
0.0025126908 -0.011104796 -0.008454543 0.008958921 -0.003180917 -0.005534029 -0.030568216 0.017878983
-0.013482582 -0.02435047 0.00053996465 0.009354007 0.012058485 0.03266149 -0.012103862 -0.026460532
0.009860925 -0.00044742858 -0.019235555 0.020820668 -0.0061381524 -0.009118154 0.0065481816 -0.0037004352
-0.009327231 -0.014519468 0.012073838 -0.010823508 -0.004350298 0.012379041 -0.0016286388 -0.008412413
-0.012680086 0.002475079 -0.0029877955 -0.005136964 0.014131351 -0.0013147605 0.0114125125 0.01085862
0.0010374279 0.00395974 -0.0016764101 -0.013843543 0.0033561003 -0.008213158 -0.0048002084 0.03434658
0.009574429 0.01826763 0.0055145877 0.011985063 0.011650919 -0.0062057395 0.0022813997 -0.006162968
0.029554054 0.0019844843 -0.012187069 0.0037899564 -0.011028664 0.012379788 0.022892613 0.009043918
-0.023793627 -0.020561216 -0.014239639 0.010793744 -0.0054278076 0.0019187613 -0.0019754376 -0.00736963
0.020193413 0.0007832643 0.018472098 -0.019906294 -0.004190354 -0.0019734774 0.013887127 -0.0010769317
0.006172987 -0.006706314 0.018309062 -0.0044547664 -0.013587317 0.020551048 0.026734667 0.0025876577
-0.00242844 0.02914515 0.021164201 0.018835228 -0.020101307 0.014006321 -0.013231902 -0.0004495519
00000000: d8a4 5d3c 34e2 3e3c 1882 c2bc 0baa 10bc
00000010: dad4 cf3c 9dc6 cb3c b085 c7bc 7fb8 183b
00000020: 2fc6 90bc e1ca e3bc 5331 a5bb 3d34 16bb
00000030: 848c 2b3c e140 9ebb c468 97bc 2062 043d
00000040: 1097 bf3c 54ba c1bb 66ad c93b 3062 57bb
00000050: 3e72 533c 208b 973c ef8e 3f3d 383c d1bc
00000060: 011e da3c 551b c93c 8562 8c3c 8cbb 0c3c
00000070: 85bb efb9 5cbd 35bc 4c0e 05bb bcf3 003c
00000080: 0bc3 243d fa84 aa3b 6ce7 36b9 1bea 14bc
00000090: e8b7 563a 943a eabb 2115 823c 997b 0236
000000a0: eac1 9bbc 0b2f 4cbc ab87 bfb9 2caf 84bb
000000b0: dbf4 47bc 1d37 cebc 4e8f 4dbc 9dfc edbc
000000c0: f4e3 433c 5434 10bd 8666 b1bb ff5d f93b
000000d0: 1b82 db3c d6f1 d9bb bd61 b8bc 400d 12bc
000000e0: f9d5 fe3b f5ce cbbb 6685 473b 2b2f d43c
000000f0: 0d4f 02bc 4309 22bc 97de 0a3c 2858 8c3c
00000100: c48d 5e3b 3849 973a ad51 30bd 6d3c 723b
00000110: 8098 9dbb 17f1 913c c0f1 bf3c c898 43bc
00000120: 7630 a1bc dae7 3f3b 873f c43c e0c2 8d3b
00000130: 05d1 c93c 129a 863b 6bea d6bc 26fe 9b3c
00000140: 0b4a 85bc e575 d63b 9b42 983c 1b8c 633b
00000150: a1c3 9fbc c7a3 0f3b 7100 353c 8757 a1ba
00000160: 3b3c e6bb 83cc dcbc 3a5f 9bbc b03f 45bb
00000170: 4335 aa3b cfc5 f4bb 0e32 ba3c 6487 02bd
00000180: 26ed 84bc 9318 21bc 55f8 8c3b bdb9 7dbc
00000190: 356a 063c d1e6 e23c 7ed6 183d fbb4 923b
000001a0: df48 2a3c 9db8 963b 3125 0a3d c0db 72bc
000001b0: 34b5 073d f967 8e3b f2b9 9cba 88ef d03c
000001c0: f963 ccbc fff3 223c cc8f fdbb eb97 a63c
000001d0: 7b1a ee3a cf9d debc 3c97 9eb9 77ae f73b
000001e0: a1f2 c83b c889 3cbc 1d75 3ebc 3361 3d3c
000001f0: 9663 89bb 170c 4fbb 68ab b2bc 56a5 2c3b
00000200: 33b6 513c 00d2 213d 72d2 b7bb 9280 023c
00000210: b64c f43a 75a5 a6bc b09a 1abb 3ff6 0e3b
00000220: de76 40bb 8d26 bdba 3092 87bc 42a4 07bc
00000230: 1142 72bc 80e9 ff3b 171a db3c 44e4 6bba
00000240: 6dcc e33b 889e 66bc e59b fc3b 3c48 b0bb
00000250: 7b40 4d3c 7733 ecbc 4b27 3fbc 7773 df3a
00000260: 184a 5d3c 8528 323c 46fc 8dbc 2a92 79bc
00000270: ce4c f93b 19fd 393c 691e c9bb a2ff 133c
00000280: f5ab 243b e4f0 35bc ec84 0abc 70c8 123c
00000290: ee76 50bb cd56 b5bb 326a fabc f276 923c
000002a0: 0ce6 5cbc a37a c7bc 6a8c 0d3a 8d41 193c
000002b0: f490 453c 0ec8 053d 474f 46bc c2c3 d8bc
000002c0: b88f 213c d994 eab9 e293 9dbc 1b90 aa3c
000002d0: 8e22 c9bb 4f64 15bc 2192 d63b 0083 72bb
000002e0: 3ed1 18bc 10e3 6dbc 59d1 453c 1555 31bc
000002f0: f28c 8ebb 76d1 4a3c 0d78 d5ba 38d4 09bc
00000300: 23c0 4fbc ef34 223b e4ce 43bb fa53 a8bb
00000310: 2f87 673c 0b54 acba 8cfb 3a3c 5ae8 313c
00000320: 4efa 873a b5c0 813b fdba dbba 07d0 62bc
00000330: 05f2 5b3b 7b90 06bc 114b 9dbb 00af 0c3d
00000340: 11de 1c3c ffa5 953c b7b3 b43b ff5c 443c
00000350: 7fe3 3e3c 8459 cbbb 8983 153b b9f2 c9bb
00000360: 581b f23c 1f0e 023b 46ac 47bc eb60 783b
00000370: 92b1 34bc 98d4 4a3c 4a89 bb3c f12c 143c
00000380: daea c2bc ff6f a8bc 604d 69bc 3ed8 303c
00000390: c0db b1bb f27e fb3a 5876 01bb f07c f1bb
000003a0: a86c a53c fa53 4d3a cc52 973c 8612 a3bc
000003b0: 3d4f 89bb 7555 01bb d586 633c d527 8dba
000003c0: c546 ca3b a4c0 dbbb e3fc 953c 4af9 91bb
000003d0: 579d 5ebc ac5a a83c a902 db3c b195 293b
000003e0: 7626 1fbb cfc1 ee3c 8c60 ad3c 564c 9a3c
000003f0: 7fab a4bc c57a 653c 9fca 58bc d6b1 ebb9

conv1.lin_src.weight f4 [256, 256]
0.050521072 -0.0026549855 -0.027395241 0.029838568 0.016304044 -0.00089547486 -0.015394011 0.0010989358
0.018193865 0.0022228947 -0.041660428 0.0113588255 0.0022964603 -0.003551905 0.007743609 -0.0018313214
0.011572193 -0.0057885563 0.009215147 -0.017786782 -0.0017805258 -0.009189172 -0.0063510826 0.0067322394
0.025470363 2.7398059e-05 0.020058272 -0.023571715 0.0034864882 -0.00055072544 0.019514002 0.020732034
-0.0014917708 -0.018068802 0.013070872 -0.0011372658 0.004540209 -0.014866596 0.0022533862 0.008511166
0.0010646506 0.004314771 -0.009421439 0.02802326 0.011613895 -0.0025760825 -0.008200843 -0.009055074
0.021024374 -0.017308654 0.004734282 0.03738018 0.0150346765 0.034086395 -0.0020645843 0.0009653518
-0.008975473 -0.0019768383 -0.03364532 -0.018252995 -0.010135682 0.020753393 -0.009803762 0.014758136
0.004942005 0.04218709 -0.041652303 0.0023708325 -0.004636534 -0.020965206 0.012660853 -0.0029446965
-0.019599644 -0.019103877 0.010970909 0.006004297 0.019377718 0.021942979 0.01182691 0.029797086
0.010717889 0.00030826655 0.006175907 -0.041702952 0.0023434428 0.0020825907 -0.0090839425 0.00025352955
0.0013961041 -0.0021221999 -0.022336107 0.007014055 0.026934678 -0.009822475 0.004975963 0.013606148
0.007192737 0.00050518825 0.012484573 0.01913452 0.007299856 -0.0024497707 -0.020635849 0.017686393
0.024968501 -0.016314374 0.01746894 0.026928782 0.019649534 -0.019474389 0.0033008202 0.0026018606
-0.012464426 0.020209769 -0.0051297112 0.021404292 -0.018061815 -0.0057981783 -0.0086996555 0.004991572
-0.014397057 -0.002985317 0.010244606 0.012966386 -0.0008270727 -0.013828715 -0.028497366 -0.008036634
-0.024656376 -0.003858381 0.0025301327 -0.013276884 -0.023670848 0.011885999 -0.005899111 0.016907332
-0.010522273 0.04260545 0.00036861582 0.032845527 0.014693779 0.032921433 -0.0032070836 -0.036524314
-0.01764026 0.00776563 -0.014693469 0.0040414 0.011227179 -0.0049807243 -0.009411334 -0.0092993425
0.013035667 -0.0084971115 0.0015192975 -0.00073627045 0.020746937 -0.002866009 0.006136966 -0.013749915
-0.013072023 0.013577975 0.017800182 0.0132589415 0.01598394 -0.006643525 0.0019298245 0.0048448746
-0.00089033006 -0.009781402 0.041088324 -0.0122692045 0.013712906 0.0012313464 -0.009453215 0.00835491
0.021576827 -0.020372877 0.008826588 0.0001240439 -0.004729911 -0.027237426 -0.017600134 -0.0019754511
-0.0034963454 -0.020064272 -0.012009491 -0.012786967 0.015278832 -0.004445007 0.017022414 0.014775285
-0.012334789 -0.026148368 0.026652167 0.031921234 -0.013273153 -0.015945625 0.015408655 0.019314358
-0.002121929 -0.0023565176 0.023273703 -0.007069461 -0.015777757 0.01023455 -0.015194548 0.020086773
0.02345294 -0.011044973 0.020118635 -0.002846522 0.006692347 0.002734681 -0.0026945556 -0.013704981
0.022649169 0.019132622 0.0029563196 0.0121759055 -0.016944764 -0.0037416501 -0.005010086 -0.020746872
-0.006323304 0.0049197334 0.0056893765 -0.00814111 0.0016765834 -0.01099764 -0.0050851717 -0.0016114824
0.006303445 0.009482247 -0.019637467 -0.0128987525 0.0037771403 0.0055819214 -0.017208003 0.03043592
-0.003556892 0.01769065 0.0066691334 0.02598995 0.01584476 0.022979444 0.014802464 0.0049409783
0.02425729 0.026115257 0.002233873 -0.03463065 0.011688353 -0.001162079 -0.018618658 -0.003670271
00000000: 2fef 4e3d 44ff 2dbb fc6b e0bc 0370 f43c
00000010: 0f90 853c 4dbe 6aba 2937 7cbc 2b0a 903a
00000020: 4d0b 953c fcad 113b 20a4 2abd 5e1a 3a3c
00000030: 3680 163b 14c7 68bb 1abe fd3b f308 f0ba
00000040: 4c99 3d3c eead bdbb 21fb 163c 96b5 91bc
00000050: 8860 e9ba 2e8e 16bc be1c d0bb 1e9a dc3b
00000060: 39a7 d03c e2d4 e537 3f51 a43c 7819 c1bc
00000070: 917d 643b 8f5e 10ba d4db 9f3c 3ad6 a93c
00000080: 8687 c3ba 0605 94bc 3627 563c 4f10 95ba
00000090: 09c6 943b 0693 73bc 8cad 133b 6b72 0b3c
000000a0: bf8b 8b3a ec62 8d3b 615c 1abc 0991 e53c
000000b0: 3548 3e3c 7ed3 28bb d45c 06bc bc5b 14bc
000000c0: 4f3b ac3c e1ca 8dbc 0922 9b3b f61b 193d
000000d0: 0154 763c 2d9e 0b3d fa4d 07bb aa0f 7d3a
000000e0: dd0d 13bc d88d 01bb adcf 09bd 4e87 95bc
000000f0: 2210 26bc 0503 aa3c f59f 20bc 1ccc 713c
00000100: 8bf0 a13b 5fcc 2c3d 9b9b 2abd f85f 1b3b
00000110: 11ee 97bb 39bf abbc 776f 4f3c cffb 40bb
00000120: 6f8f a0bc bc7f 9cbc 54bf 333c b2bf c43b
00000130: 05be 9e3c c3c1 b33c a8c5 413c 0519 f43c
00000140: 169a 2f3c d69e a139 435f ca3b b7d0 2abd
00000150: 7294 193b 137c 083b d1d4 14bc 29ec 8439
00000160: 7bfd b63a 9b14 0bbb 36fa b6bc 28d6 e53b
00000170: 1da6 dc3c 72ee 20bc 670d a33b 52ec 5e3c
00000180: 0db1 eb3b 9c6e 043a 188c 4c3c ffbf 9c3c
00000190: a133 ef3b 558c 20bb 830c a9bc 0ee3 903c
000001a0: be8a cc3c b9a5 85bc 061b 8f3c c099 dc3c
000001b0: 0ff8 a03c c188 9fbc 9352 583b fa83 2a3b
000001c0: 9837 4cbc f58e a53c 2317 a8bb 0e58 af3c
000001d0: 5ff6 93bc a5fe bdbb 0089 0ebc 5790 a33b
000001e0: a2e1 6bbc 4fa5 43bb fed8 273c f770 543c
000001f0: e9cf 58ba d691 62bc 4f73 e9bc 16ac 03bc
00000200: 2bfc c9bc e4dc 7cbb 95d0 253b 4a87 59bc
00000210: 5ee9 c1bc 7ebd 423c 544d c1bb 3f81 8a3c
00000220: 9d65 2cbc 0d83 2e3d c742 c139 0889 063d
00000230: 2dbe 703c a0d8 063d ef2d 52bb 859a 15bd
00000240: 4e82 90bc d376 fe3b e0bc 70bc b86d 843b
00000250: 34f2 373c 5835 a3bb ff31 1abc 455c 18bc
00000260: 8d93 553c 7837 0bbc 2a23 c73a 4602 41ba
00000270: 7bf5 a93c a7d3 3bbb 9a18 c93b 5347 61bc
00000280: 0a2c 56bc 2876 5e3c b0d1 913c 083c 593c
00000290: c0f0 823c edb1 d9bb 2af2 fc3a c1c1 9e3b
000002a0: 0a65 69ba 2c42 20bc 3b4c 283d c604 49bc
000002b0: 19ac 603c 2165 a13a a8e1 1abc 08e3 083c
000002c0: e3c1 b03c 05e5 a6bc 659d 103c c811 0239
000002d0: 5ffd 9abb 0621 dfbc 282e 90bc 9276 01bb
000002e0: f122 65bb d45d a4bc 75c3 44bc 6d80 51bc
000002f0: 1154 7a3c 6ca7 91bb 9772 8b3c 0914 723c
00000300: db17 4abc 1a35 d6bc a555 da3c d7bf 023d
00000310: a477 59bc 66a0 82bc 9574 7c3c 2539 9e3c
00000320: 1010 0bbb ce6f 1abb 7ea8 be3c f0a6 e7bb
00000330: 5b40 81bc d0ae 273c 8ef2 78bc 048d a43c
00000340: 6120 c03c f9f5 34bc d6cf a43c b78c 3abb
00000350: 7a4b db3b 5538 333b 2497 30bb db8a 60bc
00000360: c08a b93c 04bc 9c3c d0be 413b 737d 473c
00000370: bfcf 8abc 7936 75bb a62b a4bb 58f5 a9bc
00000380: b833 cfbb b735 a13b f36d ba3b 4a62 05bc
00000390: cec0 db3a 722f 34bc 83a1 a6bb 6038 d3ba
000003a0: 218d ce3b 6d5b 1b3c c1de a0bc 4a55 53bc
000003b0: e689 773b 8de8 b63b ccf7 8cbc c054 f93c
000003c0: bf1a 69bb fbeb 903c bf88 da3b e0e8 d43c
000003d0: dfcc 813c 633f bc3c 0986 723c eee7 a13b
000003e0: 39b7 c63c aaef d53c 2b66 123b ded8 0dbd
000003f0: 8180 3f3c e750 98ba 2886 98bc ee88 70bb

conv1.lin_dst.weight f4 [256, 256]
0.050521072 -0.0026549855 -0.027395241 0.029838568 0.016304044 -0.00089547486 -0.015394011 0.0010989358
0.018193865 0.0022228947 -0.041660428 0.0113588255 0.0022964603 -0.003551905 0.007743609 -0.0018313214
0.011572193 -0.0057885563 0.009215147 -0.017786782 -0.0017805258 -0.009189172 -0.0063510826 0.0067322394
0.025470363 2.7398059e-05 0.020058272 -0.023571715 0.0034864882 -0.00055072544 0.019514002 0.020732034
-0.0014917708 -0.018068802 0.013070872 -0.0011372658 0.004540209 -0.014866596 0.0022533862 0.008511166
0.0010646506 0.004314771 -0.009421439 0.02802326 0.011613895 -0.0025760825 -0.008200843 -0.009055074
0.021024374 -0.017308654 0.004734282 0.03738018 0.0150346765 0.034086395 -0.0020645843 0.0009653518
-0.008975473 -0.0019768383 -0.03364532 -0.018252995 -0.010135682 0.020753393 -0.009803762 0.014758136
0.004942005 0.04218709 -0.041652303 0.0023708325 -0.004636534 -0.020965206 0.012660853 -0.0029446965
-0.019599644 -0.019103877 0.010970909 0.006004297 0.019377718 0.021942979 0.01182691 0.029797086
0.010717889 0.00030826655 0.006175907 -0.041702952 0.0023434428 0.0020825907 -0.0090839425 0.00025352955
0.0013961041 -0.0021221999 -0.022336107 0.007014055 0.026934678 -0.009822475 0.004975963 0.013606148
0.007192737 0.00050518825 0.012484573 0.01913452 0.007299856 -0.0024497707 -0.020635849 0.017686393
0.024968501 -0.016314374 0.01746894 0.026928782 0.019649534 -0.019474389 0.0033008202 0.0026018606
-0.012464426 0.020209769 -0.0051297112 0.021404292 -0.018061815 -0.0057981783 -0.0086996555 0.004991572
-0.014397057 -0.002985317 0.010244606 0.012966386 -0.0008270727 -0.013828715 -0.028497366 -0.008036634
-0.024656376 -0.003858381 0.0025301327 -0.013276884 -0.023670848 0.011885999 -0.005899111 0.016907332
-0.010522273 0.04260545 0.00036861582 0.032845527 0.014693779 0.032921433 -0.0032070836 -0.036524314
-0.01764026 0.00776563 -0.014693469 0.0040414 0.011227179 -0.0049807243 -0.009411334 -0.0092993425
0.013035667 -0.0084971115 0.0015192975 -0.00073627045 0.020746937 -0.002866009 0.006136966 -0.013749915
-0.013072023 0.013577975 0.017800182 0.0132589415 0.01598394 -0.006643525 0.0019298245 0.0048448746
-0.00089033006 -0.009781402 0.041088324 -0.0122692045 0.013712906 0.0012313464 -0.009453215 0.00835491
0.021576827 -0.020372877 0.008826588 0.0001240439 -0.004729911 -0.027237426 -0.017600134 -0.0019754511
-0.0034963454 -0.020064272 -0.012009491 -0.012786967 0.015278832 -0.004445007 0.017022414 0.014775285
-0.012334789 -0.026148368 0.026652167 0.031921234 -0.013273153 -0.015945625 0.015408655 0.019314358
-0.002121929 -0.0023565176 0.023273703 -0.007069461 -0.015777757 0.01023455 -0.015194548 0.020086773
0.02345294 -0.011044973 0.020118635 -0.002846522 0.006692347 0.002734681 -0.0026945556 -0.013704981
0.022649169 0.019132622 0.0029563196 0.0121759055 -0.016944764 -0.0037416501 -0.005010086 -0.020746872
-0.006323304 0.0049197334 0.0056893765 -0.00814111 0.0016765834 -0.01099764 -0.0050851717 -0.0016114824
0.006303445 0.009482247 -0.019637467 -0.0128987525 0.0037771403 0.0055819214 -0.017208003 0.03043592
-0.003556892 0.01769065 0.0066691334 0.02598995 0.01584476 0.022979444 0.014802464 0.0049409783
0.02425729 0.026115257 0.002233873 -0.03463065 0.011688353 -0.001162079 -0.018618658 -0.003670271
00000000: 2fef 4e3d 44ff 2dbb fc6b e0bc 0370 f43c
00000010: 0f90 853c 4dbe 6aba 2937 7cbc 2b0a 903a
00000020: 4d0b 953c fcad 113b 20a4 2abd 5e1a 3a3c
00000030: 3680 163b 14c7 68bb 1abe fd3b f308 f0ba
00000040: 4c99 3d3c eead bdbb 21fb 163c 96b5 91bc
00000050: 8860 e9ba 2e8e 16bc be1c d0bb 1e9a dc3b
00000060: 39a7 d03c e2d4 e537 3f51 a43c 7819 c1bc
00000070: 917d 643b 8f5e 10ba d4db 9f3c 3ad6 a93c
00000080: 8687 c3ba 0605 94bc 3627 563c 4f10 95ba
00000090: 09c6 943b 0693 73bc 8cad 133b 6b72 0b3c
000000a0: bf8b 8b3a ec62 8d3b 615c 1abc 0991 e53c
000000b0: 3548 3e3c 7ed3 28bb d45c 06bc bc5b 14bc
000000c0: 4f3b ac3c e1ca 8dbc 0922 9b3b f61b 193d
000000d0: 0154 763c 2d9e 0b3d fa4d 07bb aa0f 7d3a
000000e0: dd0d 13bc d88d 01bb adcf 09bd 4e87 95bc
000000f0: 2210 26bc 0503 aa3c f59f 20bc 1ccc 713c
00000100: 8bf0 a13b 5fcc 2c3d 9b9b 2abd f85f 1b3b
00000110: 11ee 97bb 39bf abbc 776f 4f3c cffb 40bb
00000120: 6f8f a0bc bc7f 9cbc 54bf 333c b2bf c43b
00000130: 05be 9e3c c3c1 b33c a8c5 413c 0519 f43c
00000140: 169a 2f3c d69e a139 435f ca3b b7d0 2abd
00000150: 7294 193b 137c 083b d1d4 14bc 29ec 8439
00000160: 7bfd b63a 9b14 0bbb 36fa b6bc 28d6 e53b
00000170: 1da6 dc3c 72ee 20bc 670d a33b 52ec 5e3c
00000180: 0db1 eb3b 9c6e 043a 188c 4c3c ffbf 9c3c
00000190: a133 ef3b 558c 20bb 830c a9bc 0ee3 903c
000001a0: be8a cc3c b9a5 85bc 061b 8f3c c099 dc3c
000001b0: 0ff8 a03c c188 9fbc 9352 583b fa83 2a3b
000001c0: 9837 4cbc f58e a53c 2317 a8bb 0e58 af3c
000001d0: 5ff6 93bc a5fe bdbb 0089 0ebc 5790 a33b
000001e0: a2e1 6bbc 4fa5 43bb fed8 273c f770 543c
000001f0: e9cf 58ba d691 62bc 4f73 e9bc 16ac 03bc
00000200: 2bfc c9bc e4dc 7cbb 95d0 253b 4a87 59bc
00000210: 5ee9 c1bc 7ebd 423c 544d c1bb 3f81 8a3c
00000220: 9d65 2cbc 0d83 2e3d c742 c139 0889 063d
00000230: 2dbe 703c a0d8 063d ef2d 52bb 859a 15bd
00000240: 4e82 90bc d376 fe3b e0bc 70bc b86d 843b
00000250: 34f2 373c 5835 a3bb ff31 1abc 455c 18bc
00000260: 8d93 553c 7837 0bbc 2a23 c73a 4602 41ba
00000270: 7bf5 a93c a7d3 3bbb 9a18 c93b 5347 61bc
00000280: 0a2c 56bc 2876 5e3c b0d1 913c 083c 593c
00000290: c0f0 823c edb1 d9bb 2af2 fc3a c1c1 9e3b
000002a0: 0a65 69ba 2c42 20bc 3b4c 283d c604 49bc
000002b0: 19ac 603c 2165 a13a a8e1 1abc 08e3 083c
000002c0: e3c1 b03c 05e5 a6bc 659d 103c c811 0239
000002d0: 5ffd 9abb 0621 dfbc 282e 90bc 9276 01bb
000002e0: f122 65bb d45d a4bc 75c3 44bc 6d80 51bc
000002f0: 1154 7a3c 6ca7 91bb 9772 8b3c 0914 723c
00000300: db17 4abc 1a35 d6bc a555 da3c d7bf 023d
00000310: a477 59bc 66a0 82bc 9574 7c3c 2539 9e3c
00000320: 1010 0bbb ce6f 1abb 7ea8 be3c f0a6 e7bb
00000330: 5b40 81bc d0ae 273c 8ef2 78bc 048d a43c
00000340: 6120 c03c f9f5 34bc d6cf a43c b78c 3abb
00000350: 7a4b db3b 5538 333b 2497 30bb db8a 60bc
00000360: c08a b93c 04bc 9c3c d0be 413b 737d 473c
00000370: bfcf 8abc 7936 75bb a62b a4bb 58f5 a9bc
00000380: b833 cfbb b735 a13b f36d ba3b 4a62 05bc
00000390: cec0 db3a 722f 34bc 83a1 a6bb 6038 d3ba
000003a0: 218d ce3b 6d5b 1b3c c1de a0bc 4a55 53bc
000003b0: e689 773b 8de8 b63b ccf7 8cbc c054 f93c
000003c0: bf1a 69bb fbeb 903c bf88 da3b e0e8 d43c
000003d0: dfcc 813c 633f bc3c 0986 723c eee7 a13b
000003e0: 39b7 c63c aaef d53c 2b66 123b ded8 0dbd
000003f0: 8180 3f3c e750 98ba 2886 98bc ee88 70bb

conv2.att_src f4 [1, 8, 32]
-2.5279722e-16 -1.2191223e-18 8.032351e-10 4.394228e-09 -9.895489e-26 4.7136796e-06 2.3661e-32 -2.2360154e-33
6.9580697e-06 -3.7360995e-20 -8.9461556e-33 -9.086208e-30 -1.065735e-12 2.1873667e-33 -9.017128e-33 2.3341902e-06
3.3171716e-06 -2.3342472e-09 1.0731559e-16 -1.2164285e-27 1.4462557e-30 4.6870712e-11 8.20315e-08 -2.6980161e-24
3.8741158e-31 -6.182578e-08 5.2055107e-09 -4.0362438e-22 -1.2229208e-05 -2.6798443e-05 -1.7466697e-05 3.353378e-33
-2.9816096e-08 -1.4728253e-26 3.9656133e-08 9.34688e-08 3.1023705e-05 3.4124295e-26 -6.862291e-18 1.4745211e-05
8.66133e-10 8.633433e-08 -2.6823616e-10 -2.0998604e-11 1.6556395e-31 -4.562143e-12 -2.0796244e-07 1.9777988e-06
1.0721203e-19 3.0664832e-27 -4.9765495e-05 -5.448491e-32 -5.6294246e-24 -1.1385068e-05 2.6372043e-05 -1.8917206e-30
1.0264583e-09 6.1087826e-28 4.5353464e-13 1.4264426e-32 -7.4025905e-08 -1.9151066e-05 -4.00576e-06 -1.2984054e-24
3.1798057e-20 3.9465633e-07 -7.2968465e-32 -3.8970003e-07 -1.7494953e-32 1.1981338e-19 3.8964998e-07 -1.09237096e-32
1.7373812e-17 -5.124608e-19 1.093008e-17 3.9686904e-10 2.9202924e-06 -7.789408e-07 4.273303e-07 8.953816e-19
2.7329714e-05 9.551183e-25 1.6648204e-07 5.396984e-13 3.8659397e-23 -2.5257877e-32 7.0935165e-34 3.5650657e-05
-5.2706372e-23 -1.01388783e-22 -1.5136523e-13 -2.5532697e-21 -1.6887853e-16 -1.917714e-05 -6.8883553e-19 -1.1375404e-05
-1.0383548e-32 -3.5368288e-23 -7.998758e-34 8.869074e-12 -6.379928e-19 -3.52165e-32 3.1852032e-32 -1.4877413e-22
-2.8133613e-27 7.753169e-09 4.7884014e-06 9.3638494e-07 1.815158e-05 -3.1590538e-32 3.913685e-33 1.22085264e-32
4.4315004e-31 -5.0956023e-06 -3.9277623e-31 1.0403164e-08 2.4829305e-08 3.310944e-32 -2.6874082e-20 -5.9598907e-24
-2.8842283e-08 2.1665961e-12 9.243139e-07 5.857408e-29 -1.8749001e-10 -1.5503343e-30 2.5745118e-07 -1.2015605e-32
-1.959091e-05 3.556549e-05 -3.100544e-08 -1.479017e-26 -3.2099101e-15 3.505709e-33 -7.806925e-06 1.877827e-10
-3.764318e-05 7.949065e-09 8.349596e-34 2.6815394e-29 3.7150646e-31 -1.9184165e-07 -9.61869e-13 3.640684e-33
-1.5409739e-06 4.1690834e-26 3.282313e-06 -8.46031e-06 7.6306115e-26 -4.525454e-12 8.875697e-17 1.9326873e-07
8.936302e-31 -2.680284e-10 -2.886226e-20 1.0898006e-32 -5.7071055e-20 -4.391644e-12 9.414808e-13 2.658597e-05
4.171668e-33 2.243238e-27 -7.6543137e-07 -8.618658e-10 8.532052e-09 -3.6166227e-20 -5.667777e-08 2.2395816e-05
2.102721e-12 -5.0476285e-09 -6.6732325e-27 -5.896447e-09 -6.9690764e-10 3.658909e-30 5.060665e-08 6.877545e-25
-7.2888544e-09 4.2314e-14 4.6706477e-31 -3.505563e-23 1.3227007e-20 1.358193e-32 -5.2567366e-08 -3.4376925e-27
1.2400399e-07 -5.7789553e-08 9.74046e-07 -2.352438e-12 5.8989247e-07 4.168422e-25 -1.9457798e-30 -2.1565436e-31
-1.2282287e-33 2.4271932e-20 6.369009e-33 -1.9162012e-21 -9.402693e-32 3.770394e-24 -1.8018036e-33 -3.0140764e-24
1.0014865e-31 -5.5885796e-10 -5.1523325e-26 1.8994887e-32 -2.0847324e-06 -6.3042056e-34 -6.382688e-31 1.619078e-19
1.77956e-11 -5.788367e-08 -4.988948e-06 1.5743201e-09 1.0498357e-09 1.9989126e-05 9.9376116e-33 6.357277e-22
-1.9803693e-22 -9.798434e-33 -4.52467e-06 -4.7440694e-06 1.6617059e-06 9.029812e-33 2.2784566e-32 1.7598175e-25
-7.943309e-12 -1.6276874e-05 1.980015e-05 -1.1858094e-08 -4.6472825e-32 -1.1227441e-21 3.28678e-05 4.7701363e-08
7.323055e-34 4.4669568e-33 -1.4591925e-10 1.487523e-24 -7.3939947e-09 -1.2775257e-26 -1.0401152e-06 2.1412015e-29
-9.732183e-33 2.2395696e-05 1.2855249e-05 3.8679773e-21 1.9910845e-31 -3.3047511e-22 2.0456303e-09 -2.8829985e-33
7.156107e-24 3.4883575e-11 1.283953e-16 -7.0787935e-19 1.9538244e-32 -1.0192931e-25 -5.3070207e-17 1.012649e-32
00000000: 49ba 91a5 23e9 b3a1 a5ca 5c30 0afc 9631
00000010: 1d00 f595 332a 9e36 bab5 f50a cac2 3989
00000020: 5d79 e936 ac6e 309f eccd 398a 4a4a 388f
00000030: 26fd 95ab 25b8 3509 4747 3b8a 15a5 1c36
00000040: 939c 5e36 8368 20b1 f173 f724 34c0 c092
00000050: 1dab ea0d bb23 4e2e 4b29 b033 b7bf 5098
00000060: ca71 fb0c 15c5 84b3 28dc b231 d9f9 f39b
00000070: 0c2c 4db7 38cd e0b7 7285 92b7 3b4b 8b09
00000080: 250f 00b3 8fdc 9194 6152 2a33 04b9 c833
00000090: 731f 0238 aff9 2815 822c fda2 3362 7737
000000a0: b114 6e30 cd66 b933 e276 93af a7b4 b8ad
000000b0: 0fea 560c 2284 a0ac 484c 5fb4 53ba 0436
000000c0: b225 fd1f abf3 7213 4bbb 50b8 6f73 8d8b
000000d0: 1fc7 d998 7f02 3fb7 8839 dd37 8079 198e
000000e0: 4a13 8d30 5598 4112 3b51 ff2a 5921 940a
000000f0: 2cf8 9eb3 9aa6 a0b7 3769 86b6 23eb c897
00000100: 7e29 161f 27e1 d334 dd6f bd8b f737 d1b4
00000110: 90ad b58a 5f73 0d20 1631 d134 67e0 628a
00000120: c13e a023 7140 17a1 d89f 4923 5a2e da2f
00000130: 3efa 4336 6718 51b5 d46b e534 8f22 8421
00000140: 1d42 e537 22cc 9317 3cc2 3234 5ee9 172b
00000150: 04f2 3a1a 7a25 038b f7b8 6b08 9a87 1538
00000160: 54df 7e9a 9e24 f59a 0f6c 2aaa 6beb 409d
00000170: 25b4 42a5 98de a0b7 f14e 4ba1 fdd8 3eb7
00000180: 69a8 578a d207 2b9a f4e6 8488 c206 1c2d
00000190: 5f4d 3ca1 c2da 368b 9d62 250b 5ddb 339b
000001a0: bfe5 5e93 cc32 0532 0eac a036 e25b 7b35
000001b0: 3944 9837 0707 248b 7091 a209 a98f 7d0a
000001c0: 77cf 0f0d e4fa aab6 25ed fe8c 99b9 3232
000001d0: 3848 d532 ffe9 2b0b 8bd1 fd9e e68f e698
000001e0: dac0 f7b2 ed75 182c 5e1e 7835 c080 9410
000001f0: bf25 4eaf 5e8e fb8d d237 8a34 ea8d 798a
00000200: 2957 a4b7 272c 1538 d82a 05b3 8979 9294
00000210: 644c 67a7 189f 9109 7dfa 02b7 2278 4e2f
00000220: 0fe3 1db8 5c90 0832 41bb 8a08 5ff8 0710
00000230: 191f f10c 08fd 4db4 fc5e 87ab 653a 9709
00000240: 76d3 ceb5 6971 4e15 b545 5c36 c1f0 0db7
00000250: bfec bc15 aa39 9fac dea8 cc24 4e85 4f34
00000260: f2ff 900d a559 93af 554c 089f bd57 620a
00000270: 56c1 869f 6a84 9aac 6c80 842b f004 df37
00000280: c848 ad09 46ba 3113 0b78 4db5 6ae8 6cb0
00000290: 5d94 1232 49ca 2a9f de6d 73b3 a6de bb37
000002a0: 41f7 132c 696f adb1 4f2d 0494 b299 cab1
000002b0: 8490 3fb0 496c 940e 9a5a 5933 86d9 5417
000002c0: 7171 fab1 b890 3e29 3992 170d c584 299a
000002d0: e2d9 791e f70a 8d0a 6ec6 61b3 582e 8893
000002e0: f525 0534 4934 78b3 f7bb 8235 c189 25ac
000002f0: 1a59 1e35 a401 0117 44dc 1d8e baf7 8b8c
00000300: 1213 cc88 ee3d e51e 7647 040a b9c8 109d
00000310: 9d1b f48b 2cdc 9118 20b0 1589 ef33 6998
00000320: 1900 020c 229e 19b0 9321 7f95 1241 c50a
00000330: 6ee7 0bb6 407e 5188 4c21 4f8d a125 3f20
00000340: 2188 9c2d c59b 78b3 bd66 a7b6 775f d830
00000350: cf49 9030 52ae a737 6865 4e0a 0c23 401c
00000360: 7669 6f9b 6981 4b8a 9fd2 97b6 3f2f 9fb6
00000370: c807 df35 b78a 3b0a c49b ec0a d8da 5916
00000380: 7cbd 0bad 528a 88b7 8018 a637 73b8 4bb2
00000390: fb4c 718b 0faa a99c 88db 0938 34e0 4c33
000003a0: aa59 7308 d58c b909 9e70 20af db2e e617
000003b0: 440e feb1 400a 7d94 169a 8bb5 c524 d90f
000003c0: 2921 4a8a 64de bb37 e0ac 5737 c820 921d
000003d0: 913a 810c 8cc2 c79b 1c93 0c31 9982 6f89
000003e0: 536b 0a19 6a6b 192e 9b07 1425 daed 50a1
000003f0: 90e5 ca0a 605d fc95 3ebe 74a4 a851 520a

conv2.att_dst f4 [1, 8, 32]
1.3605928e-25 -1.8634932e-27 -4.3488484e-15 -3.4127334e-23 -3.3156444e-05 -1.0660631e-12 4.3059866e-32 -8.480422e-08
-3.4058165e-10 1.4727799e-16 1.1077727e-23 -6.796171e-31 -1.970751e-05 4.824063e-10 -2.2874886e-08 -8.9178706e-24
3.456217e-10 -1.1339925e-05 6.292653e-20 -3.925731e-06 -1.3429299e-07 9.6131835e-06 6.944165e-08 1.2815239e-26
-3.129704e-11 -1.0384933e-06 2.4787465e-07 4.2934718e-33 -2.4416334e-08 5.9214204e-07 -7.771801e-08 -9.926834e-25
-3.9370475e-06 -3.333159e-32 -1.6277734e-06 4.1103507e-07 3.221139e-31 -1.0656998e-18 2.651591e-06 3.998584e-21
-1.05731465e-33 3.7768073e-06 6.250848e-16 -2.9637302e-05 -6.228215e-06 2.4920495e-05 -1.7736649e-31 -1.0643906e-27
4.3613873e-32 5.752469e-07 8.611412e-08 -6.649023e-17 -3.9097273e-33 5.947779e-14 -5.9670417e-27 -1.6539347e-31
1.3107631e-08 2.1484425e-06 1.0091913e-14 -1.4774585e-29 -6.596453e-20 -7.7492034e-31 7.386511e-33 -1.859589e-32
6.8848095e-07 5.323013e-20 1.4113377e-18 1.0510211e-20 -1.5683687e-32 1.0843181e-06 6.7161402e-12 -7.108077e-33
6.1964994e-10 -5.1080806e-05 -8.772084e-27 1.5595568e-21 9.257595e-06 -4.940696e-16 7.8296064e-29 -1.7162187e-32
-3.303273e-31 -1.1155637e-24 2.2684207e-33 4.8293047e-20 1.01732755e-32 -8.595748e-06 3.2658385e-29 -5.8471045e-31
6.0625703e-31 -3.185762e-05 -1.3912833e-26 1.6933279e-12 5.4996233e-14 -2.5054836e-05 4.77333e-33 1.0734705e-09
1.1404605e-28 -3.8050452e-10 -4.2224192e-32 -5.1645555e-25 -2.5894392e-33 3.061994e-33 -7.0859164e-32 2.444075e-15
-2.7358998e-05 -2.3174439e-26 3.0229364e-13 -1.431832e-06 1.2986321e-05 -8.346968e-30 8.12692e-28 1.4061385e-09
-1.2479026e-25 -3.775158e-29 1.5843082e-07 -1.3966666e-29 -1.657304e-07 -1.6307215e-08 -9.211759e-06 -2.5525594e-06
5.0440774e-15 5.0863964e-27 7.107734e-22 -1.7363985e-11 3.1274525e-09 -1.7661492e-05 6.2875915e-06 4.1872954e-07
-3.6967235e-21 -7.79409e-33 2.541898e-06 7.769209e-24 -1.848597e-16 -3.8345614e-23 -7.1418112e-06 7.790515e-08
-4.000523e-21 -4.668178e-27 -8.853377e-33 1.3930817e-05 -1.2441591e-10 5.3540933e-08 1.0330211e-05 -6.542562e-33
-1.3629915e-31 3.7956443e-07 9.580631e-33 6.770093e-35 -2.9695845e-23 2.856481e-21 -1.2863408e-32 -4.6020355e-06
-4.55497e-33 1.1619155e-31 -5.543764e-07 -3.1592348e-12 2.795796e-24 -9.668384e-34 -2.1640567e-06 3.1669816e-07
-4.589924e-06 7.404833e-33 8.2538065e-10 9.206941e-32 -1.2451686e-26 -2.3592468e-32 -4.1553444e-06 -3.4266472e-09
1.9883416e-34 -2.2091694e-05 1.8219414e-05 -4.4600372e-11 1.1857107e-07 -3.2448576e-31 2.7365406e-32 8.6621077e-17
-2.98521e-32 -1.7721346e-18 -7.939108e-17 -4.1685107e-32 -5.755241e-09 2.3130555e-27 -6.194154e-23 -1.0037995e-05
-3.8506837e-33 6.049312e-33 2.6310943e-07 1.6518147e-16 -2.3014058e-05 -7.794619e-09 -2.0832348e-07 6.604157e-34
3.8965894e-07 1.5054844e-21 -1.1054092e-32 5.7293974e-27 3.01151e-10 2.5847476e-06 3.4978286e-32 -8.487553e-34
-7.8563045e-11 5.4370618e-33 4.1303392e-05 -3.9397815e-23 -1.3394555e-06 -3.3166508e-32 -9.4954254e-07 -6.1333716e-09
-2.8141095e-31 -3.0132892e-27 -6.179837e-33 -1.7456548e-05 3.9086488e-33 1.6405819e-32 6.2802673e-20 6.9925567e-12
-3.3686788e-12 4.8963004e-25 -1.34763495e-05 1.3542403e-27 8.3176604e-07 -5.4624985e-07 9.544569e-29 1.2151919e-14
1.8523403e-34 5.99275e-08 -2.1369932e-24 3.86942e-33 2.21811e-08 3.641998e-06 4.0168414e-20 4.8314875e-34
-5.6609675e-27 -1.121708e-18 1.6595194e-34 -2.928437e-11 -9.327704e-32 3.2711894e-28 1.4340142e-05 -1.787816e-29
-4.4203787e-14 -7.387726e-09 1.4549738e-09 -1.3742449e-09 1.2796133e-29 1.2627186e-17 -4.983683e-32 2.3975767e-06
-3.390557e-22 5.590551e-28 3.3522767e-05 2.6877965e-33 -3.412019e-06 7.5334964e-22 6.847407e-08 1.9811056e-32
00000000: e86e 2816 22a4 1393 0caf 9ca7 9807 259a
00000010: 7611 0bb8 f908 96ab 6194 5f0b 9d1d b6b3
00000020: 9b3c bbaf cacc 2925 3f46 5619 618c 5c8d
00000030: 8e51 a5b7 539a 0430 687e c4b2 287f 2c99
00000040: ee01 be2f 9b40 3eb7 c194 941f c6b9 83b6
00000050: 2d32 10b4 4f48 2137 f31f 9533 fbd4 7d14
00000060: 56a5 09ae 5c62 8bb5 a213 8534 0658 b209
00000070: 16bc d1b2 b1f3 1e35 eee5 a6b3 3e9c 9997
00000080: fb1a 84b6 4811 2d8b de79 dab5 3bac dc34
00000090: 5a10 d10c 0045 9da1 fdf1 3136 ee0f 971d
000000a0: 31ad af88 0e75 7d36 1e2b 3426 9f9d f8b7
000000b0: f6fb d0b6 5b0c d137 203c 668c d0a8 a892
000000c0: c874 620b aa6a 1a35 bded b833 e750 99a4
000000d0: 5a67 a289 9dee 8529 fe60 ec93 68b1 568c
000000e0: f92f 6132 f62d 1036 bccc 3528 04d5 958f
000000f0: 1dc1 9b9f dd79 7b8d 6e69 190a 5b1c c18a
00000100: 0dd0 3835 475f 7b1f d546 d021 4388 461e
00000110: 64de a28a e388 9135 9d4d ec2c 05a1 138a
00000120: fd53 2a30 993f 56b8 c0bf 2d94 6eac eb1c
00000130: 1151 1b37 e767 0ea6 0d81 c610 eb38 b28a
00000140: 0965 d68c 08a0 ac97 f973 3c09 b60e 641f
00000150: 694a 530a 7536 10b7 0299 2510 d8bf 3d8d
00000160: ddbd 440d dc9e 05b8 39c9 8994 9150 ee2b
00000170: 57ae 7729 da2c d2b7 c046 c609 6389 9330
00000180: 0f92 1011 402f d1af 943d 5b8b d3d5 1f97
00000190: 481f 5789 6961 7e09 fef5 b78b 3a1d 3027
000001a0: 0081 e5b7 2f82 e594 1b2d aa2a 5f2d c0b5
000001b0: d3df 5937 f04b 298f b4c6 8012 1a42 c130
000001c0: 9d7b 1a96 5a6c 3f90 221d 2a34 8aa3 8d8f
000001d0: a0f3 31b4 f213 8cb2 348c 1ab7 a34c 2bb6
000001e0: 67bb b527 307e c913 6ed1 561c 38bc 98ad
000001f0: baea 5631 c427 94b7 00fa d236 c0cd e034
00000200: 84a8 8b9d 7ee0 218a 7a95 2a36 4247 1619
00000210: f420 55a5 926d 399a b1a3 efb6 cf4c a733
00000220: af22 979d f3ec b893 a0e0 378a 67b8 6937
00000230: f7cb 08af e1f4 6533 eb4f 2d37 3ae2 078a
00000240: 29ed 308c f0c6 cb34 5ffb 460a defa b306
00000250: ad99 0f9a 61d4 571d ce94 858a 2f6b 9ab6
00000260: c034 bd89 44d3 160c 75d0 14b5 b74f 5eac
00000270: 7250 5818 c2a4 a088 363a 11b6 aa06 aa34
00000280: 2603 9ab6 d8ca 190a 00e1 6230 9e06 ef0b
00000290: 8da1 7694 8aff f48a 236e 8bb6 377a 6bb1
000002a0: e125 8407 8d51 b9b7 e5d5 9837 8e27 44ae
000002b0: 23a1 fe33 729a d28c dd16 0e0b 0fbc c724
000002c0: 3f00 1b8b adc2 02a2 3910 b7a4 0371 588b
000002d0: a3bf c5b1 5742 3713 f5c3 959a dc68 28b7
000002e0: 7ef3 9f89 5247 fb09 7c41 8d34 f770 3e25
000002f0: 500e c1b7 19e9 05b2 86af 5fb4 f475 5b08
00000300: 5132 d134 9b80 e31c a295 658a fef6 e213
00000310: 3c8f a52f a075 2d36 1e9e 350b 0f06 8d88
00000320: 10c3 acae c2d8 e109 2e3d 2d38 2284 3e9a
00000330: 57c7 b3b5 da35 2c8b 11e4 7eb5 b5bd d2b1
00000340: 6aa5 b68c c4bc 6e93 a659 008a a76f 92b7
00000350: e25b a209 265e aa0a e349 941f 5a07 f62c
00000360: b90c 6dac 7d88 1717 7b18 62b7 8396 d612
00000370: 8746 5f35 01a2 12b5 cbfb f110 d6e8 5a28
00000380: e037 7607 7eb1 8033 8357 2598 bbba a009
00000390: c188 be32 0d69 7436 a2b0 3d1f c08d 2008
000003a0: 0841 e093 ee88 a5a1 8596 5c07 45cb 00ae
000003b0: 3a29 f28b 1556 cf11 7196 7037 5b4e b58f
000003c0: 7f13 47a9 20d7 fdb1 57f8 c730 f2df bcb0
000003d0: a9c4 810f 33ee 6823 4162 818b 0ee6 2036
000003e0: 54f2 cc9b f02b 3112 cc9a 0c38 1c4b 5f09
000003f0: 0afa 64b6 9baf 631c 050c 9333 d2ba cd0a
