SCG-SFFL-main/SFFL/pretrained_models/alluxio.pt (torch, 799425 bytes, 15 tensors)

conv1.att_src f4 [1, 8, 32]
0	0x9504e41a	-2.6837128e-26
1	0x80d9a5a4	-1.9987723e-38
2	0x32a1e909	1.8848839e-08
3	0x30919e15	1.0595068e-09
4	0x2b3cc2ac	6.706118e-13
5	0x2ed53f32	9.697344e-11
6	0xae0018ce	-2.912586e-11
7	0x2e8602ba	6.094099e-11
8	0x0005a9f3	5.20144e-40
9	0x04b9619d	4.3582935e-36
10	0x8000b408	-6.4583e-41
11	0x00092366	8.39218e-40
12	0x1661225a	1.8186195e-25
13	0xab8331dd	-9.32195e-13
14	0x3412a35b	1.3656738e-07
15	0x00014fbc	1.20439e-40
16	0x172c65ee	5.570485e-25
17	0x9adc606c	-9.1145645e-23
18	0x8a1d10ea	-7.562456e-33
19	0xb2800fd7	-1.4908364e-08
20	0x35063cc3	5.000731e-07
21	0x8004f619	-4.55625e-40
22	0x0002cf11	2.57952e-40
23	0x80158e84	-1.97967e-39
24	0xac733f68	-3.4567574e-12
25	0x28a8cbf6	1.87402e-14
26	0x0b0a5e5e	2.6648827e-32
27	0x8006933f	-6.03835e-40
28	0x986be30f	-3.0487673e-24
29	0x8994fc52	-3.5866985e-33
30	0x2fbd508b	3.443613e-10
31	0x031423da	4.3534447e-37
32	0xae3150da	-4.031695e-11
33	0x84833a0b	-3.0851256e-36
34	0x042767ed	1.9678476e-36
35	0x8462d21e	-2.6662653e-36
36	0x20a9bfba	2.8756588e-19
37	0x316031f5	3.2624687e-09
38	0x85ceee92	-1.9459784e-35
39	0x340233ce	1.212604e-07
40	0x2afc05f4	4.4768323e-13
41	0x882ac7f1	-5.1392544e-34
42	0x2afb0403	4.458934e-13
43	0x2c3290b9	2.5375659e-12
44	0x34d43ae9	3.953094e-07
45	0x9b171708	-1.2497869e-22
46	0x803104c1	-4.501645e-39
47	0x00d092e2	1.9154475e-38
48	0x881dcb61	-4.748454e-34
49	0x035daae1	6.5142222e-37
50	0x06e986a2	8.7842684e-35
51	0x0002babd	2.5066e-40
52	0xb2a45719	-1.913172e-08
53	0x32961dda	1.7475873e-08
54	0x2c9b2572	4.4095222e-12
55	0x0000bd20	6.7845e-41
56	0xa98ee05d	-6.3449876e-14
57	0x14f64849	2.4868164e-26
58	0xac092087	-1.9486927e-12
59	0x8000e954	-8.3702e-41
60	0x2c403199	2.7312373e-12
61	0x86f8bee1	-9.3567703e-35
62	0x06b3d549	6.764571e-35
63	0x201bcdd2	1.3197111e-19
64	0x00278f54	3.633001e-39
65	0x800ecc57	-1.359e-39
66	0x8d0b74eb	-4.2973417e-31
67	0x31ee90db	6.94318e-09
68	0x03285098	4.946328e-37
69	0xaf517654	-1.9050478e-10
70	0x1aa3208d	6.746781e-23
71	0xa31fa7fc	-8.654979e-18
72	0xb016d47e	-5.487165e-10
73	0x9920be88	-8.3102836e-24
74	0x0f264458	8.1975944e-30
75	0x0c62b501	1.7464876e-31
76	0xa64ef9e5	-7.180928e-16
77	0x0002ad95	2.4594e-40
78	0x8002da3e	-2.61962e-40
79	0x2b65be75	8.1621455e-13
80	0xacb51ec5	-5.1477455e-12
81	0x00029326	2.36458e-40
82	0x301c6fe9	5.6911503e-10
83	0x8008f7f6	-8.23636e-40
84	0xb2a36f1a	-1.902622e-08
85	0x29234eda	3.6261663e-14
86	0xac827125	-3.707384e-12
87	0x18cb22d6	5.2509445e-24
88	0x00019454	1.45046e-40
89	0x82d97cf8	-3.1957013e-37
90	0x208fd3b3	2.4365233e-19
91	0xa1873d8d	-9.164248e-19
92	0xae524a58	-4.7814502e-11
93	0x35019d9e	4.828561e-07
94	0x30aa8984	1.2408212e-09
95	0x307f7f62	9.294948e-10
96	0x97667650	-7.446634e-25
97	0xac866b8f	-3.8204505e-12
98	0x1c8b1b6d	9.205338e-22
99	0x800075c1	-4.2242e-41
100	0xb3b6e704	-8.517057e-08
101	0x84232c66	-1.9180945e-36
102	0x34a41f97	3.0570365e-07
103	0x0019698a	2.333748e-39
104	0x8006685d	-5.88451e-40
105	0x86649962	-4.2994722e-35
106	0x0970ead5	2.8999367e-33
107	0xaf69510e	-2.1220023e-10
108	0x9980fcf0	-1.333705e-23
109	0xb4efe05e	-4.4680468e-07
110	0x0007c974	7.15116e-40
111	0x968d83a8	-2.2862865e-25
112	0x8000e162	-8.0852e-41
113	0x9ded8ed1	-6.2881046e-21
114	0x00010cbe	9.6407e-41
115	0xb35b9bc6	-5.1131586e-08
116	0xa9284c02	-3.736942e-14
117	0x16ce2696	3.3305446e-25
118	0x81a9a03d	-6.2310726e-38
119	0x0005b02c	5.22376e-40
120	0x00027ffb	2.29582e-40
121	0x93611121	-2.8407438e-27
122	0x80973717	-1.3886922e-38
123	0x008e660c	1.3077248e-38
124	0xb18ed4e7	-4.156948e-09
125	0x8008f359	-8.2198e-40
126	0x0ba77c23	6.451284e-32
127	0x968e1d8f	-2.2959991e-25
128	0x00002a50	1.5179e-41
129	0x0003d01c	3.50162e-40
130	0x2e8ba865	6.350901e-11
131	0x28215190	8.954981e-15
132	0x355f2276	8.312412e-07
133	0x047d97d5	2.9809725e-36
134	0x88d280ca	-1.2669193e-33
135	0x30d9859a	1.58268e-09
136	0x051ffaa0	7.5221766e-36
137	0x8004d351	-4.43148e-40
138	0xb411b18a	-1.3568766e-07
139	0x9b0df83a	-1.1743453e-22
140	0x8000f109	-8.6467e-41
141	0x2c2907fc	2.4020777e-12
142	0x0002902a	2.35387e-40
143	0x823270bd	-1.3109729e-37
144	0xb130348a	-2.5641236e-09
145	0x32e790d3	2.6957798e-08
146	0x8007ec63	-7.27648e-40
147	0x333cf58b	4.399548e-08
148	0x876761d9	-1.7407263e-34
149	0x15e22925	9.134559e-26
150	0x0bca8666	7.800979e-32
151	0xb1da94a1	-6.361532e-09
152	0xacfcd32e	-7.1857164e-12
153	0x801dcca7	-2.736645e-39
154	0x33f96dd2	1.1614942e-07
155	0x25b040d6	3.0575068e-16
156	0xaa133bf4	-1.3077023e-13
157	0x98d9f4d5	-5.6340402e-24
158	0x80012d61	-1.08114e-40
159	0x274c97a9	2.8392902e-15
160	0xa40c415d	-3.0413026e-17
161	0x10e5cce9	9.064029e-29
162	0x00053429	4.77889e-40
163	0x80003cd3	-2.182e-41
164	0x94ab4381	-1.7293213e-26
165	0x13511c53	2.6393474e-27
166	0xab10a93c	-5.1393937e-13
167	0x0003a140	3.33352e-40
168	0x00078cea	6.93399e-40
169	0x34664762	2.1446388e-07
170	0x86622f53	-4.2540644e-35
171	0x002361d1	3.249332e-39
172	0xb34ea3e3	-4.8112167e-08
173	0xb2e46eac	-2.6593021e-08
174	0x810d13db	-2.5911856e-38
175	0x82cd7599	-3.018954e-37
176	0x9b145889	-1.227088e-22
177	0xa5638cb4	-1.9736784e-16
178	0xb53af55a	-6.9647433e-07
179	0x118d4964	2.2291108e-28
180	0x2f061eb8	1.2198142e-10
181	0x299b4a36	6.896256e-14
182	0x1dcff92d	5.5050085e-21
183	0x069ae126	5.825919e-35
184	0xb159236b	-3.1597789e-09
185	0x2a294c88	1.5036767e-13
186	0x0b0c043a	2.69662e-32
187	0x00058a44	5.08778e-40
188	0x35704992	8.9514026e-07
189	0xb49e9816	-2.954045e-07
190	0x3096032a	1.0914836e-09
191	0x00004ff2	2.8679e-41
192	0x345684ad	1.997857e-07
193	0x800317f0	-2.84094e-40
194	0x040babd3	1.641827e-36
195	0xb3c141a1	-8.999201e-08
196	0x03aca468	1.0146997e-36
197	0x32b05d21	2.0531447e-08
198	0x85cb82a0	-1.9138012e-35
199	0x9e951596	-1.5784916e-20
200	0xad29f491	-9.6608424e-12
201	0xb2bf9776	-2.2304203e-08
202	0xb3c333d3	-9.089822e-08
203	0x0b037802	2.5319966e-32
204	0x2bab2578	1.216068e-12
205	0x8cc54028	-3.0391269e-31
206	0x210675f1	4.555706e-19
207	0x801c2119	-2.583267e-39
208	0x00329650	4.645697e-39
209	0x08a156ea	9.710268e-34
210	0xb31397a7	-3.436403e-08
211	0xa11ee68c	-5.383761e-19
212	0xaf3f0f31	-1.7376746e-10
213	0xb4098d84	-1.2810602e-07
214	0x218be628	9.479928e-19
215	0x81378fe1	-3.371502e-38
216	0x88da177f	-1.3125922e-33
217	0x32ae9e6c	2.0328308e-08
218	0x3256702b	1.24819435e-08
219	0x2c1bf837	2.2164612e-12
220	0x1de72e48	6.1193045e-21
221	0xaf338b0c	-1.6329355e-10
222	0x2b523aa9	7.4688395e-13
223	0xb53ac7f2	-6.958136e-07
224	0x9b1c9241	-1.2951275e-22
225	0x1b2fa73d	1.4529698e-22
226	0x9663139a	-1.8343099e-25
227	0xb5088fa1	-5.0872956e-07
228	0xb4c74233	-3.7114805e-07
229	0xa806ba66	-7.478913e-15
230	0x81a269c5	-5.9661173e-38
231	0x9dff11fb	-6.751653e-21
232	0x2c0690c1	1.91229e-12
233	0x1da372b6	4.326435e-21
234	0x12fcde3f	1.5958224e-27
235	0xb371402b	-5.6170546e-08
236	0x34d4ccc7	3.9637072e-07
237	0x039d4413	9.24326e-37
238	0x8000cc23	-7.323e-41
239	0xaeb319c0	-8.144552e-11
240	0x0002034a	1.84851e-40
241	0x8a2e9404	-8.405634e-33
242	0x00c33536	1.792701e-38
243	0x800ef912	-1.375047e-39
244	0x0000c160	6.937e-41
245	0x9dc62755	-5.245083e-21
246	0x1045ca32	3.9007165e-29
247	0xb4278e44	-1.5604843e-07
248	0x902c1cc0	-3.3943167e-29
249	0x02907487	2.1225782e-37
250	0x28b00bcb	1.954504e-14
251	0x83be83d4	-1.1197463e-36
252	0x00e167e5	2.0700257e-38
253	0x354547ff	7.3492987e-07
254	0x00201a35	2.948137e-39
255	0x0f47eecb	9.857447e-30

conv1.att_dst f4 [1, 8, 32]
0	0xb360d714	-5.2349677e-08
1	0x8fc81334	-1.972892e-29
2	0x820c75a4	-1.0319337e-37
3	0x8000416f	-2.3473e-41
4	0x2acef107	3.6760197e-13
5	0x8128d9a7	-3.1012885e-38
6	0xb07cd208	-9.197554e-10
7	0x1dd10bab	5.5333904e-21
8	0x9b2cb42e	-1.4285726e-22
9	0x85cadb2c	-1.90765e-35
10	0xb4353158	-1.687489e-07
11	0x80ddfcc6	-2.0386323e-38
12	0x8bbb39d6	-7.21168e-32
13	0x8013c102	-1.814113e-39
14	0x2f5f7bd1	2.032572e-10
15	0x203b0b99	1.5843353e-19
16	0x2a90bb1c	2.5709372e-13
17	0xaa489e08	-1.7818396e-13
18	0x1c4dedd8	6.8136216e-22
19	0x0fb643e8	1.7972742e-29
20	0xb55cecff	-8.230126e-07
21	0x2785f712	3.718279e-15
22	0x11cf6f26	3.2727342e-28
23	0x8000d934	-7.7918e-41
24	0x80017a69	-1.35748e-40
25	0xa812674f	-8.1270296e-15
26	0x9c62fb30	-7.510178e-22
27	0x8004c233	-4.37008e-40
28	0x2e8c3270	6.3754224e-11
29	0x28da9684	2.4268138e-14
30	0x35245b4f	6.122763e-07
31	0x1df18a7e	6.3935366e-21
32	0x0000dd92	7.9484e-41
33	0x00e60f4a	2.1127649e-38
34	0x03672d75	6.793698e-37
35	0x130fe55c	1.816222e-27
36	0xb4e395a2	-4.2390917e-07
37	0xb4779c98	-2.3060636e-07
38	0x0ab66aae	1.7566091e-32
39	0x10c3aa40	7.717625e-29
40	0x031cdc1d	4.6096957e-37
41	0x99da4a5f	-2.257071e-23
42	0x1121a537	1.2751571e-28
43	0x1d2c2caa	2.2787101e-21
44	0x0000c715	7.1417e-41
45	0x82fe4ea1	-3.7367076e-37
46	0x8bcf2497	-7.9788554e-32
47	0x95a6329f	-6.712673e-26
48	0x98050a28	-1.7194975e-24
49	0xaef0dadb	-1.0952813e-10
50	0x0d8c4465	8.644632e-31
51	0x935eaa2a	-2.8104237e-27
52	0x3516bfcc	5.6158456e-07
53	0x8030bdc3	-4.476177e-39
54	0x11e6cdf1	3.6414523e-28
55	0x8b2e1394	-3.352591e-32
56	0x334027e2	4.4739757e-08
57	0x2342a855	1.0552407e-17
58	0x328208e9	1.5138044e-08
59	0x800217e5	-1.92243e-40
60	0x8000ae7f	-6.2597e-41
61	0x816cab56	-4.3469282e-38
62	0x00090acf	8.30397e-40
63	0xa04f2cff	-1.754847e-19
64	0xb0311b68	-6.443117e-10
65	0x30f78f94	1.8012423e-09
66	0xa0cfc979	-3.5200487e-19
67	0x322ea417	1.0165443e-08
68	0x08ad7c3d	1.0441267e-33
69	0xb4dc25dc	-4.100574e-07
70	0x2e0a3b7f	3.143041e-11
71	0x341c791c	1.4572691e-07
72	0x850e2409	-6.6834265e-36
73	0x0a174626	7.283579e-33
74	0x2f93752a	2.6822394e-10
75	0x0d135564	4.5400658e-31
76	0x002ad942	3.935028e-39
77	0x059176d4	1.3679385e-35
78	0x000e2b83	1.301306e-39
79	0x04026f42	1.5332514e-36
80	0x1339af3b	2.3436678e-27
81	0x09465687	2.3874068e-33
82	0x2c383059	2.617481e-12
83	0x00667c64	9.411844e-39
84	0x989307e5	-3.800658e-24
85	0x2fb262a2	3.2448094e-10
86	0xb25833e7	-1.2584656e-08
87	0xab55d3f0	-7.5966924e-13
88	0x9328be6b	-2.1298464e-27
89	0xac8b49f9	-3.9588302e-12
90	0x308e4139	1.0350397e-09
91	0x842777ba	-1.9685731e-36
92	0x3532dcce	6.663148e-07
93	0x9a81f0f3	-5.3742424e-23
94	0x3406d765	1.2558083e-07
95	0x001a6672	2.424473e-39
96	0x0a555699	1.0271864e-32
97	0x2696671f	1.0436292e-15
98	0xb3ca811b	-9.429842e-08
99	0x00039c27	3.31523e-40
100	0x3013095e	5.34916e-10
101	0x9ca5b666	-1.0965933e-21
102	0x0001bbf0	1.59255e-40
103	0x334a4bb7	4.7100652e-08
104	0x80032807	-2.89866e-40
105	0xae2250e2	-3.6906374e-11
106	0x0174221b	4.4840192e-38
107	0x1e10bb90	7.6620835e-21
108	0x22c9caf7	5.4696057e-18
109	0x007986aa	1.1160403e-38
110	0x0004c37e	4.37471e-40
111	0x025d2e09	1.6249727e-37
112	0xb349bc2a	-4.6970094e-08
113	0x08a5e214	9.983727e-34
114	0x8c1d595a	-1.2121728e-31
115	0x8ef886b9	-6.1266453e-30
116	0x003a74cb	5.368356e-39
117	0x00388a71	5.192451e-39
118	0x800d6709	-1.230823e-39
119	0x2b3aa760	6.6312754e-13
120	0x0b2ad477	3.290065e-32
121	0x80004a01	-2.6548e-41
122	0x9b2ac016	-1.4124137e-22
123	0x0dd99642	1.3409831e-30
124	0xb0a7aab5	-1.2199367e-09
125	0x80016f49	-1.31757e-40
126	0xb52a1d8d	-6.3372937e-07
127	0x8c8fbf12	-2.2147635e-31
128	0x8004b16b	-4.30988e-40
129	0x0b444922	3.7803246e-32
130	0x343921c3	1.724175e-07
131	0x0000ad0b	6.2076e-41
132	0x23f31efb	2.6359234e-17
133	0x119c38b1	2.46474e-28
134	0x00a3985f	1.5023846e-38
135	0xb0c7793a	-1.451361e-09
136	0x2f773ffd	2.2487252e-10
137	0x8000eef3	-8.5719e-41
138	0x1a9baf9e	6.439022e-23
139	0x800b5cc2	-1.043466e-39
140	0xaf2dce58	-1.5807566e-10
141	0x30aeb018	1.2710215e-09
142	0xb49d2e1e	-2.9277084e-07
143	0x80ec5581	-2.170385e-38
144	0x98d48f78	-5.4945582e-24
145	0x80002f7a	-1.7031e-41
146	0x29f92211	1.1063731e-13
147	0x018016c6	4.705245e-38
148	0x3401cda5	1.2088874e-07
149	0x191ee14c	8.213907e-24
150	0x2fbe07a4	3.4566228e-10
151	0x273fec14	2.6634553e-15
152	0x3177aa48	3.6040024e-09
153	0x8007d50a	-7.19272e-40
154	0xad13d26c	-8.402706e-12
155	0xafee64be	-4.336353e-10
156	0x83af3e01	-1.0299811e-36
157	0xa18cdac9	-9.544681e-19
158	0xac2ad6e5	-2.4277743e-12
159	0x2f977299	2.7548167e-10
160	0xb096a3e9	-1.0960522e-09
161	0x8a22db90	-7.8413114e-33
162	0x2183f7d4	8.942505e-19
163	0x801b1cb4	-2.489855e-39
164	0x208d975e	2.3986496e-19
165	0x96cbf8f8	-3.295354e-25
166	0x017f493d	4.688865e-38
167	0x819c074d	-5.7315826e-38
168	0x08d2c879	1.2686046e-33
169	0xa1881fc3	-9.224126e-19
170	0x1db9c54e	4.91731e-21
171	0x2292e490	3.981538e-18
172	0x901e770d	-3.125172e-29
173	0xb5704649	-8.9509246e-07
174	0xb0b8b9b2	-1.344054e-09
175	0xb4739d50	-2.2688369e-07
176	0x30762e22	8.955984e-10
177	0xabdc998d	-1.5674559e-12
178	0x908a7e07	-5.462558e-29
179	0x001ac8fc	2.459823e-39
180	0x230f694a	7.774341e-18
181	0x324c6967	1.18983285e-08
182	0x80011d86	-1.02427e-40
183	0x98a91991	-4.371129e-24
184	0x0655bfba	4.0201706e-35
185	0x34db83db	4.0887866e-07
186	0x189c2483	4.0361922e-24
187	0xb35fa41e	-5.2070497e-08
188	0xb2c29cdd	-2.2655906e-08
189	0x18b15a63	4.5844695e-24
190	0x89ff9421	-6.1528317e-33
191	0x054d5b65	9.65584e-36
192	0x220e8b54	1.9318348e-18
193	0x8000db92	-7.8767e-41
194	0x18708004	3.1083904e-24
195	0x8003b78f	-3.41355e-40
196	0x0025adbf	3.460242e-39
197	0x9dbeed38	-5.053786e-21
198	0x82a7f7fb	-2.4680778e-37
199	0xaec16947	-8.795325e-11
200	0x0111d172	2.6782564e-38
201	0x98bfb8ee	-4.9559074e-24
202	0x028f7962	2.1081632e-37
203	0x2328b842	9.146316e-18
204	0x8f3afb29	-9.21888e-30
205	0x2e64612c	5.1927504e-11
206	0xb44777f5	-1.857696e-07
207	0x107e2e35	5.0128264e-29
208	0x00032299	2.87918e-40
209	0xb183bd5d	-3.83413e-09
210	0x02b46e25	2.6511843e-37
211	0x8348b73b	-5.8985056e-37
212	0x948781a1	-1.3682646e-26
213	0x1d03b976	1.7433587e-21
214	0x8276a622	-1.8120903e-37
215	0xad5d4932	-1.2578648e-11
216	0xa2cd6b25	-5.5678805e-18
217	0x93538ebd	-2.670232e-27
218	0x064ce941	3.8539504e-35
219	0x0219c04e	1.1295853e-37
220	0x1dda444f	5.777475e-21
221	0xa18bf232	-9.483115e-19
222	0x12d23b1d	1.3267436e-27
223	0x0e186c92	1.8787721e-30
224	0x806b6322	-9.86196e-39
225	0x3309cbf7	3.2083303e-08
226	0x80086572	-7.71076e-40
227	0x0a1f3968	7.6663684e-33
228	0x80052274	-4.71537e-40
229	0x307842ec	9.0316976e-10
230	0xb51a25d1	-5.74245e-07
231	0xb23fdcad	-1.1167839e-08
232	0xa121b4ba	-5.478811e-19
233	0x00003385	1.8482e-41
234	0x2102426a	4.413361e-19
235	0x80327d51	-4.63673e-39
236	0x34d7c126	4.0187405e-07
237	0x2c90cc6d	4.115422e-12
238	0x81d3910a	-7.771728e-38
239	0x8004e4df	-4.49445e-40
240	0x32e0c0c8	2.6164699e-08
241	0x261b5d03	5.390248e-16
242	0x842576e5	-1.945025e-36
243	0x9e1023c1	-7.63069e-21
244	0x0e1ab88b	1.907082e-30
245	0x94dd9750	-2.237498e-26
246	0x0dd12422	1.2889318e-30
247	0x931d90cd	-1.9887578e-27
248	0x8240b692	-1.4158327e-37
249	0xb19654fe	-4.375237e-09
250	0x80024685	-2.08969e-40
251	0x196d75d3	1.2276407e-23
252	0x3226bbe7	9.705196e-09
253	0x98c11e7d	-4.9920116e-24
254	0xaee40b68	-1.0370266e-10
255	0x3482c50d	2.435776e-07

conv1.bias f4 [256]
0	0xbcc2102b	-0.02368935
1	0xbbecad6e	-0.007222823
2	0xba16d240	-0.00057533756
3	0x3b197e08	0.0023421068
4	0xbb901bbf	-0.004397839
5	0x3c0913bf	0.008366524
6	0x3cfe20eb	0.031021556
7	0x3c266874	0.0101567395
8	0xbc786d99	-0.015162849
9	0xbd59e021	-0.05319226
10	0xbbc38fc1	-0.0059680645
11	0x3c12f56c	0.008969646
12	0x3cef5a6f	0.029217927
13	0x3b287b14	0.0025708126
14	0xbc9ed1fa	-0.019387234
15	0x3c6242a0	0.01380983
16	0xbb233504	-0.0024903426
17	0xbc9a52df	-0.018838344
18	0x3c468900	0.012117624
19	0xbca7a9e9	-0.020466762
20	0x3d055c12	0.03255851
21	0xbbf4b925	-0.00746836
22	0xbbab0a8b	-0.0052197627
23	0x3cc182fb	0.023622027
24	0x3cc6ed52	0.024283085
25	0xbb85ed2b	-0.0040871105
26	0xbcab86b6	-0.020938259
27	0x3c1ce7b6	0.009576729
28	0xbcdde712	-0.027087722
29	0x3c71b182	0.014751794
30	0x3c3cb421	0.011517555
31	0x3c7353d3	0.014851528
32	0xbc29d36b	-0.010365347
33	0x39787d40	0.00023697782
34	0x3b18b5f1	0.0023301805
35	0xbca50ca1	-0.020147623
36	0xbb9e59df	-0.004832491
37	0x3c9b9cf0	0.018995732
38	0xbd11827f	-0.03552484
39	0xbcf65ec2	-0.03007448
40	0x3bdf8176	0.006820853
41	0x3c2e6a6f	0.010645493
42	0xbaa1d799	-0.0012347578
43	0x3bd43f93	0.006477305
44	0xbbcd86b1	-0.00627216
45	0xb5bf4d59	-1.425312e-06
46	0x3bcbb487	0.006216589
47	0xbc392051	-0.011299209
48	0x3c7b300a	0.015331278
49	0x3ba030a9	0.0048886132
50	0x3af846b7	0.0018941973
51	0x3b02ec23	0.0019977174
52	0x3cc756c1	0.02433336
53	0x3d0cf837	0.034416404
54	0xbb78d835	-0.0037970666
55	0xbc1e4d06	-0.0096619185
56	0x3c691d95	0.014228244
57	0xbd1c8779	-0.038215134
58	0x3c0cde15	0.00859787
59	0x3c3d3974	0.011549342
60	0xba4c5103	-0.0007794054
61	0x3c77f18f	0.015133276
62	0xbc94c22c	-0.018158995
63	0x3ca39be1	0.01997179
64	0xbc8e0224	-0.017335005
65	0x3c4b4afc	0.012408014
66	0xbd0b852f	-0.03406256
67	0xbbaa2b3a	-0.0051931413
68	0x3c28d9cf	0.010305836
69	0x3c0d5378	0.0086258575
70	0xbd2dd982	-0.04244376
71	0xbcc7e455	-0.02440087
72	0xbc6c3738	-0.014417462
73	0xbc488377	-0.012238375
74	0xbcd1dcfe	-0.025618073
75	0x3c43a1f4	0.011940468
76	0xbbb26b1e	-0.0054448983
77	0xbc2b8778	-0.01046931
78	0xbcdd30c4	-0.027000792
79	0xbd07ccf6	-0.03315445
80	0x3c4e9fc8	0.012611337
81	0x3c99d1ab	0.018776735
82	0xbc78933d	-0.015171823
83	0x3c232290	0.009956971
84	0xbc8aa588	-0.016924635
85	0x3bdf29f9	0.0068104235
86	0x3a79de2f	0.0009531704
87	0xbc83c970	-0.016087264
88	0x3c50a392	0.012734311
89	0x3c7a1618	0.015264057
90	0x3cad207a	0.02113365
91	0xbd008535	-0.031377036
92	0x3be30947	0.006928596
93	0x3b39339d	0.0028259524
94	0xbcf1ee1e	-0.029532488
95	0xbc0a3755	-0.008436044
96	0xbca0a2ae	-0.019608822
97	0x3c4bd11c	0.012439992
98	0x3b4d8cec	0.0031364514
99	0x3c702da5	0.01465932
100	0x3b7fdb95	0.0039040793
101	0x3c0b914a	0.008518526
102	0x3cde1ec3	0.027114278
103	0x3c1c34fd	0.009534118
104	0xbbc74a50	-0.006081857
105	0xbc9b2a79	-0.018941151
106	0xbcb81847	-0.022472514
107	0x3bb762e4	0.0055965055
108	0x3c0fe6f7	0.008783094
109	0xbc9e1b46	-0.019300114
110	0x3c23aeff	0.009990453
111	0x3d186363	0.037204158
112	0x3c344445	0.011002605
113	0x3c92d933	0.017925834
114	0x3a448e3d	0.0007498002
115	0x3abe2956	0.0014508169
116	0x3c3c0074	0.011474717
117	0x3c6fbb69	0.014632084
118	0xbc482806	-0.012216574
119	0xbaa17b6a	-0.0012320105
120	0xbd0416f3	-0.03224845
121	0xbc1ec5f2	-0.0096907485
122	0x3bd32944	0.006444128
123	0x3cbcb427	0.023035122
124	0xbbcd2b97	-0.0062613
125	0xbcc1dbde	-0.023664411
126	0x3ce13add	0.027493889
127	0x3b04ac3e	0.0020244266
128	0xbc65c143	-0.014023128
129	0x3cc519ef	0.024060218
130	0x3b9d023d	0.0047915266
131	0xb99c0268	-0.00029756431
132	0x3cd1a617	0.025591893
133	0x3c2a6c97	0.010401866
134	0x3b128450	0.0022356696
135	0xbb2f5beb	-0.0026757668
136	0x3ca0660b	0.019579908
137	0xbc8f5eb8	-0.01750122
138	0xbba5439c	-0.00504346
139	0x3ba63df8	0.005073305
140	0xbbd0860a	-0.006363635
141	0x3c0fef1e	0.008785037
142	0xbb6c973e	-0.003610089
143	0xbcbf108b	-0.023323318
144	0x3c99e865	0.018787572
145	0x3b6fec00	0.0036609173
146	0xbc350576	-0.011048665
147	0xbbc23a1e	-0.0059273383
148	0x3b636be6	0.0034701764
149	0xbab28a80	-0.0013621598
150	0x3c52ecf9	0.0128738815
151	0xbc8dc0ba	-0.017303813
152	0x3c9915c9	0.018687146
153	0xbc2e7cf1	-0.010649906
154	0xbc42b765	-0.011884545
155	0x3c3950a8	0.011310734
156	0x3c5d1920	0.01349476
157	0x3c9dfe73	0.01928637
158	0xbcc04450	-0.023470074
159	0xbbb12f21	-0.0054072295
160	0xbc9f33af	-0.019433824
161	0xbc3b2be5	-0.0114240395
162	0x3c4cba7a	0.012495631
163	0x3cc2597c	0.02372431
164	0x3b893906	0.004187706
165	0xbc5062d7	-0.012718878
166	0x3cae732e	0.021295156
167	0x3c0781e8	0.008270718
168	0x3c8f6491	0.017504008
169	0x3c5b556d	0.013387066
170	0xbcee77da	-0.029109884
171	0xbc3625f7	-0.01111745
172	0xbb638667	-0.0034717561
173	0xbc7dbe49	-0.015487262
174	0x3cdf4d64	0.027258582
175	0xbaac0293	-0.0013123326
176	0xbc868213	-0.016419446
177	0x3bb94f65	0.0056552165
178	0xbcfb513d	-0.030678386
179	0x3c05f920	0.008177072
180	0x3caef292	0.0213559
181	0xbc0e4cab	-0.008685271
182	0x3c35a79d	0.011087325
183	0xbb37a2aa	-0.002802054
184	0xbb3a2be3	-0.0028407506
185	0xbca76f5c	-0.020438842
186	0xbc8f5421	-0.01749617
187	0xbc7d4db7	-0.015460423
188	0x3ba78dec	0.005113354
189	0xbcfe4074	-0.031036593
190	0xba290ea7	-0.0006449022
191	0x3ca077a5	0.019588301
192	0xb95ded8f	-0.000211647
193	0xbd243d11	-0.0400973
194	0x3b9f01b6	0.004852499
195	0x3ba8f769	0.0051564467
196	0xbc92f4ba	-0.01793896
197	0xbb35fd3a	-0.0027769343
198	0xbc9e2faa	-0.019309837
199	0x3bb4b969	0.0055152667
200	0xbc4f9a58	-0.012671076
201	0x3c9c58c5	0.019085297
202	0xbbe04e1c	-0.006845249
203	0xbb995101	-0.004678846
204	0xbbe543c4	-0.0069966037
205	0x3bc1b5fc	0.005911587
206	0x3987aaa3	0.0002587634
207	0x3c2f41d8	0.010696851
208	0xbca96610	-0.02067855
209	0x3b936e6c	0.0044992473
210	0x3cad5a9e	0.021161374
211	0x3cb532f8	0.02211903
212	0x3add22f6	0.0016871381
213	0xbce9ad6a	-0.028525073
214	0x3caedff2	0.02134702
215	0x3bc75f34	0.006084347
216	0xbc5d288e	-0.0134984385
217	0x3cb5fab7	0.022214277
218	0x3ba01496	0.0048852665
219	0x3cae2466	0.02125759
220	0x3b48befd	0.0030631416
221	0x3bd374b1	0.0064531197
222	0x3b2289ab	0.0024801295
223	0x3caa2e19	0.020773934
224	0x3a93e84e	0.0011284442
225	0x3ca71c4c	0.020399235
226	0xbb61e67e	-0.003446966
227	0xbcad148e	-0.021127965
228	0xbc98d512	-0.018656287
229	0x3c5c39df	0.013441532
230	0x3ba52ffe	0.0050411215
231	0x3c4c6231	0.0124745825
232	0xbc8c6ed0	-0.017142683
233	0xbb702469	-0.0036642796
234	0x3b338244	0.0027390877
235	0x3b02188a	0.0019851052
236	0x3c1b5a3d	0.009481964
237	0x3ccf8d85	0.025336036
238	0x3ccd2874	0.025043704
239	0x3cae412d	0.021271313
240	0x3cdd302f	0.027000515
241	0xbcc98b8f	-0.02460268
242	0x3c23cf49	0.009998151
243	0x3cb47b6c	0.022031508
244	0xbc76c720	-0.015062124
245	0x3c41e786	0.011834985
246	0x3bb5cbc6	0.0055479733
247	0xbcf6d34f	-0.030130057
248	0xb97b6283	-0.00023973924
249	0x3c62682a	0.01381878
250	0xbb18fae5	-0.0023342904
251	0xbccdb5a6	-0.02511103
252	0x3bdb3be7	0.0066904905
253	0xbce6246e	-0.028093543
254	0xbc5c78f7	-0.013456575
255	0xbcf89369	-0.030343728

conv1.lin_src.weight f4 [256, 256]
0	0x3da29b85	0.07939819
1	0xbbc4048c	-0.0059819873
2	0x3c1cf5c1	0.009580077
3	0xbcc6b3ac	-0.024255596
4	0x3c4b6c8d	0.012416017
5	0xbc71de75	-0.014762511
6	0xbc09c984	-0.0084098615
7	0x3a01a79f	0.0004945937
8	0x3c302616	0.010751268
9	0x3c630486	0.013856059
10	0x3b82ccec	0.0039917137
11	0xbb988be6	-0.004655349
12	0x3b8a1163	0.0042134984
13	0x3c3c1be4	0.011481259
14	0x3c866726	0.016406607
15	0xbca81258	-0.02051656
16	0xbb4cb283	-0.003123433
17	0x3c241f14	0.010017175
18	0xbc10bbe2	-0.008833857
19	0xbc2e4847	-0.010637349
20	0xbcdf7c5b	-0.027280977
21	0xbc3fe887	-0.011713154
22	0xbc3e922e	-0.011631532
23	0xbc9b9e4b	-0.018996378
24	0xbc9d1552	-0.019175205
25	0x3ba14735	0.0049218186
26	0x3bf9d751	0.0076245447
27	0x3c634ae2	0.013872834
28	0x3b827377	0.0039810496
29	0xb9c3df8b	-0.0003735985
30	0xbadd8205	-0.0016899711
31	0xbc8f50ad	-0.017494524
32	0xbc842e41	-0.016135337
33	0x3ccba2e1	0.02485794
34	0xbc53f682	-0.01293719
35	0x3ba7c2e4	0.0051196683
36	0x3c214e61	0.009845347
37	0x3cbaf520	0.022821963
38	0x3c029b3d	0.007971582
39	0xbbd049af	-0.00635644
40	0xbc3cf69b	-0.011533405
41	0x3ad142b1	0.001596531
42	0xbcc5d7ee	-0.024150815
43	0xbc98e0a1	-0.018661799
44	0x3bd7fe4c	0.006591594
45	0x3c003563	0.007825228
46	0x3a4139fe	0.0007371007
47	0xbbf505da	-0.007477504
48	0x3c7fde1f	0.015616923
49	0xbb92d6cd	-0.0044811727
50	0x3a93f383	0.0011287782
51	0x3a7e8ff7	0.00097107835
52	0x3cdf110e	0.027229812
53	0xbc27bbaa	-0.010237614
54	0xbc052ca7	-0.008128322
55	0xbbc5c344	-0.0060352404
56	0xba899cca	-0.0010498997
57	0xba69d473	-0.0008919902
58	0x3bcca46c	0.0062451866
59	0x3a27b582	0.0006397591
60	0xbadadf83	-0.0016698692
61	0xbc8d1be3	-0.017225211
62	0xbc823433	-0.015894031
63	0x3c1c6a3b	0.009546812
64	0xbac66764	-0.0015137014
65	0xba53390c	-0.0008057512
66	0x39686681	0.0002216343
67	0x3c3b0d6d	0.011416775
68	0xbbdc2fc1	-0.00671956
69	0x3bf5f5fd	0.0075061307
70	0x3ca165c2	0.019701842
71	0x3c1f8ea0	0.009738594
72	0x3c1a71b9	0.009426528
73	0x3c3db309	0.01157833
74	0x3c655fdf	0.013999908
75	0xbbe85f41	-0.0070914333
76	0xbc95f3ad	-0.01830467
77	0xb8c52fc5	-9.40259e-05
78	0x3c46f5bd	0.0121435495
79	0x3bf9fbcb	0.007628893
80	0x3bd50e12	0.0065019215
81	0x3beac422	0.007164494
82	0x3c8a3435	0.016870597
83	0xbbc1282c	-0.0058946814
84	0xbd0f47db	-0.034980636
85	0xbc2a89e7	-0.010408855
86	0x3bf2e6c6	0.0074127642
87	0x3d05ab4a	0.032634057
88	0x3c3c487d	0.011491892
89	0x3b18c2de	0.002330951
90	0x3b97e236	0.0046351207
91	0x3c439dfc	0.011939522
92	0xbb07e8d4	-0.0020738142
93	0xbc38e04d	-0.011283946
94	0xbcb4e033	-0.022079563
95	0xbb9de203	-0.0048182025
96	0x3bc00c28	0.005860824
97	0xbac96564	-0.00153653
98	0x3b5d03cc	0.0033724187
99	0xbbd4770a	-0.006483917
100	0xbbcbb4ca	-0.00621662
101	0xbbf2354f	-0.007391609
102	0x3c528ea0	0.012851387
103	0xbaa90d50	-0.0012897644
104	0xbc6a48bf	-0.014299571
105	0x3b8fdcc8	0.004390333
106	0xbb9a3c8e	-0.0047069257
107	0xbc0637b7	-0.008191994
108	0xbc4f1061	-0.012638182
109	0xbba5eac6	-0.0050633876
110	0x3d023aad	0.03179424
111	0x3bcfc3b0	0.0063404664
112	0xbbb6c329	-0.005577464
113	0x3cdd5902	0.027019981
114	0xbc1bc2ca	-0.009506891
115	0xbd175142	-0.036942728
116	0xbc4db8ef	-0.012556299
117	0xbc1d3112	-0.009594219
118	0xbb23c3db	-0.0024988565
119	0x3c30fa7e	0.0108019095
120	0x3c99ddf9	0.018782603
121	0x3cd1e83b	0.025623431
122	0xbca5182f	-0.020153133
123	0x3a53f331	0.00080852496
124	0x3c0fafff	0.008769988
125	0x3bb099b4	0.0053894166
126	0xbbdb0989	-0.0066844863
127	0x3c571f9b	0.013130094
128	0x3caaf084	0.02086664
129	0x3b37f14e	0.0028067413
130	0x3cfcd3fd	0.030862803
131	0xbcdc5d0f	-0.026899843
132	0xbc710462	-0.014710518
133	0xbbf30e46	-0.007417473
134	0xbc68b9a7	-0.014204419
135	0xb9cff293	-0.0003966285
136	0xbc9ee939	-0.019398319
137	0xbc8a0a7f	-0.016850708
138	0xbbc178ee	-0.0059043085
139	0xbb9cf270	-0.004789643
140	0xbbaa47b7	-0.0051965374
141	0xbc0df344	-0.008663956
142	0xbcaac2df	-0.020844875
143	0xbba81a1f	-0.005130067
144	0x3c24561a	0.010030294
145	0x3c10196b	0.008795123
146	0x384ef283	4.9340084e-05
147	0x3bb37e76	0.005477722
148	0xbae36c85	-0.0017351067
149	0xbc0a862c	-0.008454841
150	0xba9d1b11	-0.0011986216
151	0xbc0c9020	-0.008579284
152	0xbc9d58c1	-0.01920736
153	0x3c0f4689	0.008744844
154	0x374c35cb	1.2171872e-05
155	0x3b9abc4f	0.004722155
156	0x3c279e06	0.010230547
157	0xb91a8418	-0.00014735793
158	0xbb8c797b	-0.0042869425
159	0x3af2a77d	0.001851305
160	0x3aa6833d	0.0012703907
161	0x3b5ce8dd	0.0033708133
162	0x3bcfa1bc	0.006336419
163	0xbc80054b	-0.015627524
164	0xbba92039	-0.005161312
165	0x3c53fa14	0.012938041
166	0xbcf35d04	-0.02970744
167	0xbc4629d3	-0.012094933
168	0xbbaa7fe2	-0.005203233
169	0xbba5a3e6	-0.0050549386
170	0xbc314f97	-0.010822198
171	0x3bb7f1fe	0.0056135645
172	0x3b4711b1	0.0030375535
173	0xbc0016a7	-0.007817901
174	0xbb19a3e1	-0.0023443627
175	0x3acfdd48	0.0015858794
176	0xbbd96e1c	-0.0066354405
177	0x3c33376c	0.010938507
178	0xbbcf372f	-0.006323717
179	0x3b89519a	0.004190636
180	0xbc0a20ae	-0.008430643
181	0xbc64a2be	-0.013954816
182	0x3b3be15b	0.0028668258
183	0xbbc8af67	-0.006124425
184	0x3b98cadc	0.0046628546
185	0x3bb4041c	0.005493654
186	0x3c1b9313	0.009495514
187	0xbb2dbc51	-0.002650995
188	0x3b9a9537	0.004717495
189	0xbcad4a5c	-0.021153621
190	0xbc5a475e	-0.013322679
191	0x3ba86ae6	0.0051396964
192	0xbb440564	-0.002991044
193	0x3c58d3df	0.013234108
194	0xbc1ca272	-0.009560214
195	0xbce3468d	-0.027743602
196	0x3cae752f	0.021296112
197	0xbc86de52	-0.016463432
198	0xba390ac1	-0.00070587924
199	0x3c1bfc14	0.009520549
200	0x3d023c9e	0.03179609
201	0xbbcedec1	-0.0063131754
202	0xbb6812fb	-0.0035411704
203	0xbc736507	-0.01485563
204	0x3b3c66ce	0.00287478
205	0x3ba2f849	0.0049734456
206	0xbad7bbe3	-0.0016459193
207	0x3a98e9e1	0.0011666381
208	0x3b86ab11	0.004109748
209	0x3c4fc1e1	0.012680502
210	0x3b9e7e3b	0.004836825
211	0xbc03cf50	-0.008045033
212	0xbc4262e2	-0.011864396
213	0xbbae9c66	-0.0053287027
214	0x3c5021e8	0.012703396
215	0xbc4d2d4e	-0.0125230085
216	0xbc2dbb93	-0.010603803
217	0xbc01767d	-0.007901785
218	0x3ca425c8	0.020037547
219	0x3c30c1d4	0.0107884
220	0xbb0a622b	-0.0021115642
221	0x3c85529f	0.016274748
222	0xbcb30dd6	-0.021857183
223	0xbb74e947	-0.003737049
224	0xbbf2dded	-0.0074117095
225	0x3c4f0c82	0.012637259
226	0xbce5c463	-0.028047746
227	0x3ba7051a	0.0050970437
228	0x3b2bd661	0.002622031
229	0xbbc3aa2a	-0.005971213
230	0x3bc089bd	0.0058757947
231	0xbb986338	-0.0046504997
232	0xb9889130	-0.00026048115
233	0xbb857e61	-0.0040739034
234	0xbcb6b0a1	-0.02230102
235	0xbce8b0a4	-0.028404541
236	0xbaf37b35	-0.0018576147
237	0xbb9b446f	-0.0047383825
238	0xbca6b75a	-0.0203511
239	0x3b366b5f	0.0027834994
240	0xbc5214df	-0.012822359
241	0x3c4c058f	0.012452497
242	0x3c4d7d4a	0.012542078
243	0xb946d1ef	-0.00018960958
244	0x3d05d775	0.03267618
245	0x3c52bb2a	0.012862006
246	0x3cd2d302	0.025735382
247	0x3bdd0cbe	0.0067459038
248	0xbbc7f222	-0.0061018625
249	0xbbddc1cb	-0.0067674867
250	0x3b35a5a1	0.002771713
251	0xbcc0299c	-0.02345734
252	0xbcabd1ea	-0.020974118
253	0xbbd80beb	-0.0065932176
254	0xbb89178b	-0.0041837147
255	0x3beea9fe	0.0072834482

conv1.lin_dst.weight f4 [256, 256]
0	0x3da29b85	0.07939819
1	0xbbc4048c	-0.0059819873
2	0x3c1cf5c1	0.009580077
3	0xbcc6b3ac	-0.024255596
4	0x3c4b6c8d	0.012416017
5	0xbc71de75	-0.014762511
6	0xbc09c984	-0.0084098615
7	0x3a01a79f	0.0004945937
8	0x3c302616	0.010751268
9	0x3c630486	0.013856059
10	0x3b82ccec	0.0039917137
11	0xbb988be6	-0.004655349
12	0x3b8a1163	0.0042134984
13	0x3c3c1be4	0.011481259
14	0x3c866726	0.016406607
15	0xbca81258	-0.02051656
16	0xbb4cb283	-0.003123433
17	0x3c241f14	0.010017175
18	0xbc10bbe2	-0.008833857
19	0xbc2e4847	-0.010637349
20	0xbcdf7c5b	-0.027280977
21	0xbc3fe887	-0.011713154
22	0xbc3e922e	-0.011631532
23	0xbc9b9e4b	-0.018996378
24	0xbc9d1552	-0.019175205
25	0x3ba14735	0.0049218186
26	0x3bf9d751	0.0076245447
27	0x3c634ae2	0.013872834
28	0x3b827377	0.0039810496
29	0xb9c3df8b	-0.0003735985
30	0xbadd8205	-0.0016899711
31	0xbc8f50ad	-0.017494524
32	0xbc842e41	-0.016135337
33	0x3ccba2e1	0.02485794
34	0xbc53f682	-0.01293719
35	0x3ba7c2e4	0.0051196683
36	0x3c214e61	0.009845347
37	0x3cbaf520	0.022821963
38	0x3c029b3d	0.007971582
39	0xbbd049af	-0.00635644
40	0xbc3cf69b	-0.011533405
41	0x3ad142b1	0.001596531
42	0xbcc5d7ee	-0.024150815
43	0xbc98e0a1	-0.018661799
44	0x3bd7fe4c	0.006591594
45	0x3c003563	0.007825228
46	0x3a4139fe	0.0007371007
47	0xbbf505da	-0.007477504
48	0x3c7fde1f	0.015616923
49	0xbb92d6cd	-0.0044811727
50	0x3a93f383	0.0011287782
51	0x3a7e8ff7	0.00097107835
52	0x3cdf110e	0.027229812
53	0xbc27bbaa	-0.010237614
54	0xbc052ca7	-0.008128322
55	0xbbc5c344	-0.0060352404
56	0xba899cca	-0.0010498997
57	0xba69d473	-0.0008919902
58	0x3bcca46c	0.0062451866
59	0x3a27b582	0.0006397591
60	0xbadadf83	-0.0016698692
61	0xbc8d1be3	-0.017225211
62	0xbc823433	-0.015894031
63	0x3c1c6a3b	0.009546812
64	0xbac66764	-0.0015137014
65	0xba53390c	-0.0008057512
66	0x39686681	0.0002216343
67	0x3c3b0d6d	0.011416775
68	0xbbdc2fc1	-0.00671956
69	0x3bf5f5fd	0.0075061307
70	0x3ca165c2	0.019701842
71	0x3c1f8ea0	0.009738594
72	0x3c1a71b9	0.009426528
73	0x3c3db309	0.01157833
74	0x3c655fdf	0.013999908
75	0xbbe85f41	-0.0070914333
76	0xbc95f3ad	-0.01830467
77	0xb8c52fc5	-9.40259e-05
78	0x3c46f5bd	0.0121435495
79	0x3bf9fbcb	0.007628893
80	0x3bd50e12	0.0065019215
81	0x3beac422	0.007164494
82	0x3c8a3435	0.016870597
83	0xbbc1282c	-0.0058946814
84	0xbd0f47db	-0.034980636
85	0xbc2a89e7	-0.010408855
86	0x3bf2e6c6	0.0074127642
87	0x3d05ab4a	0.032634057
88	0x3c3c487d	0.011491892
89	0x3b18c2de	0.002330951
90	0x3b97e236	0.0046351207
91	0x3c439dfc	0.011939522
92	0xbb07e8d4	-0.0020738142
93	0xbc38e04d	-0.011283946
94	0xbcb4e033	-0.022079563
95	0xbb9de203	-0.0048182025
96	0x3bc00c28	0.005860824
97	0xbac96564	-0.00153653
98	0x3b5d03cc	0.0033724187
99	0xbbd4770a	-0.006483917
100	0xbbcbb4ca	-0.00621662
101	0xbbf2354f	-0.007391609
102	0x3c528ea0	0.012851387
103	0xbaa90d50	-0.0012897644
104	0xbc6a48bf	-0.014299571
105	0x3b8fdcc8	0.004390333
106	0xbb9a3c8e	-0.0047069257
107	0xbc0637b7	-0.008191994
108	0xbc4f1061	-0.012638182
109	0xbba5eac6	-0.0050633876
110	0x3d023aad	0.03179424
111	0x3bcfc3b0	0.0063404664
112	0xbbb6c329	-0.005577464
113	0x3cdd5902	0.027019981
114	0xbc1bc2ca	-0.009506891
115	0xbd175142	-0.036942728
116	0xbc4db8ef	-0.012556299
117	0xbc1d3112	-0.009594219
118	0xbb23c3db	-0.0024988565
119	0x3c30fa7e	0.0108019095
120	0x3c99ddf9	0.018782603
121	0x3cd1e83b	0.025623431
122	0xbca5182f	-0.020153133
123	0x3a53f331	0.00080852496
124	0x3c0fafff	0.008769988
125	0x3bb099b4	0.0053894166
126	0xbbdb0989	-0.0066844863
127	0x3c571f9b	0.013130094
128	0x3caaf084	0.02086664
129	0x3b37f14e	0.0028067413
130	0x3cfcd3fd	0.030862803
131	0xbcdc5d0f	-0.026899843
132	0xbc710462	-0.014710518
133	0xbbf30e46	-0.007417473
134	0xbc68b9a7	-0.014204419
135	0xb9cff293	-0.0003966285
136	0xbc9ee939	-0.019398319
137	0xbc8a0a7f	-0.016850708
138	0xbbc178ee	-0.0059043085
139	0xbb9cf270	-0.004789643
140	0xbbaa47b7	-0.0051965374
141	0xbc0df344	-0.008663956
142	0xbcaac2df	-0.020844875
143	0xbba81a1f	-0.005130067
144	0x3c24561a	0.010030294
145	0x3c10196b	0.008795123
146	0x384ef283	4.9340084e-05
147	0x3bb37e76	0.005477722
148	0xbae36c85	-0.0017351067
149	0xbc0a862c	-0.008454841
150	0xba9d1b11	-0.0011986216
151	0xbc0c9020	-0.008579284
152	0xbc9d58c1	-0.01920736
153	0x3c0f4689	0.008744844
154	0x374c35cb	1.2171872e-05
155	0x3b9abc4f	0.004722155
156	0x3c279e06	0.010230547
157	0xb91a8418	-0.00014735793
158	0xbb8c797b	-0.0042869425
159	0x3af2a77d	0.001851305
160	0x3aa6833d	0.0012703907
161	0x3b5ce8dd	0.0033708133
162	0x3bcfa1bc	0.006336419
163	0xbc80054b	-0.015627524
164	0xbba92039	-0.005161312
165	0x3c53fa14	0.012938041
166	0xbcf35d04	-0.02970744
167	0xbc4629d3	-0.012094933
168	0xbbaa7fe2	-0.005203233
169	0xbba5a3e6	-0.0050549386
170	0xbc314f97	-0.010822198
171	0x3bb7f1fe	0.0056135645
172	0x3b4711b1	0.0030375535
173	0xbc0016a7	-0.007817901
174	0xbb19a3e1	-0.0023443627
175	0x3acfdd48	0.0015858794
176	0xbbd96e1c	-0.0066354405
177	0x3c33376c	0.010938507
178	0xbbcf372f	-0.006323717
179	0x3b89519a	0.004190636
180	0xbc0a20ae	-0.008430643
181	0xbc64a2be	-0.013954816
182	0x3b3be15b	0.0028668258
183	0xbbc8af67	-0.006124425
184	0x3b98cadc	0.0046628546
185	0x3bb4041c	0.005493654
186	0x3c1b9313	0.009495514
187	0xbb2dbc51	-0.002650995
188	0x3b9a9537	0.004717495
189	0xbcad4a5c	-0.021153621
190	0xbc5a475e	-0.013322679
191	0x3ba86ae6	0.0051396964
192	0xbb440564	-0.002991044
193	0x3c58d3df	0.013234108
194	0xbc1ca272	-0.009560214
195	0xbce3468d	-0.027743602
196	0x3cae752f	0.021296112
197	0xbc86de52	-0.016463432
198	0xba390ac1	-0.00070587924
199	0x3c1bfc14	0.009520549
200	0x3d023c9e	0.03179609
201	0xbbcedec1	-0.0063131754
202	0xbb6812fb	-0.0035411704
203	0xbc736507	-0.01485563
204	0x3b3c66ce	0.00287478
205	0x3ba2f849	0.0049734456
206	0xbad7bbe3	-0.0016459193
207	0x3a98e9e1	0.0011666381
208	0x3b86ab11	0.004109748
209	0x3c4fc1e1	0.012680502
210	0x3b9e7e3b	0.004836825
211	0xbc03cf50	-0.008045033
212	0xbc4262e2	-0.011864396
213	0xbbae9c66	-0.0053287027
214	0x3c5021e8	0.012703396
215	0xbc4d2d4e	-0.0125230085
216	0xbc2dbb93	-0.010603803
217	0xbc01767d	-0.007901785
218	0x3ca425c8	0.020037547
219	0x3c30c1d4	0.0107884
220	0xbb0a622b	-0.0021115642
221	0x3c85529f	0.016274748
222	0xbcb30dd6	-0.021857183
223	0xbb74e947	-0.003737049
224	0xbbf2dded	-0.0074117095
225	0x3c4f0c82	0.012637259
226	0xbce5c463	-0.028047746
227	0x3ba7051a	0.0050970437
228	0x3b2bd661	0.002622031
229	0xbbc3aa2a	-0.005971213
230	0x3bc089bd	0.0058757947
231	0xbb986338	-0.0046504997
232	0xb9889130	-0.00026048115
233	0xbb857e61	-0.0040739034
234	0xbcb6b0a1	-0.02230102
235	0xbce8b0a4	-0.028404541
236	0xbaf37b35	-0.0018576147
237	0xbb9b446f	-0.0047383825
238	0xbca6b75a	-0.0203511
239	0x3b366b5f	0.0027834994
240	0xbc5214df	-0.012822359
241	0x3c4c058f	0.012452497
242	0x3c4d7d4a	0.012542078
243	0xb946d1ef	-0.00018960958
244	0x3d05d775	0.03267618
245	0x3c52bb2a	0.012862006
246	0x3cd2d302	0.025735382
247	0x3bdd0cbe	0.0067459038
248	0xbbc7f222	-0.0061018625
249	0xbbddc1cb	-0.0067674867
250	0x3b35a5a1	0.002771713
251	0xbcc0299c	-0.02345734
252	0xbcabd1ea	-0.020974118
253	0xbbd80beb	-0.0065932176
254	0xbb89178b	-0.0041837147
255	0x3beea9fe	0.0072834482

conv2.att_src f4 [1, 8, 32]
0	0x23aedf79	1.8959762e-17
1	0x132d7f82	2.1898536e-27
2	0x117e49f5	2.0059857e-28
3	0x0016ffa3	2.112086e-39
4	0x20a8ce8f	2.8596996e-19
5	0x18b1740d	4.587061e-24
6	0xb0b0832c	-1.2842967e-09
7	0x215438dd	7.190365e-19
8	0xae6ddcdc	-5.4083724e-11
9	0x075bc6d1	1.6534156e-34
10	0xb27dfcc2	-1.4784009e-08
11	0x86f4da03	-9.210294e-35
12	0x8b327bea	-3.4374776e-32
13	0x837331d9	-7.1468504e-37
14	0xa7e87255	-6.4516894e-15
15	0x9c92123a	-9.666181e-22
16	0xb20aecfb	-8.08654e-09
17	0xa9a40d19	-7.285335e-14
18	0x0deacd12	1.4470732e-30
19	0x2ca06ff6	4.5599037e-12
20	0xb4265ada	-1.5493006e-07
21	0x0af0a6ee	2.3173951e-32
22	0xb4dfc23a	-4.1678305e-07
23	0x8e06006b	-1.6516976e-30
24	0x8738688d	-1.3873346e-34
25	0x80032cdb	-2.91598e-40
26	0x2478ecb2	5.3976916e-17
27	0xa8c8b6da	-2.228376e-14
28	0xa9a7ac46	-7.4461745e-14
29	0xb4aad2b2	-3.1818269e-07
30	0xb4aaf652	-3.184419e-07
31	0x2f727d0e	2.20542e-10
32	0x00b6255c	1.6727462e-38
33	0xaf744e43	-2.2219475e-10
34	0x32202de3	9.323659e-09
35	0x000038b6	2.0344e-41
36	0xb48ac51e	-2.5847925e-07
37	0x14a62389	1.6775733e-26
38	0x1d436203	2.5858706e-21
39	0xadcc6750	-2.3237995e-11
40	0xa9944191	-6.583894e-14
41	0xb300294f	-2.9839892e-08
42	0x014cdc1e	3.762681e-38
43	0xabc0197e	-1.3649496e-12
44	0x1beaebdc	3.8864473e-22
45	0x0b7716eb	4.758771e-32
46	0x805a2218	-8.277425e-39
47	0x05db79fa	2.0639468e-35
48	0x00360c17	4.963454e-39
49	0xb2a3ff84	-1.9091893e-08
50	0xaf9249f2	-2.6609787e-10
51	0xb2436f33	-1.1375778e-08
52	0x0e023ab7	1.6052007e-30
53	0x05d6d848	2.0203912e-35
54	0xb11e496a	-2.3033757e-09
55	0x11e7fdc4	3.660177e-28
56	0x004b60c0	6.92237e-39
57	0x88b61865	-1.0959462e-33
58	0x00031919	2.8451e-40
59	0x330327c9	3.0537e-08
60	0x9348a6fc	-2.5325879e-27
61	0x03545ac9	6.2405417e-37
62	0x34a047b1	2.9854485e-07
63	0x80075344	-6.72719e-40
64	0x21897e57	9.316923e-19
65	0x80002fa9	-1.7097e-41
66	0xb382803e	-6.076924e-08
67	0x338fd15d	6.6970394e-08
68	0x81781276	-4.556365e-38
69	0x0028a5eb	3.73294e-39
70	0x3573c26d	9.080748e-07
71	0x225d2639	2.997132e-18
72	0xb12a5fe7	-2.479277e-09
73	0x8001e45b	-1.73754e-40
74	0x2ad53024	3.7869805e-13
75	0xa08fd653	-2.436697e-19
76	0xafc3440d	-3.5518646e-10
77	0xacf8c818	-7.070799e-12
78	0x108c4f6e	5.5342644e-29
79	0x9590e98f	-5.852963e-26
80	0xacced490	-5.8784713e-12
81	0x80010f86	-9.7404e-41
82	0x34ac9991	3.214923e-07
83	0x80006426	-3.5926e-41
84	0x94bbba18	-1.8955576e-26
85	0x00017c1c	1.36358e-40
86	0x807addb6	-1.1283465e-38
87	0x80003be9	-2.1492e-41
88	0x800aa9a2	-9.79208e-40
89	0x95f1f72b	-9.772909e-26
90	0x350e97eb	5.312019e-07
91	0x2d69b2bd	1.32842045e-11
92	0x05e496f2	2.1496466e-35
93	0xa844ea15	-1.0930944e-14
94	0xb100c83e	-1.8740276e-09
95	0x990c6972	-7.259125e-24
96	0x0001424b	1.15617e-40
97	0x1f82ff04	5.547903e-20
98	0x3118c8ac	2.223298e-09
99	0x087e8284	7.6588765e-34
100	0x08427318	5.8515043e-34
101	0xabce582b	-1.4661652e-12
102	0x35193b84	5.708355e-07
103	0x2755534a	2.960484e-15
104	0x220520ca	1.804222e-18
105	0x00002712	1.4016e-41
106	0x1445a9f3	9.979475e-27
107	0xb1d05f8c	-6.064459e-09
108	0xb41dfbbe	-1.4713348e-07
109	0x1ddb3e0b	5.803297e-21
110	0x9ffe5684	-1.0771631e-19
111	0x826e5209	-1.7509021e-37
112	0x142b5e71	8.651919e-27
113	0x351fdea9	5.955613e-07
114	0x25346afd	1.564876e-16
115	0x00014940	1.18113e-40
116	0x020ac750	1.0195839e-37
117	0x80009d75	-5.6485e-41
118	0xb4dd50d1	-4.122326e-07
119	0x01d4ca3d	7.81667e-38
120	0x0542059b	9.122866e-36
121	0x9da454da	-4.3498173e-21
122	0x00032582	2.88962e-40
123	0x2e4651d5	4.509267e-11
124	0x8dc0d9a8	-1.1885312e-30
125	0x34704259	2.2375879e-07
126	0xa534417f	-1.5634702e-16
127	0x800575a5	-5.0138e-40
128	0xa659b46b	-7.553151e-16
129	0x34912a84	2.703929e-07
130	0xac4ec355	-2.9382792e-12
131	0x8028c76a	-3.744956e-39
132	0x9dc28934	-5.1493237e-21
133	0x21827eec	8.842739e-19
134	0x98503fc8	-2.6915571e-24
135	0x1b14e6ac	1.2316807e-22
136	0x0a5e9d2a	1.07184705e-32
137	0x80235c92	-3.24745e-39
138	0x00022c70	1.99612e-40
139	0xb07dd8d7	-9.234901e-10
140	0xa61c3841	-5.419961e-16
141	0x202e384a	1.4756998e-19
142	0x304fd1f5	7.560453e-10
143	0x8003c33f	-3.45548e-40
144	0x80179100	-2.164233e-39
145	0x180b4bb7	1.8003555e-24
146	0x1b099232	1.1379613e-22
147	0xb408597e	-1.2698544e-07
148	0x344cda85	1.9078477e-07
149	0x1d311be0	2.3440166e-21
150	0x20ae4ccc	2.9527566e-19
151	0x90366323	-3.5969543e-29
152	0x83b37844	-1.0548286e-36
153	0x0009843a	8.73953e-40
154	0x183f9c8d	2.476521e-24
155	0xaf9df8a2	-2.8734798e-10
156	0x153c0da6	3.7977064e-26
157	0x24af1e7a	7.594578e-17
158	0x8005451b	-4.83968e-40
159	0x8287029f	-1.9837972e-37
160	0x348c4697	2.6128393e-07
161	0x2f8a5f4e	2.5169772e-10
162	0x8001426c	-1.15663e-40
163	0x2509ffd2	1.1969531e-16
164	0x8001cb3a	-1.6474e-40
165	0x18594a1f	2.8084014e-24
166	0x80035a8e	-3.07991e-40
167	0x80412373	-5.982024e-39
168	0x18514c7e	2.7051236e-24
169	0xb5048e74	-4.938113e-07
170	0x2ac44862	3.486682e-13
171	0x2f6d7bec	2.159905e-10
172	0x8b330677	-3.447901e-32
173	0x800820d6	-7.46463e-40
174	0x2c3ae7bf	2.6560835e-12
175	0x80022c86	-1.99643e-40
176	0x8425af0e	-1.9476038e-36
177	0x33512350	4.869372e-08
178	0xacaaf47a	-4.858833e-12
179	0xa6101442	-4.998749e-16
180	0xa9aeb2e8	-7.7581875e-14
181	0x3268eeb7	1.3558455e-08
182	0xadd304ee	-2.3990112e-11
183	0x349e8454	2.9526075e-07
184	0xb30cdec5	-3.2798898e-08
185	0x00ae24fd	1.5992645e-38
186	0x0001202a	1.03374e-40
187	0xac74d2de	-3.479154e-12
188	0x2c8cd7e3	4.0030076e-12
189	0xa16b60a4	-7.9749e-19
190	0x000b7d2e	1.055096e-39
191	0x87888d9e	-2.054624e-34
192	0x0d3f46d1	5.894166e-31
193	0xa9ecc5d4	-1.0514823e-13
194	0xab3e1163	-6.752569e-13
195	0xb45b31c8	-2.0414075e-07
196	0x95e4a175	-9.23432e-26
197	0x81cabe9c	-7.447659e-38
198	0x9a21a34a	-3.3425924e-23
199	0x000237d2	2.03696e-40
200	0x0209203f	1.0074425e-37
201	0x0004b99e	4.33929e-40
202	0x8c16c354	-1.1614359e-31
203	0xb23ca156	-1.0979724e-08
204	0x18ceb807	5.3435572e-24
205	0x1dfb9ea5	6.660318e-21
206	0x803160db	-4.534685e-39
207	0x9f4169b0	-4.0956762e-20
208	0x82400f42	-1.4110311e-37
209	0xa99eed09	-7.0577286e-14
210	0xb3c1ecfc	-9.03037e-08
211	0x90825ce1	-5.141906e-29
212	0x325ed7a1	1.2971129e-08
213	0x04f75271	5.814513e-36
214	0x06f9b997	9.393609e-35
215	0x8a4f2c73	-9.9750474e-33
216	0x82cb6536	-2.9886261e-37
217	0xab09e718	-4.8992884e-13
218	0x0d0309fb	4.0379505e-31
219	0x002e6073	4.259032e-39
220	0x24536a29	4.5843253e-17
221	0x3181001f	3.754408e-09
222	0x2e852157	6.054062e-11
223	0x3443c77a	1.823336e-07
224	0x2b779cc9	8.796961e-13
225	0x036d2665	6.9692115e-37
226	0x34e2ba6f	4.223143e-07
227	0x29d61187	9.5065496e-14
228	0x80dc4ab1	-2.0230603e-38
229	0x8007f551	-7.30851e-40
230	0x0a7c7ed0	1.21572094e-32
231	0x88e08149	-1.3511904e-33
232	0x287b3020	1.3943734e-14
233	0x31b7fb72	5.354587e-09
234	0xaa80617e	-2.2805016e-13
235	0x0b936eff	5.678935e-32
236	0x0001cdc7	1.65654e-40
237	0xb4ca5336	-3.7685976e-07
238	0x2b035c93	4.666902e-13
239	0xb1053d40	-1.9388864e-09
240	0x80102411	-1.482306e-39
241	0x0004c348	4.37396e-40
242	0x9693ff1d	-2.391013e-25
243	0xa73f0ade	-2.6512466e-15
244	0x1467aade	1.1696217e-26
245	0x0000ecc0	8.493e-41
246	0x3525f7c5	6.182784e-07
247	0x318b17a1	4.0481187e-09
248	0xa9398a7b	-4.1198365e-14
249	0x3511eb05	5.435871e-07
250	0x049b6168	3.652978e-36
251	0x81271628	-3.0688952e-38
252	0x80023719	-2.03436e-40
253	0xb519be0d	-5.72735e-07
254	0xa723ff00	-2.275903e-15
255	0x8136015f	-3.3429104e-38
