SCG-SFFL-main/SFFL/pretrained_models/binnavi.pt (torch, 799425 bytes, 15 tensors)

conv1.att_src f4 [1, 8, 32]
0	0x000028c5	1.4625e-41
1	0xa9c2b34b	-8.646433e-14
2	0x800049c3	-2.6461e-41
3	0x06dfab67	8.413513e-35
4	0x8f1e2edf	-7.7990285e-30
5	0x00001f6a	1.1269e-41
6	0x000015d9	7.837e-42
7	0x130a09d8	1.7422902e-27
8	0x80004d42	-2.7715e-41
9	0x00002d3b	1.6226e-41
10	0x855b5ef7	-1.0314773e-35
11	0x00002af3	1.5407e-41
12	0x000017c2	8.523e-42
13	0x000014a9	7.411e-42
14	0x29385c42	4.0936228e-14
15	0x21819ceb	8.782916e-19
16	0x00000554	1.911e-42
17	0x800016a7	-8.126e-42
18	0xa601b340	-4.4998795e-16
19	0x800019d5	-9.267e-42
20	0x80001779	-8.42e-42
21	0x88a4f9cd	-9.929119e-34
22	0x13328c2a	2.2535865e-27
23	0x00137310	1.786151e-39
24	0x806c5eb9	-9.952214e-39
25	0x1f512ae1	4.429294e-20
26	0x800005e1	-2.109e-42
27	0x000038d6	2.0389e-41
28	0x80002b4e	-1.5535e-41
29	0x0000180b	8.625e-42
30	0x000003b3	1.327e-42
31	0x000367fc	3.12809e-40
32	0x800006d1	-2.445e-42
33	0x1661897a	1.8218735e-25
34	0x000028f2	1.4688e-41
35	0xa59b500d	-2.6942458e-16
36	0x000021e7	1.2162e-41
37	0x00003306	1.8304e-41
38	0x00002695	1.384e-41
39	0x80008367	-4.7138e-41
40	0x2c40526e	2.7330599e-12
41	0x000001cd	6.46e-43
42	0x0f6907e5	1.1489307e-29
43	0x00000caa	4.543e-42
44	0x80000d1c	-4.703e-42
45	0x800004f9	-1.784e-42
46	0x2982471a	5.785494e-14
47	0x00002d59	1.6268e-41
48	0x9fcd5a46	-8.697022e-20
49	0x9e937862	-1.561402e-20
50	0x2bfa8c61	1.7802531e-12
51	0x27c4c0f0	5.461011e-15
52	0x83b71b2b	-1.0762011e-36
53	0x0d8b4b1c	8.584618e-31
54	0x031a8d64	4.541884e-37
55	0x80006009	-3.4451e-41
56	0x00003c35	2.1598e-41
57	0x800037cc	-2.0016e-41
58	0x800cade9	-1.164413e-39
59	0x80002cf6	-1.6129e-41
60	0x800037fa	-2.008e-41
61	0x80000966	-3.372e-42
62	0x800026f9	-1.3981e-41
63	0x80002317	-1.2588e-41
64	0x00002750	1.4103e-41
65	0x8000075c	-2.64e-42
66	0x8000029e	-9.39e-43
67	0x0ab5cef6	1.7507516e-32
68	0x27c34877	5.420194e-15
69	0xa947c88b	-4.436082e-14
70	0x01b4e125	6.6444624e-38
71	0x00001016	5.77e-42
72	0x006e5ddb	1.0135574e-38
73	0x930428be	-1.668083e-27
74	0x22f19322	6.5478964e-18
75	0xac48f0ae	-2.8555313e-12
76	0x00001297	6.669e-42
77	0x0000656a	3.638e-41
78	0x8171dac2	-4.442166e-38
79	0x006b2694	9.840237e-39
80	0x000014c6	7.452e-42
81	0xa9c5ede3	-8.789824e-14
82	0x00000b6a	4.095e-42
83	0x00001145	6.195e-42
84	0xa11ec0a7	-5.3787456e-19
85	0x0000090d	3.247e-42
86	0x9ad42816	-8.774591e-23
87	0x126cf8e7	7.4775265e-28
88	0x0000653c	3.6316e-41
89	0xaae67266	-4.0935587e-13
90	0x2be9c430	1.6610099e-12
91	0x80000f32	-5.451e-42
92	0x000022f7	1.2543e-41
93	0x900da4a4	-2.793418e-29
94	0x0d95c9a3	9.231376e-31
95	0x000029f8	1.5056e-41
96	0x2a0b5755	1.237598e-13
97	0x24aef09a	7.5868066e-17
98	0x24909972	6.270999e-17
99	0x80002085	-1.1666e-41
100	0x00001ae6	9.65e-42
101	0x800028d6	-1.4649e-41
102	0x9c98fbcc	-1.0123604e-21
103	0x00000317	1.108e-42
104	0x1ac23931	8.032892e-23
105	0x0ddd8734	1.3652726e-30
106	0x27afbb0a	4.8775045e-15
107	0x800012ba	-6.718e-42
108	0x8000146a	-7.323e-42
109	0x8a24053c	-7.897297e-33
110	0x0064ddb6	9.263085e-39
111	0x290d3562	3.135459e-14
112	0x04a19b68	3.7993636e-36
113	0x9a9bd8a5	-6.4456506e-23
114	0x00001f0c	1.1138e-41
115	0x80001b0f	-9.707e-42
116	0x8000686f	-3.7464e-41
117	0x800010ff	-6.097e-42
118	0x80002b11	-1.545e-41
119	0x9605528c	-1.0769702e-25
120	0x0000323f	1.8025e-41
121	0x00000ea6	5.255e-42
122	0x031131b8	4.2668745e-37
123	0x80001e73	-1.0923e-41
124	0x8bf4086b	-9.399805e-32
125	0x80001198	-6.311e-42
126	0x800018db	-8.916e-42
127	0x00000b6c	4.097e-42
128	0x09f992d2	6.008264e-33
129	0x23584065	1.17230195e-17
130	0x10a5356e	6.5163346e-29
131	0x1c14ed96	4.9276165e-22
132	0x00000df5	5.007e-42
133	0x21797802	8.452331e-19
134	0x2c36bf8a	2.5970081e-12
135	0x29396a6d	4.117056e-14
136	0x0003c4f1	3.46156e-40
137	0x00000f6d	5.534e-42
138	0xaac029c3	-3.413503e-13
139	0x83417889	-5.685597e-37
140	0x9ae4f371	-9.469189e-23
141	0xa3113a4f	-7.872813e-18
142	0x29288591	3.7419344e-14
143	0x80001f81	-1.1301e-41
144	0xa42ec253	-3.7894835e-17
145	0x971a74c9	-4.9907487e-25
146	0x9495c15f	-1.5121427e-26
147	0x00008743	4.8523e-41
148	0x80000fa1	-5.607e-42
149	0x80000340	-1.166e-42
150	0x800030b2	-1.7469e-41
151	0x800004ef	-1.77e-42
152	0x80003eb5	-2.2495e-41
153	0x81702585	-4.4107957e-38
154	0x95db51f1	-8.8582676e-26
155	0x038ad23a	8.159177e-37
156	0x80001bb2	-9.935e-42
157	0x8866d5e7	-6.946455e-34
158	0x800069b6	-3.7922e-41
159	0x800005c7	-2.073e-42
160	0x871e572a	-1.1912214e-34
161	0x27a12cd0	4.4735063e-15
162	0x80003b4c	-2.1272e-41
163	0x800393fa	-3.2859e-40
164	0x80000520	-1.839e-42
165	0x00001465	7.316e-42
166	0x0bc4ffaa	7.5881134e-32
167	0x80000e68	-5.168e-42
168	0x00002d19	1.6178e-41
169	0x00003491	1.8857e-41
170	0x9d4111ac	-2.5552473e-21
171	0x85bb40f9	-1.7609263e-35
172	0x80000a63	-3.726e-42
173	0x1b7cf03f	2.0922579e-22
174	0x0da3ffe3	1.0107253e-30
175	0xa4827cd5	-5.6589987e-17
176	0x2b0adf29	4.9337146e-13
177	0x80002982	-1.489e-41
178	0x800012d5	-6.756e-42
179	0x00000c16	4.336e-42
180	0x00008197	4.6488e-41
181	0x800024de	-1.3225e-41
182	0x9ae93ffb	-9.646991e-23
183	0x8a9149df	-1.399078e-32
184	0x9a065a03	-2.778326e-23
185	0x1324e1b2	2.0810987e-27
186	0x8000502c	-2.876e-41
187	0xa496e00a	-6.543167e-17
188	0x19c5c2c1	2.0447983e-23
189	0x800e7b06	-1.32983e-39
190	0x94199b3e	-7.755142e-27
191	0x16a64ec0	2.6868445e-25
192	0x109a70b3	6.091593e-29
193	0x15e04e51	9.059644e-26
194	0x80001114	-6.126e-42
195	0x9f83cea5	-5.582252e-20
196	0x00000169	5.06e-43
197	0x00002448	1.3015e-41
198	0x80000524	-1.844e-42
199	0x00003870	2.0246e-41
200	0x80004afc	-2.69e-41
201	0x000040d4	2.3256e-41
202	0x80001329	-6.873e-42
203	0x9f153a1f	-3.1600054e-20
204	0x1aab8744	7.0942476e-23
205	0x00000459	1.56e-42
206	0x800026e5	-1.3953e-41
207	0x95296753	-3.4210787e-26
208	0x80002376	-1.2721e-41
209	0x00002663	1.377e-41
210	0x1c623207	7.4841786e-22
211	0x9e893e42	-1.4531188e-20
212	0x80001c17	-1.0077e-41
213	0x24c7db4e	8.667401e-17
214	0x8631c127	-3.3431906e-35
215	0x2a4d5c70	1.8239728e-13
216	0x00001fcf	1.1411e-41
217	0x00001426	7.228e-42
218	0x800046bd	-2.5376e-41
219	0x00002530	1.334e-41
220	0x2378abee	1.34805145e-17
221	0x829f599f	-2.341439e-37
222	0x00002e70	1.6659e-41
223	0x991df91e	-8.1670186e-24
224	0x80001cd7	-1.0346e-41
225	0xaa54bcc0	-1.8894868e-13
226	0x00001a06	9.335e-42
227	0x213684a0	6.1839526e-19
228	0x00002e2e	1.6566e-41
229	0x8016f09d	-2.106697e-39
230	0x1319ef27	1.9429226e-27
231	0x0c06c7a4	1.0383062e-31
232	0x00000445	1.532e-42
233	0x2b5ca4c0	7.838834e-13
234	0x2bd6bce3	1.5258041e-12
235	0xa5b9a3a7	-3.220328e-16
236	0x800002ed	-1.05e-42
237	0x0000046a	1.583e-42
238	0x1a062e44	2.7747924e-23
239	0xa958bdb9	-4.8126193e-14
240	0x832a6c6c	-5.008297e-37
241	0x873bc976	-1.412752e-34
242	0x1ae7a51e	9.580612e-23
243	0x9a33703e	-3.7107e-23
244	0x80001831	-8.678e-42
245	0x80005430	-3.0201e-41
246	0x8000043a	-1.516e-42
247	0x0c470486	1.5331764e-31
248	0x80000e09	-5.035e-42
249	0x8397a3db	-8.912602e-37
250	0x000022e3	1.2515e-41
251	0x0000288f	1.455e-41
252	0x2af62957	4.3727064e-13
253	0x8000144f	-7.285e-42
254	0x000025fc	1.3626e-41
255	0x000022cd	1.2484e-41

conv1.att_dst f4 [1, 8, 32]
0	0x80000d61	-4.8e-42
1	0x800021d1	-1.2131e-41
2	0x000132ee	1.10106e-40
3	0x22386e6b	2.4995105e-18
4	0x000028f1	1.4687e-41
5	0x00004039	2.3039e-41
6	0x000001cc	6.45e-43
7	0x8d22eede	-5.020763e-31
8	0x2ba3063e	1.1583579e-12
9	0x238f770f	1.5554514e-17
10	0x8000048e	-1.634e-42
11	0x0f82f6a2	1.2913989e-29
12	0x80026f4c	-2.23597e-40
13	0x02c33026	2.868031e-37
14	0x80000d0b	-4.679e-42
15	0x80004443	-2.4488e-41
16	0x9ae21629	-9.350721e-23
17	0x80002553	-1.339e-41
18	0x85cd57e1	-1.9310389e-35
19	0x1c1b7ad5	5.1443955e-22
20	0x960d3931	-1.1407936e-25
21	0x134b8b22	2.56908e-27
22	0x80008195	-4.6485e-41
23	0x2b5fdac7	7.952913e-13
24	0x800043f1	-2.4373e-41
25	0x8000372a	-1.9789e-41
26	0x08c1913a	1.1649908e-33
27	0x000015f0	7.87e-42
28	0x2af9c8fe	4.4370752e-13
29	0x000010b2	5.989e-42
30	0x22599d12	2.9492136e-18
31	0x000008e7	3.194e-42
32	0x00002b70	1.5582e-41
33	0xa7bbc7ea	-5.2119674e-15
34	0x94a16936	-1.6298344e-26
35	0x8000c337	-7.003e-41
36	0xa9280486	-3.7307417e-14
37	0x12219ab8	5.099335e-28
38	0x2c2695d4	2.367319e-12
39	0x2904a4c0	2.9452786e-14
40	0xaa486d90	-1.780158e-13
41	0x8074ae91	-1.071554e-38
42	0x895440a9	-2.5548975e-33
43	0x80001cad	-1.0287e-41
44	0x00820e45	1.1943733e-38
45	0x18a1944b	4.1767262e-24
46	0x8bea9fed	-9.037415e-32
47	0x80001daf	-1.0648e-41
48	0x000000bd	2.65e-43
49	0x000015fe	7.89e-42
50	0x16aef0e4	2.826324e-25
51	0x00002608	1.3643e-41
52	0x80001c49	-1.0147e-41
53	0x800040f6	-2.3304e-41
54	0x91991a54	-2.415537e-28
55	0x1a68ede3	4.816864e-23
56	0x0f8ee96a	1.4092189e-29
57	0x25fd026c	4.3890145e-16
58	0x000038ac	2.033e-41
59	0xa3ba8e5d	-2.0226454e-17
60	0x00002536	1.3349e-41
61	0x135556de	2.6927208e-27
62	0x0000286f	1.4505e-41
63	0x0000360c	1.9388e-41
64	0x80002f22	-1.6908e-41
65	0x8000076a	-2.66e-42
66	0x003d2d88	5.618299e-39
67	0x00008733	4.85e-41
68	0xa8dd0fa7	-2.4542717e-14
69	0x8bf03cfe	-9.253641e-32
70	0x8000195c	-9.097e-42
71	0x8000573f	-3.1298e-41
72	0x1050d8b6	4.1187715e-29
73	0x00000454	1.553e-42
74	0x1d2f6db2	2.3217768e-21
75	0x1a0d4747	2.9215694e-23
76	0x97a87fad	-1.0888975e-24
77	0x000017d0	8.542e-42
78	0x80003fea	-2.2928e-41
79	0x9aac2339	-7.119444e-23
80	0x804f6acc	-7.293316e-39
81	0x15f05e65	9.7084156e-26
82	0x800006d4	-2.45e-42
83	0xa8436e0c	-1.0848537e-14
84	0x00002b04	1.5431e-41
85	0x138541cd	3.3638805e-27
86	0x00005d0b	3.3378e-41
87	0x1ff62948	1.04253347e-19
88	0x8000280e	-1.4369e-41
89	0x84b5097d	-4.256161e-36
90	0x217e222c	8.6103774e-19
91	0x00000183	5.42e-43
92	0x80005deb	-3.3691e-41
93	0xa8369556	-1.0135412e-14
94	0x800025a8	-1.3509e-41
95	0xa33815dd	-9.97929e-18
96	0x000024f1	1.3252e-41
97	0x80001889	-8.802e-42
98	0x00000a11	3.611e-42
99	0x29ad3644	7.692157e-14
100	0x800000f9	-3.49e-43
101	0x8000234e	-1.2665e-41
102	0x09d2d2ec	5.075401e-33
103	0xa350f530	-1.1327623e-17
104	0xac23e5dd	-2.3291293e-12
105	0x9397a8ae	-3.828409e-27
106	0x0000082a	2.929e-42
107	0x138211ac	3.283404e-27
108	0x80037f18	-3.21099e-40
109	0x800caaaf	-1.163256e-39
110	0x00002f85	1.7047e-41
111	0x27183914	2.112518e-15
112	0x80000920	-3.273e-42
113	0x80002b3a	-1.5507e-41
114	0x8e37a66e	-2.2636624e-30
115	0x0000217f	1.2016e-41
116	0x00001e29	1.082e-41
117	0x800006ca	-2.435e-42
118	0xab3e53f8	-6.761809e-13
119	0x00010066	9.1978e-41
120	0x0000398e	2.0647e-41
121	0x93667521	-2.908783e-27
122	0x00002e6e	1.6656e-41
123	0x8003c7cb	-3.47179e-40
124	0x96c2126c	-3.1354016e-25
125	0xaa07e761	-1.2070684e-13
126	0x1d5452e5	2.8100822e-21
127	0x0000161f	7.936e-42
128	0x802d0125	-4.133008e-39
129	0x29b12ca7	7.868125e-14
130	0x2b8bd678	9.936071e-13
131	0x853cb35e	-8.872662e-36
132	0x00005503	3.0496e-41
133	0xa39a7df4	-1.6750057e-17
134	0x93012e57	-1.6304936e-27
135	0x80001b52	-9.8e-42
136	0x8000a06d	-5.755e-41
137	0x00001dc1	1.0674e-41
138	0x2a94ca79	2.6430575e-13
139	0x00000c92	4.51e-42
140	0x80002356	-1.2676e-41
141	0x85e2bd5a	-2.1322495e-35
142	0x80001273	-6.618e-42
143	0x1ac0883a	7.9629425e-23
144	0xa2e266ea	-6.1366387e-18
145	0x00004478	2.4562e-41
146	0x85dbe966	-2.0680398e-35
147	0x800009ce	-3.517e-42
148	0x0000123e	6.544e-42
149	0xa6397cf8	-6.4354133e-16
150	0x9d27b2d9	-2.2194728e-21
151	0x00003bc9	2.1447e-41
152	0x80000b62	-4.083e-42
153	0x8000a858	-6.039e-41
154	0x000080f5	4.6261e-41
155	0x0118473c	2.79691e-38
156	0x000011fe	6.454e-42
157	0x800715f4	-6.50724e-40
158	0x00001f74	1.1283e-41
159	0x00001546	7.631e-42
160	0x800013c3	-7.089e-42
161	0x80001259	-6.582e-42
162	0x80002803	-1.4354e-41
163	0x8a83f097	-1.2705341e-32
164	0x0000003f	8.8e-44
165	0x800007b7	-2.768e-42
166	0x90221a9e	-3.1969372e-29
167	0x000069b2	3.7916e-41
168	0x000002ef	1.052e-42
169	0x16bb844a	3.0294966e-25
170	0xa04834b1	-1.6958093e-19
171	0x277da25b	3.5198816e-15
172	0x80001acd	-9.614e-42
173	0x9de72047	-6.1178565e-21
174	0x1b40b8bf	1.5941562e-22
175	0x9556deb5	-4.339264e-26
176	0x0001add5	1.54195e-40
177	0x277360f6	3.3775587e-15
178	0x800ddebf	-1.273768e-39
179	0x800086d9	-4.8374e-41
180	0x00000bd1	4.239e-42
181	0x12098ee2	4.3405694e-28
182	0xa8974dbf	-1.6798085e-14
183	0x00001703	8.255e-42
184	0xac235cca	-2.3215201e-12
185	0x896accc6	-2.826301e-33
186	0x00002f3e	1.6947e-41
187	0xa4944df5	-6.431683e-17
188	0x0654b5b4	4.0006263e-35
189	0x0000028f	9.18e-43
190	0xa5329b7f	-1.5491723e-16
191	0x20907fe0	2.447917e-19
192	0x9d3dca0e	-2.5118402e-21
193	0x08009b6f	3.870131e-34
194	0x00001811	8.633e-42
195	0x80001114	-6.126e-42
196	0x00002806	1.4358e-41
197	0x00008f7a	5.147e-41
198	0x0000087a	3.041e-42
199	0x80000059	-1.25e-43
200	0xa187167b	-9.153906e-19
201	0x00001b68	9.832e-42
202	0x80000199	-5.73e-43
203	0x22876e69	3.6708725e-18
204	0x80001b65	-9.827e-42
205	0xa32ae9b5	-9.265208e-18
206	0x86158dd0	-2.8127973e-35
207	0x2b86e3e4	9.584525e-13
208	0x2b9796b0	1.077102e-12
209	0x800013f6	-7.16e-42
210	0xa7b41e75	-4.9993058e-15
211	0x8000153a	-7.615e-42
212	0x1407739b	6.838557e-27
213	0x9b40f1a0	-1.5959941e-22
214	0x80002703	-1.3995e-41
215	0x8000228c	-1.2393e-41
216	0x80001084	-5.925e-42
217	0xa08629c6	-2.2728126e-19
218	0x09322847	2.1444909e-33
219	0x984189c1	-2.5014213e-24
220	0x9164a2cd	-1.8036196e-28
221	0x00000b88	4.137e-42
222	0x80000f51	-5.494e-42
223	0xa47b810f	-5.4536266e-17
224	0x80000966	-3.372e-42
225	0x95041d86	-2.6680478e-26
226	0x80003b24	-2.1216e-41
227	0x9decc2af	-6.2669978e-21
228	0x80000c9e	-4.526e-42
229	0x898bebd1	-3.3684793e-33
230	0x80002071	-1.1638e-41
231	0x80001cd1	-1.0337e-41
232	0xa6ed053b	-1.6446596e-15
233	0x00002254	1.2315e-41
234	0x00141e1b	1.84751e-39
235	0x00000eac	5.263e-42
236	0x80008a98	-4.9718e-41
237	0x80002dd0	-1.6434e-41
238	0x2c15f675	2.1310985e-12
239	0x283075c9	9.795503e-15
240	0x80007ba7	-4.4358e-41
241	0x00003704	1.9736e-41
242	0xac61dfa6	-3.2098573e-12
243	0xa19c2da5	-1.0583053e-18
244	0x165b38f3	1.7708649e-25
245	0xaa78baa7	-2.2091583e-13
246	0x00004e0f	2.8002e-41
247	0x242258c5	3.520334e-17
248	0x000001fb	7.1e-43
249	0x800017bb	-8.513e-42
250	0x00001767	8.395e-42
251	0x25a8a963	2.9258135e-16
252	0x800d68c0	-1.231439e-39
253	0x800044fe	-2.475e-41
254	0x80001716	-8.282e-42
255	0x800026ff	-1.3989e-41

conv1.bias f4 [256]
0	0xbca03951	-0.01955858
1	0x3ba04a77	0.0048916894
2	0xbcb05750	-0.021526009
3	0x3c0fe6b5	0.008783032
4	0xbbd905e9	-0.006623019
5	0x3bb0d256	0.0053961677
6	0x3cc58c16	0.02411465
7	0x3cce1dd4	0.025160708
8	0xbcbce125	-0.023056576
9	0x3a1c254e	0.00059564866
10	0xbc0ed51b	-0.0087178005
11	0x3c044ac1	0.008074463
12	0xbbd6aebb	-0.006551591
13	0x3cfbf49e	0.030756291
14	0x3c0dab3a	0.008646781
15	0xbb882931	-0.004155301
16	0xbbbbdabb	-0.005732862
17	0x3c700234	0.014648963
18	0x3b1b0822	0.002365597
19	0xbd111924	-0.035424367
20	0x3d110a01	0.03540993
21	0x3bde6f5e	0.0067881783
22	0xb9cdad8a	-0.00039229944
23	0x3cabf6a3	0.020991629
24	0xbc97f120	-0.018547595
25	0xbc8ae12a	-0.01695307
26	0xbb75538a	-0.0037433826
27	0x3cc7da0f	0.02439597
28	0xbc8bf2d1	-0.017083557
29	0xbccb6cac	-0.024832092
30	0x3bdb6495	0.00669534
31	0x3bcb9426	0.006212729
32	0x3d35c00f	0.044372614
33	0x3ccf9409	0.025339143
34	0xbd01bbf9	-0.031673405
35	0xbc11d008	-0.008899696
36	0x3d068f8a	0.032851733
37	0xbcbc6bc4	-0.023000605
38	0x3c34b91b	0.011030461
39	0xbc81bf25	-0.015838215
40	0xbb0f16df	-0.00218337
41	0x3b1d3917	0.0023990327
42	0xbb1cbe98	-0.0023917314
43	0xbd028c66	-0.031872176
44	0xbd032589	-0.03201822
45	0x3c0147f9	0.007890695
46	0xbc30f4ab	-0.010800521
47	0x3b85341a	0.004065049
48	0x3c81a49b	0.01582556
49	0xbb374dc6	-0.002796994
50	0xbb882068	-0.0041542538
51	0xbc2c9a64	-0.0105348565
52	0xbc0417b0	-0.008062288
53	0xbbc1665c	-0.0059020948
54	0x3d086d40	0.033307314
55	0x3b6981c7	0.0035630332
56	0x3cc0cf17	0.023536248
57	0x3d60a259	0.054842327
58	0xbcc7dc1c	-0.024396949
59	0x3d1a6732	0.03769607
60	0xbc98f644	-0.018672116
61	0xbb9d0a0a	-0.0047924565
62	0xbc432eff	-0.01191306
63	0xbc8a2f00	-0.016868114
64	0x3c8d39a3	0.017239397
65	0xbcab412e	-0.020905104
66	0x3c22cd1f	0.0099366
67	0x3a33b857	0.0006855777
68	0xbc96161b	-0.018321088
69	0xbd2ca979	-0.04215381
70	0x3d13c6cb	0.036078256
71	0xbd1da861	-0.038490657
72	0xbb57908c	-0.0032892553
73	0x3cce384c	0.025173329
74	0x3bb837d3	0.005621889
75	0xbc08a294	-0.008339543
76	0xba902658	-0.0010997755
77	0xbc3d5888	-0.011556752
78	0xbcdebff9	-0.02719115
79	0x3c1f55ab	0.009725015
80	0xbc1f526f	-0.009724244
81	0x3be317c1	0.006930322
82	0x3be76cda	0.0070625367
83	0xbbcc9a29	-0.0062439633
84	0x39121a82	0.0001393352
85	0xbc904d99	-0.017615126
86	0xbd26830d	-0.040652324
87	0x3cf8f7b1	0.030391546
88	0x3c27f49e	0.010251192
89	0xbc95e218	-0.018296286
90	0x3c35ed1f	0.011103897
91	0x3c8930a0	0.016746819
92	0xbc363bef	-0.011122688
93	0xbc3efe8a	-0.0116573665
94	0x3c37b29c	0.011212017
95	0x3cbd3179	0.02309488
96	0xbcdab97c	-0.026699774
97	0xbc85a3d2	-0.016313467
98	0xbb562502	-0.0032675867
99	0x3b2de55c	0.0026534414
100	0x3ca30d21	0.019903721
101	0x3b115bba	0.0022179917
102	0x3cb55f81	0.022140266
103	0xbc7ad7fb	-0.015310283
104	0x3cec8fc2	0.028877143
105	0x3d0a2c2d	0.033733536
106	0x3cd1daa7	0.025616957
107	0x3d447c64	0.04797019
108	0xbccee6a4	-0.025256462
109	0x3c99a7fb	0.018756857
110	0xbd1b5c66	-0.037929915
111	0x3cb60f7d	0.022224182
112	0xbc719d23	-0.014746937
113	0x3b701050	0.0036630817
114	0xbcc3090a	-0.023808021
115	0xbbf3de54	-0.007442275
116	0xbc6edbd0	-0.014578775
117	0x3d04066d	0.03223269
118	0xbc97e5fc	-0.018542282
119	0xbd06db4f	-0.032923993
120	0xbcfc71d4	-0.030815996
121	0xbccb5bed	-0.024824107
122	0xbd3aacd6	-0.045574985
123	0xbbbf7902	-0.0058432827
124	0x3ccd8638	0.025088415
125	0x3c68198c	0.014166247
126	0x3ca6a0ae	0.02034029
127	0xbc917234	-0.017754652
128	0xbbea4e44	-0.0071504433
129	0x3ccc37ae	0.024928894
130	0x3c195d41	0.009360612
131	0xbd712508	-0.058873206
132	0x3b1bebdb	0.0023791704
133	0xbc71aa8a	-0.014750132
134	0xbd9f2b97	-0.07771986
135	0xbc2a4fed	-0.010395032
136	0x3c94d519	0.01816802
137	0x3b112060	0.002214454
138	0x3bd3e7da	0.006466848
139	0xbc45f233	-0.012081671
140	0x3bb81967	0.0056182626
141	0x3c0831db	0.008312668
142	0x3c9c6910	0.019093066
143	0x3c9e5b1f	0.01933056
144	0x3c43a8c6	0.011942094
145	0xbaaeb3c3	-0.001332872
146	0x3c91e9ab	0.017811617
147	0x3caa2d5b	0.02077358
148	0xbc71de0d	-0.014762414
149	0x3c477df0	0.012176022
150	0x3d3ad280	0.045610905
151	0x3bb52eb1	0.0055292477
152	0x3c0ad909	0.008474597
153	0x3ceffc99	0.029295253
154	0xbc3ab7de	-0.011396376
155	0x3c64a5df	0.013955562
156	0xbbbadfc9	-0.005702947
157	0x3c922044	0.017837651
158	0x3c8c6288	0.017136827
159	0x3cc12520	0.023577273
160	0x3892e619	7.0046815e-05
161	0x3d27fdbe	0.04101347
162	0x3c329229	0.010899105
163	0xbc4be681	-0.012445093
164	0x3c32a884	0.010904435
165	0x3c178110	0.0092470795
166	0xbcc73fbf	-0.024322389
167	0xbb3a14e8	-0.0028393809
168	0x3c86f5bf	0.016474603
169	0x3c262536	0.010140708
170	0xbcfad99c	-0.030621342
171	0x3c90d0e8	0.01767774
172	0xbbac55bd	-0.0052592442
173	0x3cd50e3f	0.02600777
174	0xba3d75cc	-0.0007227331
175	0xbc035acb	-0.008017252
176	0x3bd24afd	0.0064176307
177	0xbd0b3602	-0.033987053
178	0x3d301d7d	0.042996872
179	0xbc5829d3	-0.013193565
180	0xbc8c6157	-0.017136259
181	0xbd1fcaca	-0.039011754
182	0x3c4193ef	0.011815055
183	0xbb8e355b	-0.0043398566
184	0x3b8233d4	0.0039734636
185	0xbb980618	-0.0046393983
186	0xbc09123f	-0.008366167
187	0xbcf0aea9	-0.02938016
188	0x3cdf47d9	0.02725594
189	0x3c67edbd	0.014155802
190	0xbc39e0f5	-0.011345138
191	0xbc3e3387	-0.011608965
192	0x3c700019	0.014648461
193	0x3d0504b9	0.032475207
194	0xbc37e1be	-0.011223255
195	0xbbdc2988	-0.006718818
196	0x3bc90645	0.0061347806
197	0x3c5bef84	0.013423804
198	0xb9c44484	-0.0003743508
199	0x3c218ff5	0.009860982
200	0x3c8ac519	0.016939687
201	0xbcd295f4	-0.025706269
202	0x3cb3e3ce	0.021959212
203	0x3c0940cf	0.008377268
204	0xbcb2c370	-0.021821707
205	0xbcd81dec	-0.026381455
206	0xbc1b6030	-0.009483382
207	0xbc1a3fd2	-0.00941463
208	0xbc0d94d3	-0.0086414395
209	0xbc26d3ea	-0.01018236
210	0xbc2d9e31	-0.010596798
211	0x3cd0fb76	0.02551053
212	0xbbee323a	-0.007269171
213	0xbc543f87	-0.012954599
214	0x3c11ae76	0.008891692
215	0xbced869f	-0.028994856
216	0xbd0a6e6b	-0.03379671
217	0xbcbc2875	-0.02296851
218	0xbb36c610	-0.002788905
219	0xbd081e00	-0.033231735
220	0xbb68a25f	-0.0035497171
221	0x3c0f00e6	0.008728242
222	0x3bad2536	0.005283977
223	0xbb8c638a	-0.004284327
224	0x3ae5b5fa	0.0017525547
225	0xbc531b0b	-0.0128848655
226	0xbc3adcda	-0.011405194
227	0xbc85a457	-0.016313715
228	0xbb3b1d7b	-0.0028551507
229	0xbc1032bf	-0.008801161
230	0xbceb3a53	-0.028714335
231	0xbcd22113	-0.025650537
232	0x3c1138e3	0.0088636605
233	0x3aedebde	0.0018151959
234	0x3c209255	0.009800513
235	0x3ce0c892	0.02743939
236	0xbcfe3d5e	-0.031035122
237	0xbc9a5f7c	-0.018844359
238	0xbbbeec53	-0.005826512
239	0x3b610962	0.0034337868
240	0xbbb18ace	-0.005418158
241	0x3bf9a5f5	0.0076186606
242	0xbbcf5bbc	-0.0063280743
243	0xbb8cbaf9	-0.00429475
244	0x3c2cee21	0.010554821
245	0x3c957110	0.018242389
246	0x3a0c3046	0.00053477695
247	0xbc970e24	-0.01843936
248	0xbc8294e7	-0.015940143
249	0x3a16cfdb	0.0005753019
250	0xbcc14f48	-0.023597375
251	0x3cab2fe6	0.020896863
252	0xbc286fea	-0.010280589
253	0x3ca1daaa	0.019757587
254	0xbc24c1b6	-0.01005595
255	0x3d4f79a2	0.050653107

conv1.lin_src.weight f4 [256, 256]
0	0x3d9dbaad	0.07701621
1	0xbc2b91da	-0.010471785
2	0x3b8fe08f	0.004390783
3	0xbb4a1456	-0.0030834875
4	0x3c26a4f8	0.010171168
5	0x3c5ff229	0.013668575
6	0xba01049e	-0.00049216475
7	0x3c6c6ca1	0.014430196
8	0xbc0c2c31	-0.008555458
9	0x3cb56fe1	0.022148075
10	0xbc242987	-0.0100196665
11	0xbd16b08a	-0.036789455
12	0x3b883a92	0.0041573728
13	0xbc830761	-0.01599473
14	0x3932aaac	0.00017038983
15	0xbc77d31d	-0.015126017
16	0xb9ccd27a	-0.0003906673
17	0x3bf9cce3	0.0076233014
18	0x3b87db25	0.004145997
19	0x38434995	4.656015e-05
20	0x3b432612	0.002977733
21	0xbb545fca	-0.0032405728
22	0x3b6f88b9	0.003655
23	0xba80ebd1	-0.0009835904
24	0xbc034cb1	-0.00801389
25	0x3c359787	0.01108349
26	0xbc2939d4	-0.010328729
27	0x3cd0dd92	0.025496278
28	0x3c9515f3	0.018198943
29	0x3c353c4d	0.01106174
30	0x3c3ecc46	0.011645382
31	0x3b0334db	0.0020020518
32	0x3b7b2705	0.0038322818
33	0xbc7c37ef	-0.015394195
34	0x3be900f7	0.0071107107
35	0xbbebb5bb	-0.007193295
36	0xb9345fc1	-0.00017201809
37	0xbbea73b0	-0.0071549043
38	0xbbb56d2d	-0.0055366964
39	0xbc4364e8	-0.011925913
40	0x3c66b975	0.014082302
41	0xbbe01215	-0.006838093
42	0x3c208751	0.009797887
43	0xbc62cb0f	-0.013842358
44	0xbaf8d0be	-0.0018983108
45	0x3c828227	0.015931202
46	0xbc491f8d	-0.012275589
47	0xbacc1f90	-0.0015573371
48	0x3c3716e2	0.011174889
49	0x3c301090	0.010746136
50	0xbbdd7bda	-0.006759149
51	0x3c12a360	0.008950084
52	0x3c52d1f3	0.012867439
53	0xb8b5d56d	-8.670506e-05
54	0x3bab7ecb	0.0052336208
55	0x3af41c20	0.0018624105
56	0x3c2bd917	0.01048877
57	0x3a314556	0.0006762346
58	0x3b4ed81d	0.003156192
59	0xba4eb33b	-0.0007884984
60	0xbc7dd8f5	-0.015493621
61	0xbba47c82	-0.0050197253
62	0x3bc43ecf	0.0059889327
63	0xbbd9d74a	-0.006647979
64	0xbc13b8a3	-0.009016189
65	0xbb9a2cfb	-0.004705069
66	0xbd0c9b10	-0.034327567
67	0xbc7339e9	-0.01484535
68	0x3a8a6727	0.0010559306
69	0x3aea888b	0.0017893476
70	0x3c32e468	0.010918714
71	0x3be07b83	0.0068506612
72	0x3c883a72	0.016629431
73	0xbbac7c0a	-0.00526381
74	0x3cbc648c	0.022997163
75	0x3bd5be60	0.0065229386
76	0x3a3b345d	0.00071412866
77	0x3912c223	0.00013995967
78	0x3cce1390	0.025155813
79	0x3b816950	0.003949322
80	0x3af4eb74	0.0018685893
81	0xbc375144	-0.011188809
82	0xbb71f87e	-0.0036921795
83	0xbb758346	-0.0037462278
84	0x3ba3624c	0.004986083
85	0xbc30d76e	-0.01079355
86	0xbb4d16a0	-0.0031294003
87	0xbc25474f	-0.010087802
88	0xbc644b29	-0.013933935
89	0x3c4d1c1a	0.012518907
90	0x3be76c89	0.007062499
91	0x3c30e6a1	0.010797174
92	0xbca4b554	-0.020105995
93	0xbbcc94c9	-0.0062433225
94	0x3bd95869	0.0066328538
95	0xbb8c70af	-0.004285894
96	0x3a7606ba	0.00093851576
97	0xbc510a64	-0.012758825
98	0x3a94a18f	0.0011339652
99	0xbcc16022	-0.02360541
100	0xbc1861a7	-0.009300626
101	0x3c86532f	0.016397087
102	0xbb9f6d20	-0.0048653036
103	0x3c2b63f1	0.01046084
104	0xbbbbe762	-0.00573437
105	0xbbee99e2	-0.007281528
106	0xbba6c6ff	-0.00508964
107	0x3c1b2340	0.0094688535
108	0xbc06cefa	-0.008228058
109	0x3b7f961d	0.0038999387
110	0x3c6f76a7	0.014615691
111	0x3c8fa985	0.017536888
112	0xbc091905	-0.0083677815
113	0x3c377fba	0.011199886
114	0xbc08ad91	-0.008342163
115	0x3b1949ea	0.0023390003
116	0xbd16d5ac	-0.036824867
117	0xbba42d15	-0.005010257
118	0xbc8be897	-0.01707868
119	0x3ba4826e	0.0050204312
120	0xbc4dc18d	-0.012558353
121	0xbbd0067d	-0.0063484297
122	0xbb0041e0	-0.0019570515
123	0xbb3a511c	-0.0028429693
124	0xbc2eb339	-0.010662847
125	0x3bb52317	0.0055278647
126	0xbc2a067b	-0.010377522
127	0xbca95dee	-0.020674672
128	0xbb733a12	-0.003711347
129	0x3b604ce1	0.003422551
130	0x3c04fd50	0.008117035
131	0xbc38e76f	-0.011285647
132	0xbbc85976	-0.00611418
133	0xbaa1558c	-0.001230882
134	0xbc1b6372	-0.009484159
135	0x3c2f1a94	0.010687489
136	0x3c0d2477	0.008614651
137	0x3be0c976	0.0068599535
138	0x3bd927cc	0.0066270586
139	0xbb2e6b28	-0.0026614163
140	0x3c2cefc0	0.010555208
141	0x3c426584	0.0118650235
142	0x3bbfb479	0.0058503714
143	0x3bb5c96f	0.0055476944
144	0xbb2290e6	-0.0024805604
145	0xbba2a26e	-0.004963211
146	0x3bd4d6a5	0.006495314
147	0x3bee6702	0.007275463
148	0xbc577335	-0.013150026
149	0xbc157f05	-0.009124522
150	0xbb997ca5	-0.0046840482
151	0x3b6a4600	0.003574729
152	0x3c4a4737	0.0123460805
153	0xbc40cbc8	-0.011767335
154	0xbb396217	-0.0028287226
155	0x3cec392d	0.028835857
156	0xbbb4315f	-0.0054990496
157	0x3ad0a62b	0.0015918663
158	0x3b6d526b	0.0036212455
159	0xbcf46eb4	-0.029837944
160	0xbb7a8c3a	-0.0038230554
161	0xbb377b31	-0.0027997012
162	0x3adb3561	0.0016724282
163	0xbc9e6a44	-0.01933778
164	0x3b142fcd	0.00226115
165	0x3c712020	0.014717132
166	0x3c09d524	0.008412633
167	0x3c8b13dd	0.016977245
168	0xbc180ca2	-0.009280356
169	0xbc6fe398	-0.014641665
170	0xbaeefc3a	-0.0018233128
171	0x3ba42852	0.0050096894
172	0x3b735c5d	0.003713391
173	0x3c00f5d2	0.007871108
174	0x3a511c36	0.0007976921
175	0xbc6f635d	-0.014611092
176	0xbb917e5a	-0.004440111
177	0xbbf1c8c8	-0.0073786713
178	0xbbaeceba	-0.0053347023
179	0xbc250c92	-0.010073798
180	0x3bcefb97	0.006316613
181	0xbc0a6d1d	-0.008448866
182	0x3c09001c	0.0083618425
183	0xbb97a082	-0.0046272883
184	0x3bce8929	0.006302972
185	0xbb22cec5	-0.0024842483
186	0xbcc0f2a3	-0.023553198
187	0xbbab27fd	-0.005223273
188	0xbbff16f3	-0.007784718
189	0x3c9a24e7	0.018816425
190	0xbb838f53	-0.0040148883
191	0xbc022eb1	-0.007945702
192	0x3b2565ec	0.0025237752
193	0x3ccb383f	0.024807094
194	0x3b50cd9b	0.0031860832
195	0xbb481eb1	-0.0030535872
196	0x3bf38736	0.00743189
197	0xbcaeb0da	-0.021324564
198	0x3caf23fe	0.021379467
199	0xbcc159a7	-0.02360232
200	0x3bf0ee74	0.0073526446
201	0x3be0a957	0.0068561244
202	0x3ca53df4	0.020171143
203	0x3bd3d9be	0.006465166
204	0xbb67ba65	-0.0035358903
205	0x3c6fddc6	0.014640277
206	0xbb24e3e2	-0.0025160243
207	0xbb7b8da1	-0.0038383978
208	0x3c26cf81	0.010181309
209	0xbc727dce	-0.014800502
210	0xbb16bc47	-0.0023000406
211	0x3abc6716	0.0014373984
212	0xbc19aea3	-0.009380016
213	0xbb8272f2	-0.0039809877
214	0x3c2ad28e	0.010426177
215	0x3c6d7a07	0.014494426
216	0x3a40579b	0.0007337273
217	0xbb57b8c1	-0.0032916518
218	0x3bc36e20	0.0059640557
219	0xbb5bad47	-0.003352003
220	0x3c2ee841	0.010675491
221	0xbb3e6f93	-0.0029058203
222	0xbad4e666	-0.001624298
223	0x3c58eecb	0.013240526
224	0x3b998f60	0.004686281
225	0xbc58bf8e	-0.013229264
226	0xbb52f30b	-0.0032188322
227	0xba8078fc	-0.0009801681
228	0xbb90fad8	-0.004424434
229	0xbbb41c25	-0.005496519
230	0x3c6cb9af	0.014448567
231	0xbc23a23f	-0.009987413
232	0x3c1f2040	0.009712279
233	0x3b9f3ef7	0.004859801
234	0xbc106df5	-0.008815278
235	0xb961b151	-0.00021523728
236	0xbc02f3c1	-0.007992686
237	0x3d042e1e	0.032270543
238	0x3c53d7d0	0.012929872
239	0x3bafe8d4	0.0053683314
240	0xbb68a958	-0.0035501327
241	0x3aa2adfd	0.0012411472
242	0x3c97d9aa	0.018536408
243	0x3af167d9	0.001841779
244	0x3c0c2455	0.008553584
245	0x3bd07eef	0.006362788
246	0xbb69d919	-0.0035682379
247	0xbac4b02b	-0.0015006115
248	0xbc0385c3	-0.008027497
249	0x3c326f49	0.01089079
250	0x3c037a04	0.008024696
251	0x3cbb997b	0.022900334
252	0x3c74bde9	0.014937856
253	0xbc1e4e12	-0.009662168
254	0xbc3c7eb6	-0.01150482
255	0xba39a166	-0.000708124

conv1.lin_dst.weight f4 [256, 256]
0	0x3d9dbaad	0.07701621
1	0xbc2b91da	-0.010471785
2	0x3b8fe08f	0.004390783
3	0xbb4a1456	-0.0030834875
4	0x3c26a4f8	0.010171168
5	0x3c5ff229	0.013668575
6	0xba01049e	-0.00049216475
7	0x3c6c6ca1	0.014430196
8	0xbc0c2c31	-0.008555458
9	0x3cb56fe1	0.022148075
10	0xbc242987	-0.0100196665
11	0xbd16b08a	-0.036789455
12	0x3b883a92	0.0041573728
13	0xbc830761	-0.01599473
14	0x3932aaac	0.00017038983
15	0xbc77d31d	-0.015126017
16	0xb9ccd27a	-0.0003906673
17	0x3bf9cce3	0.0076233014
18	0x3b87db25	0.004145997
19	0x38434995	4.656015e-05
20	0x3b432612	0.002977733
21	0xbb545fca	-0.0032405728
22	0x3b6f88b9	0.003655
23	0xba80ebd1	-0.0009835904
24	0xbc034cb1	-0.00801389
25	0x3c359787	0.01108349
26	0xbc2939d4	-0.010328729
27	0x3cd0dd92	0.025496278
28	0x3c9515f3	0.018198943
29	0x3c353c4d	0.01106174
30	0x3c3ecc46	0.011645382
31	0x3b0334db	0.0020020518
32	0x3b7b2705	0.0038322818
33	0xbc7c37ef	-0.015394195
34	0x3be900f7	0.0071107107
35	0xbbebb5bb	-0.007193295
36	0xb9345fc1	-0.00017201809
37	0xbbea73b0	-0.0071549043
38	0xbbb56d2d	-0.0055366964
39	0xbc4364e8	-0.011925913
40	0x3c66b975	0.014082302
41	0xbbe01215	-0.006838093
42	0x3c208751	0.009797887
43	0xbc62cb0f	-0.013842358
44	0xbaf8d0be	-0.0018983108
45	0x3c828227	0.015931202
46	0xbc491f8d	-0.012275589
47	0xbacc1f90	-0.0015573371
48	0x3c3716e2	0.011174889
49	0x3c301090	0.010746136
50	0xbbdd7bda	-0.006759149
51	0x3c12a360	0.008950084
52	0x3c52d1f3	0.012867439
53	0xb8b5d56d	-8.670506e-05
54	0x3bab7ecb	0.0052336208
55	0x3af41c20	0.0018624105
56	0x3c2bd917	0.01048877
57	0x3a314556	0.0006762346
58	0x3b4ed81d	0.003156192
59	0xba4eb33b	-0.0007884984
60	0xbc7dd8f5	-0.015493621
61	0xbba47c82	-0.0050197253
62	0x3bc43ecf	0.0059889327
63	0xbbd9d74a	-0.006647979
64	0xbc13b8a3	-0.009016189
65	0xbb9a2cfb	-0.004705069
66	0xbd0c9b10	-0.034327567
67	0xbc7339e9	-0.01484535
68	0x3a8a6727	0.0010559306
69	0x3aea888b	0.0017893476
70	0x3c32e468	0.010918714
71	0x3be07b83	0.0068506612
72	0x3c883a72	0.016629431
73	0xbbac7c0a	-0.00526381
74	0x3cbc648c	0.022997163
75	0x3bd5be60	0.0065229386
76	0x3a3b345d	0.00071412866
77	0x3912c223	0.00013995967
78	0x3cce1390	0.025155813
79	0x3b816950	0.003949322
80	0x3af4eb74	0.0018685893
81	0xbc375144	-0.011188809
82	0xbb71f87e	-0.0036921795
83	0xbb758346	-0.0037462278
84	0x3ba3624c	0.004986083
85	0xbc30d76e	-0.01079355
86	0xbb4d16a0	-0.0031294003
87	0xbc25474f	-0.010087802
88	0xbc644b29	-0.013933935
89	0x3c4d1c1a	0.012518907
90	0x3be76c89	0.007062499
91	0x3c30e6a1	0.010797174
92	0xbca4b554	-0.020105995
93	0xbbcc94c9	-0.0062433225
94	0x3bd95869	0.0066328538
95	0xbb8c70af	-0.004285894
96	0x3a7606ba	0.00093851576
97	0xbc510a64	-0.012758825
98	0x3a94a18f	0.0011339652
99	0xbcc16022	-0.02360541
100	0xbc1861a7	-0.009300626
101	0x3c86532f	0.016397087
102	0xbb9f6d20	-0.0048653036
103	0x3c2b63f1	0.01046084
104	0xbbbbe762	-0.00573437
105	0xbbee99e2	-0.007281528
106	0xbba6c6ff	-0.00508964
107	0x3c1b2340	0.0094688535
108	0xbc06cefa	-0.008228058
109	0x3b7f961d	0.0038999387
110	0x3c6f76a7	0.014615691
111	0x3c8fa985	0.017536888
112	0xbc091905	-0.0083677815
113	0x3c377fba	0.011199886
114	0xbc08ad91	-0.008342163
115	0x3b1949ea	0.0023390003
116	0xbd16d5ac	-0.036824867
117	0xbba42d15	-0.005010257
118	0xbc8be897	-0.01707868
119	0x3ba4826e	0.0050204312
120	0xbc4dc18d	-0.012558353
121	0xbbd0067d	-0.0063484297
122	0xbb0041e0	-0.0019570515
123	0xbb3a511c	-0.0028429693
124	0xbc2eb339	-0.010662847
125	0x3bb52317	0.0055278647
126	0xbc2a067b	-0.010377522
127	0xbca95dee	-0.020674672
128	0xbb733a12	-0.003711347
129	0x3b604ce1	0.003422551
130	0x3c04fd50	0.008117035
131	0xbc38e76f	-0.011285647
132	0xbbc85976	-0.00611418
133	0xbaa1558c	-0.001230882
134	0xbc1b6372	-0.009484159
135	0x3c2f1a94	0.010687489
136	0x3c0d2477	0.008614651
137	0x3be0c976	0.0068599535
138	0x3bd927cc	0.0066270586
139	0xbb2e6b28	-0.0026614163
140	0x3c2cefc0	0.010555208
141	0x3c426584	0.0118650235
142	0x3bbfb479	0.0058503714
143	0x3bb5c96f	0.0055476944
144	0xbb2290e6	-0.0024805604
145	0xbba2a26e	-0.004963211
146	0x3bd4d6a5	0.006495314
147	0x3bee6702	0.007275463
148	0xbc577335	-0.013150026
149	0xbc157f05	-0.009124522
150	0xbb997ca5	-0.0046840482
151	0x3b6a4600	0.003574729
152	0x3c4a4737	0.0123460805
153	0xbc40cbc8	-0.011767335
154	0xbb396217	-0.0028287226
155	0x3cec392d	0.028835857
156	0xbbb4315f	-0.0054990496
157	0x3ad0a62b	0.0015918663
158	0x3b6d526b	0.0036212455
159	0xbcf46eb4	-0.029837944
160	0xbb7a8c3a	-0.0038230554
161	0xbb377b31	-0.0027997012
162	0x3adb3561	0.0016724282
163	0xbc9e6a44	-0.01933778
164	0x3b142fcd	0.00226115
165	0x3c712020	0.014717132
166	0x3c09d524	0.008412633
167	0x3c8b13dd	0.016977245
168	0xbc180ca2	-0.009280356
169	0xbc6fe398	-0.014641665
170	0xbaeefc3a	-0.0018233128
171	0x3ba42852	0.0050096894
172	0x3b735c5d	0.003713391
173	0x3c00f5d2	0.007871108
174	0x3a511c36	0.0007976921
175	0xbc6f635d	-0.014611092
176	0xbb917e5a	-0.004440111
177	0xbbf1c8c8	-0.0073786713
178	0xbbaeceba	-0.0053347023
179	0xbc250c92	-0.010073798
180	0x3bcefb97	0.006316613
181	0xbc0a6d1d	-0.008448866
182	0x3c09001c	0.0083618425
183	0xbb97a082	-0.0046272883
184	0x3bce8929	0.006302972
185	0xbb22cec5	-0.0024842483
186	0xbcc0f2a3	-0.023553198
187	0xbbab27fd	-0.005223273
188	0xbbff16f3	-0.007784718
189	0x3c9a24e7	0.018816425
190	0xbb838f53	-0.0040148883
191	0xbc022eb1	-0.007945702
192	0x3b2565ec	0.0025237752
193	0x3ccb383f	0.024807094
194	0x3b50cd9b	0.0031860832
195	0xbb481eb1	-0.0030535872
196	0x3bf38736	0.00743189
197	0xbcaeb0da	-0.021324564
198	0x3caf23fe	0.021379467
199	0xbcc159a7	-0.02360232
200	0x3bf0ee74	0.0073526446
201	0x3be0a957	0.0068561244
202	0x3ca53df4	0.020171143
203	0x3bd3d9be	0.006465166
204	0xbb67ba65	-0.0035358903
205	0x3c6fddc6	0.014640277
206	0xbb24e3e2	-0.0025160243
207	0xbb7b8da1	-0.0038383978
208	0x3c26cf81	0.010181309
209	0xbc727dce	-0.014800502
210	0xbb16bc47	-0.0023000406
211	0x3abc6716	0.0014373984
212	0xbc19aea3	-0.009380016
213	0xbb8272f2	-0.0039809877
214	0x3c2ad28e	0.010426177
215	0x3c6d7a07	0.014494426
216	0x3a40579b	0.0007337273
217	0xbb57b8c1	-0.0032916518
218	0x3bc36e20	0.0059640557
219	0xbb5bad47	-0.003352003
220	0x3c2ee841	0.010675491
221	0xbb3e6f93	-0.0029058203
222	0xbad4e666	-0.001624298
223	0x3c58eecb	0.013240526
224	0x3b998f60	0.004686281
225	0xbc58bf8e	-0.013229264
226	0xbb52f30b	-0.0032188322
227	0xba8078fc	-0.0009801681
228	0xbb90fad8	-0.004424434
229	0xbbb41c25	-0.005496519
230	0x3c6cb9af	0.014448567
231	0xbc23a23f	-0.009987413
232	0x3c1f2040	0.009712279
233	0x3b9f3ef7	0.004859801
234	0xbc106df5	-0.008815278
235	0xb961b151	-0.00021523728
236	0xbc02f3c1	-0.007992686
237	0x3d042e1e	0.032270543
238	0x3c53d7d0	0.012929872
239	0x3bafe8d4	0.0053683314
240	0xbb68a958	-0.0035501327
241	0x3aa2adfd	0.0012411472
242	0x3c97d9aa	0.018536408
243	0x3af167d9	0.001841779
244	0x3c0c2455	0.008553584
245	0x3bd07eef	0.006362788
246	0xbb69d919	-0.0035682379
247	0xbac4b02b	-0.0015006115
248	0xbc0385c3	-0.008027497
249	0x3c326f49	0.01089079
250	0x3c037a04	0.008024696
251	0x3cbb997b	0.022900334
252	0x3c74bde9	0.014937856
253	0xbc1e4e12	-0.009662168
254	0xbc3c7eb6	-0.01150482
255	0xba39a166	-0.000708124

conv2.att_src f4 [1, 8, 32]
0	0xaba92bdd	-1.2020347e-12
1	0x00001aa8	9.562e-42
2	0x800d925a	-1.246362e-39
3	0x2711aac1	2.0215358e-15
4	0x8fc48737	-1.9379175e-29
5	0x800061db	-3.5104e-41
6	0x93ecbe26	-5.9762276e-27
7	0x80000200	-7.17e-43
8	0x993b588b	-9.6855545e-24
9	0x80002a65	-1.5208e-41
10	0x20a202eb	2.7445798e-19
11	0x9e5483ec	-1.1250467e-20
12	0x0000485a	2.5955e-41
13	0x1ae73f55	9.564168e-23
14	0x8000e509	-8.2162e-41
15	0x00002284	1.2382e-41
16	0x2b377c80	6.518744e-13
17	0x80004c2a	-2.7323e-41
18	0x82ed4de6	-3.4868732e-37
19	0x80002d99	-1.6357e-41
20	0xac32cba5	-2.5408367e-12
21	0x230a4f2e	7.497762e-18
22	0x2b8156f6	9.190138e-13
23	0xaabe4cdf	-3.380412e-13
24	0x2aa605bb	2.94915e-13
25	0x000031b6	1.7833e-41
26	0x8000b66e	-6.5443e-41
27	0x2a3a6a89	1.655708e-13
28	0x01b7c363	6.750395e-38
29	0x9188e528	-2.1598245e-28
30	0x800002c5	-9.94e-43
31	0xa3a8b3ec	-1.8290796e-17
32	0x00003207	1.7946e-41
33	0x99b41416	-1.8619676e-23
34	0x8b9c3f74	-6.018449e-32
35	0x80001cc5	-1.032e-41
36	0x2a27e3ee	1.4911659e-13
37	0x80038c01	-3.2573e-40
38	0x8000098c	-3.425e-42
39	0x80001ee8	-1.1087e-41
40	0x1e721a6a	1.2816836e-20
41	0x80005784	-3.1395e-41
42	0x152a36b1	3.437437e-26
43	0x80002aae	-1.531e-41
44	0x1cb8abe2	1.2220529e-21
45	0x800021ba	-1.2099e-41
46	0x8000461b	-2.5149e-41
47	0x80002914	-1.4736e-41
48	0x9b5b3fd7	-1.8135883e-22
49	0x80001811	-8.633e-42
50	0x1aa02be9	6.624539e-23
51	0x2ad38f46	3.7580545e-13
52	0xaa2e00f7	-1.5454639e-13
53	0xac3ceb9b	-2.6847194e-12
54	0xac0de482	-2.0164152e-12
55	0x80001c86	-1.0232e-41
56	0x80000d20	-4.708e-42
57	0x80000c5c	-4.434e-42
58	0x8134d655	-3.3214554e-38
59	0xa425c3b5	-3.5944442e-17
60	0x00002b19	1.546e-41
61	0x0b54a170	4.0951167e-32
62	0x8000160f	-7.913e-42
63	0x8000296f	-1.4864e-41
64	0xaabc6e60	-3.3472097e-13
65	0x000019f7	9.314e-42
66	0x80002284	-1.2382e-41
67	0x800014e5	-7.496e-42
68	0x0d28ff4a	5.207629e-31
69	0x80002833	-1.4421e-41
70	0xa2b580ea	-4.919664e-18
71	0x2a4d72b7	1.8247457e-13
72	0x91d78581	-3.4003297e-28
73	0x2ad9fa5b	3.8720662e-13
74	0xaae2a590	-4.0260547e-13
75	0x998f797d	-1.4834922e-23
76	0x9385e266	-3.3797166e-27
77	0x000049f1	2.6525e-41
78	0x8000090d	-3.247e-42
79	0x00002770	1.4148e-41
80	0x00001015	5.769e-42
81	0xabb32f61	-1.2731865e-12
82	0x00004855	2.5948e-41
83	0x80001283	-6.641e-42
84	0x9cc10074	-1.2771786e-21
85	0x00001206	6.466e-42
86	0x98d39815	-5.4695785e-24
87	0x0000002f	6.6e-44
88	0x800013ae	-7.06e-42
89	0x1673e3d8	1.9701278e-25
90	0x800011d3	-6.394e-42
91	0x06538e11	3.9789063e-35
92	0x1e8d14a9	1.49375e-20
93	0x80001fa7	-1.1355e-41
94	0x097e3ac4	3.060177e-33
95	0x90b16083	-6.996289e-29
96	0xac1803f0	-2.1602685e-12
97	0x9a8f4655	-5.925704e-23
98	0xa9913963	-6.4492486e-14
99	0x00001a75	9.491e-42
100	0x277ff916	3.5523389e-15
101	0x9ab0aa13	-7.3066664e-23
102	0x9f8b2a01	-5.893828e-20
103	0x00002cc9	1.6066e-41
104	0x288f89ac	1.5935895e-14
105	0x80000f1c	-5.42e-42
106	0x0c06e611	1.0392218e-31
107	0x80000fce	-5.67e-42
108	0x00002edc	1.681e-41
109	0x8057df8c	-8.069882e-39
110	0x278f3409	3.974689e-15
111	0x80000bdd	-4.256e-42
112	0x2a31a155	1.5776731e-13
113	0x08fbe86e	1.5161157e-33
114	0x00001732	8.321e-42
115	0x000000bb	2.62e-43
116	0x195a6016	1.128974e-23
117	0x000018ca	8.893e-42
118	0x000035c2	1.9285e-41
119	0x80001212	-6.482e-42
120	0x2aca5618	3.5942148e-13
121	0x00000b7c	4.12e-42
122	0x000025e1	1.3588e-41
123	0x00002a08	1.5078e-41
124	0x0f431414	9.618109e-30
125	0x92ee1224	-1.5024384e-27
126	0x934aa9f0	-2.557977e-27
127	0x22affb0d	4.7699655e-18
128	0x166d9c35	1.9193998e-25
129	0x8b573b4a	-4.1452098e-32
130	0xaac91a30	-3.5722944e-13
131	0x80005055	-2.8818e-41
132	0x80119336	-1.614013e-39
133	0x00002cf7	1.613e-41
134	0x27c1aa5e	5.3752973e-15
135	0xa8f9506f	-2.7679436e-14
136	0x00003063	1.7358e-41
137	0x07a1ea2a	2.4362217e-34
138	0x00001a36	9.403e-42
139	0xa4a43bae	-7.1224764e-17
140	0x8000156b	-7.683e-42
141	0xa0b13af5	-3.002398e-19
142	0x26728019	8.413422e-16
143	0x00000f06	5.39e-42
144	0x0f9bd103	1.5364688e-29
145	0x8000401d	-2.3e-41
146	0x25bd17aa	3.280231e-16
147	0x80001620	-7.937e-42
148	0x80002be5	-1.5746e-41
149	0x00001789	8.443e-42
150	0x80001556	-7.654e-42
151	0x000026e1	1.3947e-41
152	0x00001a10	9.35e-42
153	0x1860e80c	2.9068475e-24
154	0x000277f3	2.267e-40
155	0x9365cfe6	-2.9006365e-27
156	0x8000267f	-1.381e-41
157	0x82945419	-2.1794915e-37
158	0xabc1a70d	-1.3759841e-12
159	0x000026f6	1.3977e-41
160	0x2017b0d1	1.2848701e-19
161	0x87dae3c9	-3.2934874e-34
162	0x25b2b022	3.099743e-16
163	0xa3adcada	-1.8842609e-17
164	0x80001dd1	-1.0696e-41
165	0x93289f1f	-2.1283034e-27
166	0x24124807	3.1719713e-17
167	0x800011c6	-6.376e-42
168	0x2b98b5cf	1.0850712e-12
169	0x000008fd	3.224e-42
170	0x00002f1b	1.6898e-41
171	0x0000169f	8.115e-42
172	0x2a0111d8	1.1463692e-13
173	0xa6bd6a05	-1.3143246e-15
174	0x000004a3	1.663e-42
175	0x87170efe	-1.1364383e-34
176	0x26e88c00	1.6136181e-15
177	0x00002b41	1.5517e-41
178	0x00001af5	9.67e-42
179	0x0fd19668	2.0666926e-29
180	0x1f53dbeb	4.48629e-20
181	0x0d30987e	5.4417743e-31
182	0xac04fb9c	-1.8898e-12
183	0x0000207d	1.1655e-41
184	0x80001999	-9.183e-42
185	0x00001a65	9.469e-42
186	0x800024d4	-1.3211e-41
187	0x80000d0d	-4.682e-42
188	0x0cc06aaa	2.964648e-31
189	0x000034db	1.8961e-41
190	0xa86337f7	-1.2613167e-14
191	0x0000236d	1.2708e-41
192	0xa291d9b7	-3.9532843e-18
193	0x9d7c34e3	-3.3379264e-21
194	0xa951ea34	-4.661046e-14
195	0x80000138	-4.37e-43
196	0x80002a37	-1.5144e-41
197	0x92207dcc	-5.0642155e-28
198	0x07d1ebfd	3.1585526e-34
199	0x26875162	9.389566e-16
200	0x28f2fa52	2.6975956e-14
201	0x1ea0c3c7	1.702163e-20
202	0x1095768f	5.8952806e-29
203	0x9ae4e285	-9.466455e-23
204	0x000009ce	3.517e-42
205	0x80002e1c	-1.6541e-41
206	0x000024c0	1.3183e-41
207	0x237e1fe3	1.377612e-17
208	0x2b6de220	8.4513126e-13
209	0x80002043	-1.1573e-41
210	0xa07c8e57	-2.1392327e-19
211	0x80005844	-3.1664e-41
212	0x80000161	-4.95e-43
213	0x12bfbd30	1.2100433e-27
214	0x80000ead	-5.265e-42
215	0x80000f2b	-5.441e-42
216	0x00002f9a	1.7076e-41
217	0x285069ad	1.1569234e-14
218	0x28274891	9.286098e-15
219	0x862efdc2	-3.2912195e-35
220	0x282336e6	9.060222e-15
221	0x800018c7	-8.888e-42
222	0x0000751e	4.2014e-41
223	0x00000ab1	3.835e-42
224	0x9a398a78	-3.8368957e-23
225	0x802d46e6	-4.158031e-39
226	0x060ad3f8	2.6110645e-35
227	0x27341107	2.4989249e-15
228	0x00000d0f	4.685e-42
229	0x80003c66	-2.1667e-41
230	0x9fc5e69a	-8.3814244e-20
231	0x9ae0ed24	-9.302735e-23
232	0x0000298d	1.4906e-41
233	0x20ea87e2	3.9731062e-19
234	0x9fb36b32	-7.598679e-20
235	0x85b43e16	-1.6949925e-35
236	0x0000099b	3.446e-42
237	0x800016b1	-8.14e-42
238	0x1ed946ee	2.3005105e-20
239	0x29afb5fe	7.803132e-14
240	0x259c283f	2.7088958e-16
241	0x000000ec	3.31e-43
242	0x9ffee346	-1.07949177e-19
243	0x8575631f	-1.153805e-35
244	0x80002014	-1.1507e-41
245	0x80002ad8	-1.537e-41
246	0x00001c5e	1.0176e-41
247	0xaa638a8a	-2.0209716e-13
248	0x00000f59	5.506e-42
249	0x00006810	3.733e-41
250	0x8bbce336	-7.2756835e-32
251	0x8000291e	-1.475e-41
252	0x8000229c	-1.2416e-41
253	0x257186f1	2.0949138e-16
254	0x80002ead	-1.6744e-41
255	0x07e5ad17	3.4557823e-34

conv2.att_dst f4 [1, 8, 32]
0	0x1de924d6	6.1712674e-21
1	0x80000d56	-4.784e-42
2	0x800013d8	-7.119e-42
3	0x9ade4b77	-9.193897e-23
4	0x80000e95	-5.231e-42
5	0xa73b5b80	-2.6001065e-15
6	0x00000d56	4.784e-42
7	0x000000aa	2.38e-43
8	0x2998c717	6.7846926e-14
9	0x293368e7	3.9836973e-14
10	0x25d58a79	3.7043443e-16
11	0x928ab389	-8.753283e-28
12	0xa793171a	-4.0825743e-15
13	0x00002bc0	1.5695e-41
14	0x82aa3857	-2.5011592e-37
15	0x11befccb	3.013251e-28
16	0x80002b12	-1.5451e-41
17	0x80000b59	-4.071e-42
18	0x8000150c	-7.55e-42
19	0x0d3002ea	5.4237695e-31
20	0x80006406	-3.5882e-41
21	0x8000685f	-3.7441e-41
22	0x22b8dee0	5.010928e-18
23	0x80002836	-1.4425e-41
24	0x09333c2b	2.1574632e-33
25	0x80001e0f	-1.0783e-41
26	0x00004127	2.3372e-41
27	0xa7a4c9ba	-4.5737856e-15
28	0x232c216b	9.331215e-18
29	0x0000367b	1.9544e-41
30	0x800028db	-1.4656e-41
31	0x20a862fc	2.852581e-19
32	0x8c32f21f	-1.3785482e-31
33	0x8025651b	-3.434183e-39
34	0x800031c0	-1.7847e-41
35	0x8940ba4d	-2.3198758e-33
36	0x8000355f	-1.9146e-41
37	0x150fc89b	2.903687e-26
38	0x06585381	4.0686434e-35
39	0x80000676	-2.318e-42
40	0x16c34299	3.1545978e-25
41	0x9148a449	-1.5827842e-28
42	0x00000d71	4.822e-42
43	0xa0677dca	-1.9608081e-19
44	0x00004580	2.4932e-41
45	0xa2d73e7b	-5.834202e-18
46	0x00002cbc	1.6048e-41
47	0x80003692	-1.9576e-41
48	0x00002e99	1.6716e-41
49	0x000022ed	1.2529e-41
50	0x00004603	2.5115e-41
51	0xa6d8947c	-1.5028258e-15
52	0x00001d90	1.0605e-41
53	0x80001b17	-9.718e-42
54	0x10acaec0	6.811128e-29
55	0x2acf238a	3.6795247e-13
56	0x832daeb9	-5.1040702e-37
57	0x0000161c	7.931e-42
58	0xa8f5fcfc	-2.7310179e-14
59	0x2222831b	2.20245e-18
60	0x800023cf	-1.2846e-41
61	0x0000266a	1.378e-41
62	0x8000217b	-1.201e-41
63	0x9ddb048b	-5.7973515e-21
64	0x23d60d46	2.3207548e-17
65	0xa4ac0050	-7.459364e-17
66	0x800003df	-1.389e-42
67	0x0003c894	3.4746e-40
68	0x80000ee8	-5.347e-42
69	0x25c3b5b1	3.3950227e-16
70	0x80000778	-2.679e-42
71	0x8001592a	-1.23822e-40
72	0x862b6139	-3.2232953e-35
73	0x80003fb3	-2.2851e-41
74	0x00000a82	3.77e-42
75	0x07f92e56	3.749259e-34
76	0x000010be	6.006e-42
77	0x1abcdac2	7.81084e-23
78	0x800025a5	-1.3504e-41
79	0x8000785d	-4.3178e-41
80	0x800028f3	-1.469e-41
81	0x000022c0	1.2466e-41
82	0x28de89e1	2.4706747e-14
83	0x2a0946cd	1.2192608e-13
84	0x80001690	-8.094e-42
85	0x263a75c1	6.46913e-16
86	0x800009b6	-3.484e-42
87	0x24e5a4cc	9.9592096e-17
88	0x8000256f	-1.3429e-41
89	0x2840455f	1.06731835e-14
90	0x8b97723b	-5.833496e-32
91	0x80002569	-1.342e-41
92	0x98ff2ceb	-6.596131e-24
93	0xa16df21e	-8.0619163e-19
94	0xa231667d	-2.404223e-18
95	0x80001f95	-1.133e-41
96	0x00002892	1.4554e-41
97	0x108cbc22	5.551013e-29
98	0x849aef09	-3.6424745e-36
99	0x2480faf6	5.5936296e-17
100	0x8be765be	-8.913105e-32
101	0x83ba5dff	-1.0953678e-36
102	0x8000149b	-7.392e-42
103	0x206183e7	1.9101884e-19
104	0x00003edb	2.2548e-41
105	0x0000405d	2.3089e-41
106	0x0d892f41	8.454653e-31
107	0x80000c3f	-4.393e-42
108	0x800018f6	-8.954e-42
109	0x2a4948be	1.7877624e-13
110	0x0003b299	3.39575e-40
111	0x800004ca	-1.718e-42
112	0x10868862	5.306381e-29
113	0x80002186	-1.2026e-41
114	0x00001753	8.367e-42
115	0x2b20ee3c	5.7174035e-13
116	0x80002a31	-1.5135e-41
117	0x29aa648b	7.566958e-14
118	0x00001dea	1.0731e-41
119	0x01ac7460	6.334981e-38
120	0x00000b30	4.013e-42
121	0x0c0631a3	1.0337922e-31
122	0x001d9e61	2.720045e-39
123	0x80001da7	-1.0637e-41
124	0x8c066960	-1.0354695e-31
125	0x0acc864b	1.9695001e-32
126	0x22e59a36	6.223385e-18
127	0x07e5ce23	3.4577247e-34
128	0x287b8dbd	1.39640335e-14
129	0xa9034118	-2.9144303e-14
130	0x00002866	1.4492e-41
131	0x00002728	1.4047e-41
132	0xaaba6a29	-3.31139e-13
133	0x80001041	-5.831e-42
134	0x2c65b7dd	3.2644922e-12
135	0x2bcba940	1.4470994e-12
136	0x1ae97ab3	9.656477e-23
137	0x1a945a81	6.135758e-23
138	0x8000077a	-2.682e-42
139	0xa79e62d0	-4.3960942e-15
140	0x80000434	-1.508e-42
141	0x0000566b	3.1001e-41
142	0x29b697d2	8.10876e-14
143	0x00000f14	5.409e-42
144	0x80000182	-5.41e-43
145	0x26025550	4.521843e-16
146	0x80000de8	-4.989e-42
147	0x00001091	5.943e-42
148	0x00001df4	1.0745e-41
149	0x80001f22	-1.1168e-41
150	0x00003215	1.7966e-41
151	0x00001d60	1.0538e-41
152	0x201d7ba1	1.3339323e-19
153	0x00001715	8.28e-42
154	0x0000c5ac	7.0911e-41
155	0x0000ec9c	8.488e-41
156	0x000015fa	7.884e-42
157	0x800002f1	-1.055e-42
158	0x87b2a5ae	-2.687984e-34
159	0x80000e27	-5.077e-42
160	0x129d7e02	9.939156e-28
161	0x00001423	7.224e-42
162	0xa966af7d	-5.122247e-14
163	0x284c0217	1.1324728e-14
164	0x00000688	2.343e-42
165	0x00000d5e	4.795e-42
166	0x26652584	7.950118e-16
167	0x00002f9c	1.7079e-41
168	0x1bbe4277	3.1475815e-22
169	0x831a8bdf	-4.5417097e-37
170	0xa006babd	-1.1412028e-19
171	0x135b8804	2.7708747e-27
172	0x00001d82	1.0585e-41
173	0x80000971	-3.387e-42
174	0xa76aa417	-3.2562977e-15
175	0x0000203c	1.1564e-41
176	0x800027e9	-1.4317e-41
177	0x80002b55	-1.5545e-41
178	0x00001649	7.994e-42
179	0x25727127	2.1028492e-16
180	0x98e1534c	-5.8245245e-24
181	0x80000853	-2.986e-42
182	0xa9decdec	-9.894502e-14
183	0x80001c82	-1.0227e-41
184	0x000042dd	2.3986e-41
185	0x80003f59	-2.2725e-41
186	0x0001c2c9	1.61711e-40
187	0xa980f581	-5.72693e-14
188	0x01e2422a	8.311423e-38
189	0x8000399e	-2.0669e-41
190	0x1f8169ef	5.480888e-20
191	0x1e8d6c08	1.4973636e-20
192	0x80003410	-1.8677e-41
193	0x199291ba	1.5154905e-23
194	0x80002008	-1.149e-41
195	0x00005f20	3.4124e-41
196	0x21eda0b8	1.6102287e-18
197	0xa45e02ca	-4.814094e-17
198	0x09149758	1.7886013e-33
199	0x10154547	2.9438438e-29
200	0xa3bfa9bf	-2.0780152e-17
201	0x2c08d38f	1.94442e-12
202	0x00003878	2.0257e-41
203	0x2067ca73	1.9633446e-19
204	0x8bc2a556	-7.497485e-32
205	0x000036a1	1.9597e-41
206	0x2b9ded79	1.1221433e-12
207	0x800018f3	-8.95e-42
208	0x232f2182	9.4938646e-18
209	0x19a17a29	1.669635e-23
210	0x800026f5	-1.3975e-41
211	0x000017a9	8.488e-42
212	0x0000ef70	8.5894e-41
213	0x0000122b	6.517e-42
214	0xac1bfd0b	-2.2167292e-12
215	0x13276c4c	2.1131758e-27
216	0x0001afcf	1.54904e-40
217	0x00000a0c	3.604e-42
218	0x00002dd0	1.6434e-41
219	0x000020d6	1.178e-41
220	0x88179af3	-4.562205e-34
221	0x00001bbb	9.948e-42
222	0x8000278d	-1.4188e-41
223	0x2aad0604	3.0735147e-13
224	0x00001ce9	1.0371e-41
225	0x1379f771	3.1550216e-27
226	0x00002dfd	1.6497e-41
227	0x90a471e8	-6.4862095e-29
228	0x000037fc	2.0083e-41
229	0x00002a84	1.5252e-41
230	0x04db8727	5.161077e-36
231	0x80002847	-1.4449e-41
232	0x0e061a46	1.6529425e-30
233	0x144e9808	1.0430325e-26
234	0x000016e3	8.21e-42
235	0xaac295df	-3.4565317e-13
236	0x800f1ea4	-1.388524e-39
237	0x8293e17b	-2.1729128e-37
238	0xa55611c7	-1.8567564e-16
239	0x00003bff	2.1523e-41
240	0xa2999c41	-4.1636173e-18
241	0x00000529	1.851e-42
242	0x8f372227	-9.029174e-30
243	0xa79266e9	-4.0634716e-15
244	0xa80c5b9a	-7.791424e-15
245	0x800006ac	-2.393e-42
246	0x81aea1bc	-6.414958e-38
247	0x80003197	-1.779e-41
248	0x2b49446f	7.1504516e-13
249	0x165a19da	1.7618057e-25
250	0x80000723	-2.56e-42
251	0x068e0fb9	5.3437566e-35
252	0x28c1d2c5	2.1518711e-14
253	0x005b86a1	8.405326e-39
254	0x00002478	1.3083e-41
255	0x80000425	-1.487e-42
