SCG-SFFL-main/SFFL/pretrained_models/kafka.pt (torch, 799425 bytes, 15 tensors)

conv1.att_src f4 [1, 8, 32]
0	0x15abd8bc	6.9408297e-26
1	0x898a0682	-3.322841e-33
2	0x28a3450f	1.8126585e-14
3	0x2fa7311d	3.041202e-10
4	0xb090d546	-1.0537995e-09
5	0x8946dd73	-2.3937508e-33
6	0xb4f32d75	-4.5295351e-07
7	0x8cba4132	-2.8697076e-31
8	0xa336a10b	-9.900342e-18
9	0x20944dcb	2.5123654e-19
10	0x0e950bc0	3.674265e-30
11	0x891b428c	-1.8688737e-33
12	0x9143d816	-1.5449374e-28
13	0x2d9282bb	1.6656334e-11
14	0xa27a425c	-3.3916448e-18
15	0x353a1699	6.9323283e-07
16	0xa49d959a	-6.834133e-17
17	0xb52d78a5	-6.4623083e-07
18	0xaeb3f687	-8.1837696e-11
19	0x0fbbaa14	1.8505135e-29
20	0xae6e5506	-5.419045e-11
21	0x379fa507	1.9031124e-05
22	0x8bc90c5d	-7.7440986e-32
23	0xafd78d9d	-3.9208894e-10
24	0x23094b7b	7.4427685e-18
25	0x36ceb123	6.1599e-06
26	0x2e98d39c	6.949749e-11
27	0xb7df6097	-2.662865e-05
28	0x87f49057	-3.6797875e-34
29	0x0ac200b4	1.8681785e-32
30	0x363aed11	2.785415e-06
31	0x350a55f1	5.153407e-07
32	0xac228499	-2.3095191e-12
33	0xa1fa4f10	-1.6961587e-18
34	0xa5289823	-1.4623223e-16
35	0x36449d15	2.929771e-06
36	0x30256417	6.0168887e-10
37	0x0b3dd813	3.6562632e-32
38	0x9a404c4f	-3.976631e-23
39	0x38108988	3.446036e-05
40	0x0862aae6	6.821029e-34
41	0xab905529	-1.0255452e-12
42	0xb169bbb0	-3.401265e-09
43	0x99aa5d92	-1.761538e-23
44	0x99de03cd	-2.2955797e-23
45	0x0f32eab8	8.821283e-30
46	0xb5a93584	-1.2607056e-06
47	0x88d5396f	-1.2832974e-33
48	0x376d7691	1.4153907e-05
49	0x142b9b3a	8.663907e-27
50	0xb3148c11	-3.4586325e-08
51	0xb3302c72	-4.1018616e-08
52	0x891e7209	-1.9072177e-33
53	0x9a9f2623	-6.582247e-23
54	0xb688e1b4	-4.079391e-06
55	0xb6070162	-2.0117373e-06
56	0x3823ab79	3.9021925e-05
57	0x3445b6f2	1.841361e-07
58	0xb7674227	-1.3784075e-05
59	0x9402f9ce	-6.612588e-27
60	0x8dad8965	-1.0695025e-30
61	0x8c5f8fce	-1.722257e-31
62	0x301e9d59	5.770367e-10
63	0x21ec1628	1.5997847e-18
64	0x30c97ebd	1.4660696e-09
65	0x370dce52	8.452293e-06
66	0xb7cab288	-2.4163412e-05
67	0x31519777	3.04996e-09
68	0xb576e71e	-9.197846e-07
69	0x30581d56	7.862203e-10
70	0x0a34e3b6	8.7095124e-33
71	0xab1d3f0e	-5.586511e-13
72	0x158b5e18	5.6290107e-26
73	0x36b64856	5.4324437e-06
74	0x238e1127	1.5402935e-17
75	0x2b86b06f	9.570243e-13
76	0x15e6c922	9.321359e-26
77	0x122701fd	5.269836e-28
78	0x0c630d99	1.7491536e-31
79	0xaf3070fe	-1.604725e-10
80	0x2146a290	6.730016e-19
81	0xb72f370f	-1.0443632e-05
82	0x143987bc	9.366882e-27
83	0xb1782d57	-3.6114522e-09
84	0x1628c928	1.3634406e-25
85	0x2d7908f8	1.4156003e-11
86	0x1b7010ff	1.9857826e-22
87	0x0fabb091	1.6929913e-29
88	0x8a1fc059	-7.691748e-33
89	0x3066c71c	8.3956464e-10
90	0xb7269a7b	-9.930339e-06
91	0x99c9cec0	-2.0866419e-23
92	0x2791614a	4.0351066e-15
93	0xa51f22da	-1.380286e-16
94	0xb0a53bed	-1.2022362e-09
95	0xa159080c	-7.353311e-19
96	0x36f679b5	7.34554e-06
97	0x93281079	-2.1212703e-27
98	0x36795fc1	3.7159627e-06
99	0x8e13553a	-1.8160184e-30
100	0x9b8ec826	-2.3621272e-22
101	0x892331fe	-1.9643918e-33
102	0x3128c314	2.4558107e-09
103	0x3403a4d6	1.2260293e-07
104	0x8e97bfda	-3.740912e-30
105	0x8af0908f	-2.3165536e-32
106	0x985d251b	-2.8582314e-24
107	0xb28ab9e4	-1.6149848e-08
108	0xb3d5f4c2	-9.9631066e-08
109	0x372c664f	1.02758195e-05
110	0x886e5d8f	-7.1730497e-34
111	0x15162e42	3.032875e-26
112	0x14b2fb48	1.807252e-26
113	0xaf1e5449	-1.439996e-10
114	0x0b0b8836	2.68729e-32
115	0x175959c7	7.0229797e-25
116	0x980b7cc5	-1.8028321e-24
117	0x3044222b	7.135294e-10
118	0x2ab17e95	3.152935e-13
119	0xa19202b5	-9.894061e-19
120	0xb4f2c0a8	-4.5216188e-07
121	0xb5e446a4	-1.7007883e-06
122	0x88063b24	-4.0393678e-34
123	0x8b27e389	-3.2334208e-32
124	0xb79d89b0	-1.8779974e-05
125	0x36cc8104	6.094693e-06
126	0x2097ca93	2.5714447e-19
127	0x37ccab2d	2.4398405e-05
128	0xb4ddf7cc	-4.1344754e-07
129	0x9b36db71	-1.5125592e-22
130	0x3304bad0	3.090355e-08
131	0x34f6f662	4.6000338e-07
132	0xad1bad6d	-8.849238e-12
133	0x0b52a388	4.0567556e-32
134	0x9295365f	-9.4166255e-28
135	0x13c79279	5.0379096e-27
136	0xb01aa06a	-5.6252836e-10
137	0x0f9211e8	1.4403609e-29
138	0x9d17933a	-2.0060798e-21
139	0x988c7870	-3.6310763e-24
140	0x88088c26	-4.1090755e-34
141	0x341dfc02	1.4713444e-07
142	0x2f1c446d	1.4212427e-10
143	0x34c3827c	3.641652e-07
144	0x9b565564	-1.7729256e-22
145	0x098dc685	3.4131202e-33
146	0x21177160	5.131084e-19
147	0xb7b39994	-2.1409978e-05
148	0x2f143a0d	1.3481145e-10
149	0x930e1d01	-1.793722e-27
150	0x2743c71b	2.7169622e-15
151	0x2423af96	3.5493718e-17
152	0xac9659f0	-4.2732415e-12
153	0x0cd0a7b3	3.2148405e-31
154	0x89d5bebd	-5.1457254e-33
155	0x36cee85e	6.1663295e-06
156	0xb2b1eaab	-2.0712227e-08
157	0x31058b73	1.9433315e-09
158	0x33c2a4d2	9.0638096e-08
159	0xb8372b17	-4.367073e-05
160	0x1eef58c7	2.5341827e-20
161	0x113d7569	1.4945651e-28
162	0x2ba3b1c9	1.1631192e-12
163	0x175b7e0c	7.092181e-25
164	0x379a16e9	1.8368899e-05
165	0x37232fae	9.726658e-06
166	0x349c579b	2.9121006e-07
167	0xae96c564	-6.856274e-11
168	0x098f25a3	3.446139e-33
169	0xb7d62433	-2.5527645e-05
170	0x1103835c	1.0374556e-28
171	0x11fed1f8	4.0203537e-28
172	0xb8115830	-3.4652825e-05
173	0x34690eb0	2.1705159e-07
174	0xa82bf923	-9.54643e-15
175	0x125be81d	6.9390317e-28
176	0x0ca39ca9	2.5208413e-31
177	0x2230f991	2.3984567e-18
178	0x89828c69	-3.1428403e-33
179	0x0660c1f9	4.2272226e-35
180	0x14fc3a45	2.546848e-26
181	0x21a1668a	1.0936926e-18
182	0xb52ad84a	-6.3644677e-07
183	0x94a2074f	-1.6360702e-26
184	0x373fb596	1.1426766e-05
185	0x99d3832c	-2.1869869e-23
186	0x32890eed	1.5955687e-08
187	0x245582b9	4.629774e-17
188	0x0f21b2f7	7.97238e-30
189	0xb8233d0e	-3.891909e-05
190	0x3773eb7d	1.4538758e-05
191	0x2f2f92bf	1.5968292e-10
192	0x36897d53	4.097508e-06
193	0xb34b2bd8	-4.7304496e-08
194	0x31d7813d	6.2720162e-09
195	0xb15e76f8	-3.2372878e-09
196	0x33507450	4.853456e-08
197	0x091b19d0	1.8669583e-33
198	0x9f9504ea	-6.3112084e-20
199	0x0c84b736	2.0448086e-31
200	0x18bd8bf1	4.899666e-24
201	0x8d02068f	-4.0067237e-31
202	0x1d24793e	2.17679e-21
203	0x37006dbc	7.654944e-06
204	0x8e24a7e8	-2.0295405e-30
205	0x0a27bbfd	8.076114e-33
206	0xb4b0d4f7	-3.2937507e-07
207	0x882e89e4	-5.252331e-34
208	0xb5d7a3d1	-1.6066425e-06
209	0x8acf9cbf	-1.9992336e-32
210	0x36142050	2.2072527e-06
211	0xb4320d4e	-1.6582382e-07
212	0x140a72d6	6.989867e-27
213	0x30737416	8.8567853e-10
214	0x2c99fe1c	4.3767334e-12
215	0x14fc23bb	2.545959e-26
216	0xb7b4368e	-2.1483076e-05
217	0xab504d95	-7.400411e-13
218	0x338603d7	6.24056e-08
219	0x3066beb8	8.394454e-10
220	0x9b104026	-1.1932128e-22
221	0x8c9017e7	-2.2201099e-31
222	0xa50d8a8e	-1.2276745e-16
223	0x19b78ab9	1.8977786e-23
224	0x943a3d75	-9.4027205e-27
225	0xae882082	-6.1903385e-11
226	0x30209015	5.8412414e-10
227	0x12a11ec3	1.0168112e-27
228	0x0dafe900	1.08413e-30
229	0xa887b32a	-1.5065711e-14
230	0x18862e09	3.468467e-24
231	0xb14a5c16	-2.9447214e-09
232	0x0937d03f	2.212574e-33
233	0x37c2520d	2.316481e-05
234	0x0ba1d6bf	6.233806e-32
235	0x11b3daca	2.837606e-28
236	0x09879a1e	3.2645e-33
237	0xb283f835	-1.5363279e-08
238	0x95e0c56d	-9.078436e-26
239	0x12a150b6	1.0180425e-27
240	0x36ae6843	5.1977418e-06
241	0xb3e52e6f	-1.067209e-07
242	0x989c4d12	-4.0402876e-24
243	0xb2285992	-9.799253e-09
244	0x0c6620ff	1.7728485e-31
245	0x0d184502	4.692168e-31
246	0xb3d1dc4e	-9.772394e-08
247	0x0cf04cd5	3.7024097e-31
248	0x07c8adaf	3.0194737e-34
249	0x87a7308d	-2.5155903e-34
250	0x89ba1b23	-4.480339e-33
251	0xb83ab3d3	-4.451333e-05
252	0xb72dc058	-1.0356387e-05
253	0x2e83875c	5.981235e-11
254	0x88fa9f8f	-1.508384e-33
255	0x2ae785de	4.1126732e-13

conv1.att_dst f4 [1, 8, 32]
0	0x9c9c90e4	-1.0360667e-21
1	0xb7e4ba93	-2.7266598e-05
2	0x8727c8e2	-1.2622718e-34
3	0x89a7ea5e	-4.0424185e-33
4	0xb5edea96	-1.772615e-06
5	0x0bf79c7c	9.537639e-32
6	0x36515e22	3.119822e-06
7	0xabadd210	-1.2350693e-12
8	0xb1cfe874	-6.0509198e-09
9	0x894d03ac	-2.4677704e-33
10	0x38177369	3.610869e-05
11	0x34aa148f	3.1679926e-07
12	0x8f7645fd	-1.2142216e-29
13	0xb6a793ca	-4.9941928e-06
14	0xa1cfb7e4	-1.4075541e-18
15	0xb6001f02	-1.9091535e-06
16	0xa18876a1	-9.247119e-19
17	0x09d7875c	5.188666e-33
18	0x2206d246	1.8271704e-18
19	0xb60c1c26	-2.087801e-06
20	0xb506c33a	-5.020298e-07
21	0xa0acbb04	-2.926169e-19
22	0x0b80dd22	4.963653e-32
23	0x884c8a3a	-6.15515e-34
24	0x92a6f4cf	-1.0536423e-27
25	0x10b026a8	6.947932e-29
26	0x2fc6bae5	3.6148787e-10
27	0x8a669f32	-1.11040385e-32
28	0x36b41500	5.3668628e-06
29	0x343765d8	1.7080254e-07
30	0xa9affb89	-7.8151956e-14
31	0x08d41a56	1.2765477e-33
32	0x10f42b25	9.6307505e-29
33	0x9f69ff3d	-4.9550797e-20
34	0x8d1fecb2	-4.928057e-31
35	0x249216b7	6.335589e-17
36	0x0b3e66df	3.667006e-32
37	0x8b41ecee	-3.7348694e-32
38	0x30dc55bc	1.6031474e-09
39	0x2ae3263c	4.034983e-13
40	0x97480cae	-6.463949e-25
41	0x2e409d76	4.37956e-11
42	0x0b3e699e	3.6672126e-32
43	0x35fd5329	1.8874172e-06
44	0xb4541364	-1.9751093e-07
45	0xb751ebd8	-1.2512282e-05
46	0x0c1055f0	1.1119217e-31
47	0x8b2c684c	-3.320446e-32
48	0x8b82b596	-5.03474e-32
49	0x3127b7e5	2.440623e-09
50	0x36e0d31a	6.7002957e-06
51	0x08d108a5	1.2580762e-33
52	0xaec604ab	-9.004827e-11
53	0x9b7c0401	-2.0846245e-22
54	0x8a2ed0b5	-8.417049e-33
55	0x2ffa22cd	4.5499463e-10
56	0x8e09f99e	-1.700674e-30
57	0x86883e21	-5.1248804e-35
58	0x08e4d08a	1.3771278e-33
59	0x33524d58	4.896478e-08
60	0xb7d10aa7	-2.4919702e-05
61	0xb5ab7f82	-1.2777602e-06
62	0x26b2865a	1.2387647e-15
63	0x9b0a9fed	-1.1466767e-22
64	0xae50d1bd	-4.748001e-11
65	0x3695d13e	4.464905e-06
66	0x0ac2cb09	1.8757894e-32
67	0x38151143	3.5540445e-05
68	0x8b1fdf1d	-3.0790138e-32
69	0x3188d072	3.9818184e-09
70	0x343175f3	1.6527319e-07
71	0x8acca717	-1.9707338e-32
72	0x1f7511c6	5.189547e-20
73	0xb4ff27f3	-4.7526518e-07
74	0x2e11c775	3.3146336e-11
75	0x8b5ed821	-4.2918242e-32
76	0x1b9636d2	2.4850845e-22
77	0x0a5c9af7	1.062176e-32
78	0x2bed83a7	1.6876404e-12
79	0x1881879b	3.3482645e-24
80	0xb5c34c9f	-1.4550932e-06
81	0x3781d508	1.5477199e-05
82	0xa98b24b6	-6.1792083e-14
83	0xb53dc9bd	-7.0701554e-07
84	0x99fe0a02	-2.6267027e-23
85	0x13e27fef	5.7176573e-27
86	0x9492595a	-1.4777476e-26
87	0x235f2461	1.2096558e-17
88	0x0d139fd3	4.5490254e-31
89	0xb8465899	-4.728939e-05
90	0x372f3aa5	1.0444467e-05
91	0x8ab21069	-1.714695e-32
92	0x315f0a04	3.2456464e-09
93	0x22c1897e	5.245833e-18
94	0x09af966a	4.2271166e-33
95	0x0d20d949	4.9565354e-31
96	0x8f1e7843	-7.813163e-30
97	0x136d5318	2.9954574e-27
98	0x99f4e7ed	-2.5322683e-23
99	0x1afeca3b	1.0537866e-22
100	0x8b992280	-5.8985366e-32
101	0x38105471	3.4410918e-05
102	0x0cf4f2dc	3.7740318e-31
103	0x35bc5130	1.403072e-06
104	0x885acc57	-6.584219e-34
105	0xb6ba6599	-5.5550595e-06
106	0x91d3ecc6	-3.3435853e-28
107	0x382781a9	3.9936658e-05
108	0xb5a85951	-1.254297e-06
109	0x8906eb95	-1.6240433e-33
110	0xb7bccb2f	-2.2505961e-05
111	0x89cde446	-4.9566622e-33
112	0x10b562e3	7.154427e-29
113	0x88228089	-4.8901194e-34
114	0x0a145905	7.1426835e-33
115	0x357332e9	9.059864e-07
116	0x0e395868	2.2845577e-30
117	0x34e41939	4.248666e-07
118	0x90b497b3	-7.123121e-29
119	0x2c81f9fc	3.6941544e-12
120	0xb5c19714	-1.442359e-06
121	0x9126d96a	-1.3162087e-28
122	0x102cdb7e	3.409011e-29
123	0x9897aac4	-3.9205014e-24
124	0x92fa9e2a	-1.5816209e-27
125	0x2f433b75	1.775627e-10
126	0x95337f79	-3.624932e-26
127	0xb645aace	-2.945471e-06
128	0x2a2e0a81	1.5457949e-13
129	0x321fe7a1	9.307684e-09
130	0x14aeefc2	1.7664078e-26
131	0x109a7f44	6.0938373e-29
132	0x3711c2a7	8.6879945e-06
133	0x37b2938a	2.1287957e-05
134	0xb6c5f0d6	-5.8990945e-06
135	0xb799c642	-1.8331342e-05
136	0xb2895add	-1.5990219e-08
137	0x088382c2	7.915017e-34
138	0x375fe631	1.3345431e-05
139	0x38105ac2	3.44168e-05
140	0x8862b216	-6.821874e-34
141	0x1f3e6b26	4.0322696e-20
142	0xb39e7d13	-7.380199e-08
143	0xb81842cf	-3.6301844e-05
144	0x07145594	1.1159432e-34
145	0xb2b8a396	-2.149481e-08
146	0x37fea1c5	3.035449e-05
147	0x188cb473	3.637136e-24
148	0x1d624c97	2.9950447e-21
149	0x2967085e	5.129956e-14
150	0x963d0e15	-1.5271742e-25
151	0x8bf7a525	-9.538942e-32
152	0x0bdf7a1d	8.608021e-32
153	0x28b58e42	2.0156731e-14
154	0x8ae85d57	-2.2375898e-32
155	0x2fc2c061	3.5425088e-10
156	0xaab527d3	-3.2179692e-13
157	0x3715be18	8.925352e-06
158	0xb694b253	-4.4315034e-06
159	0x8a3658cf	-8.779684e-33
160	0xadd34bc9	-2.4021578e-11
161	0x377454e6	1.45633e-05
162	0x349e0810	2.943566e-07
163	0xb029a0a3	-6.171012e-10
164	0xb6cc6cd6	-6.092344e-06
165	0xa2836bac	-3.5621623e-18
166	0x0aac49ec	1.6590804e-32
167	0x89b90f3a	-4.455145e-33
168	0x09281def	2.023634e-33
169	0xad1aaf26	-8.792777e-12
170	0xb216db37	-8.780993e-09
171	0x90b7e477	-7.253278e-29
172	0x34c8573c	3.7316374e-07
173	0x07f74976	3.7207606e-34
174	0xacf5d545	-6.9869965e-12
175	0x2e3dc7ae	4.3150976e-11
176	0x33d4b479	9.904847e-08
177	0x35d128a7	1.5583545e-06
178	0x0b08841b	2.6292032e-32
179	0x380bb732	3.3310796e-05
180	0x91eaefbe	-3.7066443e-28
181	0x885ee086	-6.706962e-34
182	0xb163002b	-3.3032943e-09
183	0x8aeb353e	-2.2649704e-32
184	0xb38e9620	-6.639698e-08
185	0x1a078821	2.802731e-23
186	0xaed88783	-9.8466145e-11
187	0x8a0dce42	-6.827696e-33
188	0x9d07e226	-1.7984017e-21
189	0xb2a1d16f	-1.8838106e-08
190	0x37cffeed	2.4795032e-05
191	0x35a7f348	1.2513274e-06
192	0x8b8788c2	-5.220588e-32
193	0x1a2c226d	3.5596575e-23
194	0x112f330f	1.38208e-28
195	0x8d19a3c8	-4.734391e-31
196	0x9b9076b1	-2.3899504e-22
197	0x330d1ac7	3.2853475e-08
198	0x890c2f78	-1.6874207e-33
199	0x0996b8a9	3.628484e-33
200	0xb6f57875	-7.315592e-06
201	0x9269bc73	-7.375412e-28
202	0x0891e135	8.779816e-34
203	0xae813e56	-5.877314e-11
204	0x33ce5397	9.6078274e-08
205	0x36d9af30	6.4874985e-06
206	0x135c46c9	2.7802804e-27
207	0xb7959338	-1.7830738e-05
208	0x0ae035aa	2.1590602e-32
209	0xb735968f	-1.0823495e-05
210	0xb80055c0	-3.059744e-05
211	0x163d33ff	1.5283705e-25
212	0x15c685cd	8.0182664e-26
213	0x929dca8c	-9.958025e-28
214	0x0c2170f4	1.243698e-31
215	0x0bf5f5c8	9.474038e-32
216	0x9d4890c6	-2.6544626e-21
217	0x35ef8a1b	1.7847082e-06
218	0xad54f129	-1.2104353e-11
219	0x19b5e956	1.8809205e-23
220	0x8b2fef9a	-3.388403e-32
221	0xafb35b87	-3.2624944e-10
222	0xb06dbcc0	-8.648833e-10
223	0x8d067870	-4.143691e-31
224	0xb748f600	-1.1978205e-05
225	0x153470aa	3.6439587e-26
226	0x10843db8	5.215991e-29
227	0x1f546f95	4.4985045e-20
228	0x0c36a748	1.4071109e-31
229	0x9938f52e	-9.562091e-24
230	0xb7791a26	-1.4847645e-05
231	0x29cf9ced	9.219869e-14
232	0xb44a9cd7	-1.8869774e-07
233	0xb51f2919	-5.929192e-07
234	0x31219017	2.351049e-09
235	0x92a11fba	-1.016835e-27
236	0xac03648b	-1.8672032e-12
237	0xad1a08ea	-8.755866e-12
238	0x3586302c	9.997798e-07
239	0x8aad94fb	-1.6715334e-32
240	0x1432ec81	9.0333456e-27
241	0x38392843	4.4144934e-05
242	0x33df317a	1.03932464e-07
243	0xb02b5b90	-6.2339556e-10
244	0x27c378d3	5.425437e-15
245	0x893bfb23	-2.262739e-33
246	0xb6d3b325	-6.309145e-06
247	0x3751d8f1	1.2507881e-05
248	0xb79ddbb8	-1.8818173e-05
249	0x3740a360	1.14821305e-05
250	0x2d3a2d2a	1.0582904e-11
251	0x0f1f1498	7.8432715e-30
252	0xaf940469	-2.6924177e-10
253	0x0b3e0dd0	3.660306e-32
254	0x1b4e6000	1.707094e-22
255	0xb6cff8ff	-6.1980677e-06

conv1.bias f4 [256]
0	0xbcd1311d	-0.025536114
1	0x3d0f541a	0.034992315
2	0xb6400efa	-2.8618947e-06
3	0xbcb58b59	-0.022161173
4	0x3c99d800	0.018779755
5	0xba908a70	-0.0011027586
6	0xbb33e6c8	-0.0027450789
7	0xbd42e2a0	-0.047579408
8	0xbd08a173	-0.033357095
9	0x3ce5daa9	0.028058367
10	0x3d714421	0.058902863
11	0x3cc84719	0.024447965
12	0xbc30ec9f	-0.010798602
13	0xbc2dea92	-0.010615008
14	0x3c9a31f0	0.01882264
15	0x3d2dce42	0.04243303
16	0x3c686840	0.014185011
17	0x3c58e8e9	0.013239124
18	0xbcce15f1	-0.025156947
19	0xbc2e0c38	-0.01062303
20	0x3d0773f4	0.033069566
21	0xbce78d44	-0.028265603
22	0x39d5142a	0.0004064155
23	0x3ce4ce5e	0.027930435
24	0xbca23526	-0.019800734
25	0xbd3545a5	-0.04425587
26	0x3bf2d1c1	0.0074102585
27	0x3d2e0542	0.042485483
28	0xbbefbe4d	-0.007316387
29	0xbbc0c928	-0.0058833547
30	0xbb4807d6	-0.0030522249
31	0x3c87e74d	0.016589785
32	0x3c8c67a2	0.01713926
33	0xbcae5d8f	-0.021284847
34	0xbc8c2343	-0.017106658
35	0xbc889c78	-0.016676173
36	0xbd06774a	-0.032828607
37	0x3c98ac4d	0.018636847
38	0xbd074a71	-0.033029977
39	0x3ca01780	0.019542456
40	0x3c440bf7	0.011965743
41	0xbbbfd13b	-0.0058537996
42	0x3c33d98a	0.010977158
43	0xbc42470b	-0.011857758
44	0xbd020ad6	-0.031748615
45	0x3c87f18c	0.01659467
46	0x3c9f06fd	0.019412512
47	0x3d255047	0.04035976
48	0xbd06735c	-0.03282486
49	0x3acf08dd	0.0015795488
50	0x3bf73111	0.007543691
51	0xbc576fd7	-0.013149223
52	0xbbf2a16a	-0.007404496
53	0x3d4ece50	0.050489724
54	0x3c7c48f1	0.01539825
55	0xbd3f84cc	-0.046757504
56	0x3cc4901b	0.023994496
57	0xbc1c5f2d	-0.009544176
58	0xbc5bbfb4	-0.013412405
59	0xbc9100c8	-0.017700568
60	0xbd264365	-0.040591616
61	0x3d00f289	0.0314813
62	0xbc7fde58	-0.015616976
63	0xbc38612b	-0.011253635
64	0xbc27d788	-0.010244258
65	0x3c369d16	0.011145851
66	0x3cbc9743	0.023021346
67	0x3d1a2d1d	0.03764068
68	0x3b0080c9	0.0019608012
69	0x3c865067	0.01639576
70	0x3c94a6f8	0.018146023
71	0xbbfa6aaa	-0.00764211
72	0xbd628f1d	-0.055312265
73	0x3ab30e62	0.0013660903
74	0xbc781b26	-0.015143191
75	0x3cfe36f9	0.031032072
76	0xbd04be4d	-0.032408047
77	0x3ca26162	0.019821826
78	0xbcf06d12	-0.029348884
79	0x3d06cac3	0.032908212
80	0xbc99f17a	-0.018791903
81	0xbd387788	-0.04503587
82	0xbb902eb4	-0.0044000987
83	0xbca380fa	-0.019958962
84	0xbd423a4c	-0.047418877
85	0x3c35a950	0.0110877305
86	0x3cd57478	0.026056513
87	0xbd722939	-0.059121344
88	0xba9c4afa	-0.00119242
89	0xbc9466a0	-0.018115342
90	0xbca93ff4	-0.020660378
91	0xbb056018	-0.0020351466
92	0x3c8f33f3	0.017480826
93	0x3cbba657	0.022906465
94	0xba26707a	-0.0006349158
95	0x3b8bd6e0	0.0042675585
96	0xbd59ee67	-0.053205874
97	0x3c08c3f1	0.008347497
98	0xbcd6f8af	-0.026241628
99	0x3c5135ae	0.012769146
100	0x3c7d9347	0.015477008
101	0xbc8f0bbc	-0.01746165
102	0xbd3c1738	-0.04592058
103	0x3cfb55e7	0.03068061
104	0x3c7f0401	0.015564919
105	0x3af3ff12	0.0018615446
106	0xbd0d4356	-0.034488045
107	0xbbd020a8	-0.006351549
108	0x3b4c61df	0.0031186265
109	0xbc08e661	-0.008355708
110	0xbc9ba442	-0.018999223
111	0xbbb92897	-0.0056505906
112	0x3cf92e83	0.030417686
113	0x3c799995	0.015234371
114	0xbd1a17df	-0.03762042
115	0xbccbd692	-0.024882589
116	0x3cff5e96	0.031173032
117	0xbcdf0786	-0.027225267
118	0xbd21dfbc	-0.03952001
119	0xbcb270d3	-0.021782314
120	0x3cb48bec	0.022039376
121	0xbd044631	-0.032293502
122	0xbd1f53a4	-0.038898125
123	0x3d57610d	0.05258279
124	0x3cb100a9	0.02160676
125	0x3cc4b835	0.024013618
126	0xbceea7a4	-0.029132672
127	0xbd06adc1	-0.03288055
128	0xbc740db8	-0.014895849
129	0xbc0dc1d1	-0.008652166
130	0xbd01aabd	-0.03165697
131	0xbc4d7984	-0.012541179
132	0x3ca092c1	0.019601228
133	0x3cb73a8a	0.02236678
134	0x38b51e66	8.636415e-05
135	0x3c71f625	0.014768158
136	0xbc3eebd8	-0.011652909
137	0x3d376093	0.044769835
138	0x3d52a949	0.051430974
139	0x3ba1359c	0.004919721
140	0xbcc6f0b8	-0.024284706
141	0x3cc3849a	0.02386694
142	0xbd2c80fc	-0.042115197
143	0xbb33c716	-0.0027431897
144	0x3cb28870	0.021793574
145	0xbcf2098a	-0.029545564
146	0xbce01463	-0.027353471
147	0x3bc1a4cb	0.0059095374
148	0x3c4148e6	0.0117971655
149	0x3c8e8555	0.017397562
150	0x3c83682b	0.016040882
151	0xbd443be9	-0.047908697
152	0x3c310b16	0.010805866
153	0x3c425283	0.011860493
154	0x3c8cdc60	0.017194927
155	0x3d256bfd	0.04038619
156	0x3ba15125	0.0049230033
157	0xbcf548d9	-0.029941963
158	0x3c5c20ff	0.013435601
159	0xbcaa159e	-0.020762261
160	0xbb957d10	-0.0045620278
161	0xbbf75e96	-0.0075491173
162	0x3c28edd6	0.010310611
163	0x3c090d7d	0.008365032
164	0xbd234643	-0.03986193
165	0xba6168ac	-0.0008598666
166	0xbd1f2412	-0.03885276
167	0x3c90dc2a	0.017683107
168	0xbc920ec7	-0.017829312
169	0x3bbf2d74	0.005834276
170	0x3cb718a2	0.022350613
171	0x3c98dbf3	0.018659567
172	0x3c170859	0.009218299
173	0x3d35bcad	0.04436939
174	0xbb691abb	-0.003556891
175	0xbbfad5f2	-0.007654899
176	0x3c77fe54	0.01513632
177	0xbd11cafa	-0.035593964
178	0x3bc6639c	0.006054355
179	0xbd26123c	-0.040544733
180	0xbd4da9ce	-0.050210766
181	0xbc05776e	-0.00814615
182	0xbd1610d5	-0.036637146
183	0x3c7dfda1	0.015502364
184	0x3b332655	0.002733608
185	0xbac6f964	-0.0015180525
186	0x3cc0529d	0.023476893
187	0xbcc02677	-0.023455841
188	0x3c62e2b3	0.013847995
189	0xbc484431	-0.012223289
190	0x3bab03bc	0.005218951
191	0xbca935c5	-0.020655522
192	0xbc147165	-0.0090602385
193	0xbc983229	-0.018578606
194	0xbbec4d67	-0.0072113755
195	0xbc67fcb6	-0.014159372
196	0x3b4eb343	0.0031539954
197	0xbc59260c	-0.0132537
198	0xbcdc9f55	-0.026931444
199	0xbd110f8c	-0.035415217
200	0x3d07108a	0.032974757
201	0xbc4b0f98	-0.012393855
202	0xbc9f2e9a	-0.019431401
203	0xbce7c874	-0.028293826
204	0xbbb8b3bf	-0.005636662
205	0x3cbd4d34	0.023108102
206	0xbc18c673	-0.009324658
207	0x3caa36ab	0.02077802
208	0x3c1476e6	0.009061551
209	0xbca1b035	-0.019737342
210	0xbb8f1b82	-0.004367293
211	0x3a17773c	0.000577796
212	0xbd30f449	-0.04320172
213	0x3cf6548a	0.030069608
214	0x3aa77913	0.0012777172
215	0x3c3b8d66	0.011447286
216	0xbc03c06e	-0.008041484
217	0xbbc914b9	-0.0061365035
218	0x3c81d640	0.015849233
219	0x3d06e40c	0.032932326
220	0xbc97338c	-0.018457197
221	0xbcca7b86	-0.024717104
222	0x3cf28b44	0.029607423
223	0x3bd3d140	0.0064641535
224	0x3caa3616	0.020777743
225	0xbd060c34	-0.03272648
226	0x3c186597	0.009301565
227	0xbc63cde9	-0.013904073
228	0x3c783f96	0.015151879
229	0xbd191d41	-0.037381414
230	0x3b154998	0.002277946
231	0xbc90abac	-0.017659985
232	0x3cd540ad	0.026031816
233	0x3d27f07d	0.041000832
234	0x3bff6e47	0.0077951285
235	0xbce25c35	-0.027631858
236	0xbc4bb153	-0.012432414
237	0xb9bd3f2e	-0.00036095962
238	0xbcbb9a77	-0.022900803
239	0x3bef1b0f	0.007296927
240	0xbd21f484	-0.03953983
241	0xbc76173e	-0.01502019
242	0xbb32cb46	-0.0027281805
243	0xbc87424b	-0.016511103
244	0x3c98264d	0.01857295
245	0xbc93c2b7	-0.018037183
246	0x3d2cbadc	0.04217039
247	0xbc40233e	-0.011727152
248	0xbd114963	-0.035470378
249	0x3bda4aa7	0.0066617313
250	0xbc5278e5	-0.012846206
251	0x3d04d8f2	0.032433458
252	0x3c97fe8a	0.01855399
253	0xbc9670a2	-0.018364254
254	0xbca1ca5c	-0.019749813
255	0x3c7a6628	0.015283145

conv1.lin_src.weight f4 [256, 256]
0	0x3db397e7	0.087692074
1	0xbb656b48	-0.0035006572
2	0x3cbf9d18	0.023390338
3	0xbaa83752	-0.001283387
4	0xbb2676df	-0.0025400443
5	0x3c62a8df	0.013834207
6	0xbbea3f67	-0.0071486714
7	0x3c4f6128	0.012657441
8	0x3a1e8484	0.0006046968
9	0x3b30dc8b	0.0026986923
10	0xbcad4557	-0.021151228
11	0xbc5a3cdd	-0.013320175
12	0x3c26ea85	0.01018775
13	0x3c1fe3dd	0.009758917
14	0xbc1c6437	-0.009545377
15	0xbb515de6	-0.0031946837
16	0xbb8d76f7	-0.00431716
17	0xbc58f2cc	-0.013241481
18	0xbc82e710	-0.01597932
19	0xbcb1a4ca	-0.021685023
20	0x3b90a037	0.0044136303
21	0xbc60234b	-0.0136802895
22	0xbc1245ce	-0.008927776
23	0xbc671157	-0.014103255
24	0x3ccbd2b2	0.02488074
25	0x3ba8dc49	0.005153213
26	0x3cabb92f	0.020962326
27	0xbaf8b03d	-0.0018973422
28	0x3c1baa12	0.009500997
29	0xbc425cf6	-0.011862984
30	0x3cc48fe5	0.023994396
31	0x3c50c42d	0.012742084
32	0x3bc04ec8	0.0058687665
33	0x3ca15b5a	0.01969688
34	0x3c41a072	0.011818038
35	0x3c2515dc	0.010076012
36	0xbb3c3d7c	-0.002872317
37	0x3cb69603	0.022288328
38	0x3bae13e5	0.00531243
39	0x3bd638b2	0.0065375203
40	0x3c2a726a	0.010403255
41	0xbcd372a5	-0.025811503
42	0x3b16101c	0.0022897786
43	0xbc0fb573	-0.008771288
44	0xbc55a305	-0.013039355
45	0x3c0d8bec	0.008639317
46	0xbcb7b596	-0.022425454
47	0xbc9d3773	-0.01919148
48	0x3a182d3b	0.00058050797
49	0xbc686b72	-0.014185773
50	0x3ba83d50	0.005134262
51	0xbc061577	-0.008183829
52	0x3b5c6713	0.0033630773
53	0xbc7f0712	-0.015565651
54	0xbc6c798a	-0.014433274
55	0x3bd030af	0.00635346
56	0x3b1fce96	0.002438461
57	0xbc0139c1	-0.007887305
58	0x3c6af173	0.014339793
59	0x3c04fa73	0.008116352
60	0x3d02ab5f	0.031901713
61	0xbc0e2d6c	-0.008677822
62	0x3cb503df	0.022096572
63	0xbbca0b96	-0.006165932
64	0x3bd1e2a1	0.00640519
65	0xbc8305c5	-0.015993962
66	0xba48539c	-0.00076418533
67	0xbcb8d300	-0.02256155
68	0x3c595e91	0.013267175
69	0xb9365c62	-0.00017391288
70	0x3af8b724	0.0018975479
71	0xba979306	-0.0011564202
72	0x3c28ad7f	0.010295271
73	0x3c0a95cf	0.008458569
74	0x3c705bd8	0.014670335
75	0x3bad5111	0.005289205
76	0x3c428627	0.011872805
77	0x3bd8f58a	0.0066210674
78	0x3d2b3e63	0.041807543
79	0xb973e803	-0.00023260717
80	0xbc4b092d	-0.012392324
81	0x3bc18157	0.005905311
82	0xbc8c8750	-0.017154366
83	0xbb4f4acf	-0.0031630283
84	0xbc58d967	-0.0132354265
85	0xba985047	-0.0011620604
86	0xbba0d795	-0.004908512
87	0xbc5248ca	-0.012834737
88	0x3cbe8458	0.023256466
89	0x3b9fc282	0.004875482
90	0x3cd72a6d	0.026265347
91	0x3c0bdb43	0.008536163
92	0x3ca5e1bd	0.020249242
93	0x3cb15fea	0.02165218
94	0x3c2ef34b	0.010678123
95	0x3b87ee7b	0.004148302
96	0xbbef874f	-0.007309831
97	0xbd114d3e	-0.035474055
98	0x3c5f6638	0.013635211
99	0x3c6e3fdb	0.0145415915
100	0x3c383e08	0.011245258
101	0x3bed9408	0.0072503127
102	0xbc0d7c0d	-0.008635533
103	0x3bdda9b0	0.006764613
104	0x3c06bdc5	0.0082239555
105	0xbc0f5245	-0.008747642
106	0x3c0ed4da	0.00871774
107	0x3c792330	0.015206143
108	0xbc205469	-0.00978575
109	0xbc2f1015	-0.010684987
110	0x3b458c08	0.003014328
111	0x3c6bf89a	0.014402533
112	0xbd301b82	-0.042994983
113	0x3c994ce5	0.018713424
114	0x3c496b72	0.012293683
115	0xbbfb49d9	-0.0076687154
116	0x3c3f44eb	0.011674146
117	0x3bdcc057	0.006736796
118	0xbbd2d216	-0.0064337356
119	0x3c55a9ef	0.013041004
120	0xbcda287d	-0.026630634
121	0xb9dfb07d	-0.00042665369
122	0x3c411e0f	0.011786952
123	0xbcf15143	-0.029457694
124	0xbb824145	-0.003975066
125	0xbca16f17	-0.019706292
126	0x3c4fe852	0.012689667
127	0x3bbf53c7	0.0058388445
128	0xbae80b6b	-0.0017703598
129	0x3cc1aaec	0.023641072
130	0x3c9dfead	0.019286478
131	0xbc40cd0d	-0.011767638
132	0x3c3742f8	0.0111854
133	0xbc9faa2f	-0.01949033
134	0xbc984ea9	-0.018592196
135	0x3b569b31	0.003274631
136	0x3c67366a	0.014112094
137	0xba307087	-0.0006730635
138	0x3c4cfdcf	0.012511685
139	0xbbd2f496	-0.0064378483
140	0x3c014e25	0.007892166
141	0xbc605f75	-0.013694634
142	0xbc42dd3d	-0.011893568
143	0xbbac5258	-0.0052588396
144	0xbb386909	-0.0028138778
145	0x3cb183db	0.021669319
146	0x3c66c02f	0.014083906
147	0x3b990872	0.004670196
148	0x3bf01b83	0.0073274984
149	0xbb02e54d	-0.00199731
150	0xbc6623f9	-0.0140466625
151	0xbc2e5cf0	-0.010642275
152	0x3c29454f	0.010331466
153	0xbb5b0fca	-0.003342616
154	0x3cc4d783	0.024028545
155	0xbbcc0df4	-0.0062272493
156	0x3ca0af20	0.019614756
157	0x3be187c2	0.0068826387
158	0xbca6943a	-0.020334352
159	0xbc20f44a	-0.009823868
160	0xbaaa9bee	-0.0013016441
161	0x3ce9c82b	0.02853783
162	0xbb95204f	-0.0045509706
163	0x3c406c83	0.011744621
164	0xbc0686ac	-0.008210819
165	0xbc11fcad	-0.00891034
166	0xbae294eb	-0.0017286813
167	0xbcc21d2c	-0.02369555
168	0xbbc7cda7	-0.0060975137
169	0x3c8af9b0	0.016964763
170	0xba962d47	-0.0011457585
171	0x3c5ee5ec	0.013604622
172	0xbaa7f94b	-0.0012815384
173	0x3be6a46f	0.007038645
174	0xbacad9d7	-0.0015476298
175	0xbc805510	-0.015665561
176	0xbca4b8d4	-0.020107664
177	0xbbc87d20	-0.0061184317
178	0xbc1c7824	-0.009550128
179	0x3d146c9d	0.036236394
180	0x3c9b14d5	0.018930832
181	0x3a9ea817	0.0012104538
182	0xbb1d2216	-0.0023976616
183	0x3c1cf7ea	0.009580592
184	0x3d0545a5	0.03253712
185	0xbc3976b3	-0.011319804
186	0xbc447391	-0.011990444
187	0xbc3c93c0	-0.011509836
188	0xb8826000	-6.2167645e-05
189	0xbc5e2c64	-0.013560388
190	0xbc083f05	-0.008315806
191	0xbb96ab06	-0.0045980243
192	0xba7809d3	-0.0009461913
193	0xbc2130e7	-0.009838319
194	0xbca24625	-0.019808838
195	0xbc0cc3f6	-0.008591643
196	0x3b1c8837	0.0023884901
197	0x3cae8c79	0.021307217
198	0x3c47d1a3	0.012195977
199	0x3ccaff7b	0.024780026
200	0xba39b252	-0.0007083762
201	0x3c523a4d	0.012831283
202	0xbd0dac1a	-0.034587957
203	0x3c7ac895	0.015306612
204	0xbc04f8c3	-0.00811595
205	0xba1afc89	-0.00059122645
206	0xbcd88720	-0.02643162
207	0x3b61d3cd	0.0034458518
208	0xbb606945	-0.0034242433
209	0xbd03b36c	-0.032153532
210	0x3c473169	0.012157776
211	0x3be262f1	0.0069087674
212	0x3d248535	0.0401661
213	0xbbbfd450	-0.005854167
214	0xbaed15ba	-0.001808814
215	0x3c629a6b	0.013830761
216	0xbce4c3b5	-0.027925352
217	0x3c6e3634	0.01453929
218	0x3cddaffc	0.027061455
219	0x3cb1fbbe	0.021726485
220	0x3b197a8c	0.002341899
221	0x3b8defad	0.00433155
222	0xbc4adf6d	-0.01238237
223	0xbc819ffa	-0.015823353
224	0xbc7fa010	-0.015602127
225	0x3b41a0f4	0.0029545398
226	0x3c26a21c	0.010170486
227	0xbbd364e0	-0.006451234
228	0xbb9052b7	-0.0044043916
229	0xbc6936d9	-0.014234268
230	0xbc589035	-0.013217975
231	0x3c5d4f8d	0.013507736
232	0x3d3b0d80	0.04566717
233	0xbb76e9a6	-0.0037675886
234	0x3ce04c8b	0.027380249
235	0x3a996f41	0.001170613
236	0x3bcd37fa	0.0062627764
237	0x3ac58510	0.0015069563
238	0x3ba497b6	0.005022968
239	0x3c287261	0.010281176
240	0x3c887345	0.016656527
241	0xbc81ac5c	-0.015829258
242	0x3c4670d1	0.012111858
243	0x3c229ccf	0.009925081
244	0xbb8934a7	-0.004187185
245	0xbcb3f21e	-0.021966036
246	0xbd28ae56	-0.041181885
247	0x3c0bde8b	0.008536945
248	0x3c81d8b4	0.015850402
249	0xbc87b871	-0.01656744
250	0xbcff10cc	-0.031135939
251	0x3c4f4637	0.012651018
252	0x3bf2533b	0.0073951758
253	0x3c8cc6f4	0.017184712
254	0x3a8b1f8a	0.0010614258
255	0xbc4dd516	-0.012563011

conv1.lin_dst.weight f4 [256, 256]
0	0x3db397e7	0.087692074
1	0xbb656b48	-0.0035006572
2	0x3cbf9d18	0.023390338
3	0xbaa83752	-0.001283387
4	0xbb2676df	-0.0025400443
5	0x3c62a8df	0.013834207
6	0xbbea3f67	-0.0071486714
7	0x3c4f6128	0.012657441
8	0x3a1e8484	0.0006046968
9	0x3b30dc8b	0.0026986923
10	0xbcad4557	-0.021151228
11	0xbc5a3cdd	-0.013320175
12	0x3c26ea85	0.01018775
13	0x3c1fe3dd	0.009758917
14	0xbc1c6437	-0.009545377
15	0xbb515de6	-0.0031946837
16	0xbb8d76f7	-0.00431716
17	0xbc58f2cc	-0.013241481
18	0xbc82e710	-0.01597932
19	0xbcb1a4ca	-0.021685023
20	0x3b90a037	0.0044136303
21	0xbc60234b	-0.0136802895
22	0xbc1245ce	-0.008927776
23	0xbc671157	-0.014103255
24	0x3ccbd2b2	0.02488074
25	0x3ba8dc49	0.005153213
26	0x3cabb92f	0.020962326
27	0xbaf8b03d	-0.0018973422
28	0x3c1baa12	0.009500997
29	0xbc425cf6	-0.011862984
30	0x3cc48fe5	0.023994396
31	0x3c50c42d	0.012742084
32	0x3bc04ec8	0.0058687665
33	0x3ca15b5a	0.01969688
34	0x3c41a072	0.011818038
35	0x3c2515dc	0.010076012
36	0xbb3c3d7c	-0.002872317
37	0x3cb69603	0.022288328
38	0x3bae13e5	0.00531243
39	0x3bd638b2	0.0065375203
40	0x3c2a726a	0.010403255
41	0xbcd372a5	-0.025811503
42	0x3b16101c	0.0022897786
43	0xbc0fb573	-0.008771288
44	0xbc55a305	-0.013039355
45	0x3c0d8bec	0.008639317
46	0xbcb7b596	-0.022425454
47	0xbc9d3773	-0.01919148
48	0x3a182d3b	0.00058050797
49	0xbc686b72	-0.014185773
50	0x3ba83d50	0.005134262
51	0xbc061577	-0.008183829
52	0x3b5c6713	0.0033630773
53	0xbc7f0712	-0.015565651
54	0xbc6c798a	-0.014433274
55	0x3bd030af	0.00635346
56	0x3b1fce96	0.002438461
57	0xbc0139c1	-0.007887305
58	0x3c6af173	0.014339793
59	0x3c04fa73	0.008116352
60	0x3d02ab5f	0.031901713
61	0xbc0e2d6c	-0.008677822
62	0x3cb503df	0.022096572
63	0xbbca0b96	-0.006165932
64	0x3bd1e2a1	0.00640519
65	0xbc8305c5	-0.015993962
66	0xba48539c	-0.00076418533
67	0xbcb8d300	-0.02256155
68	0x3c595e91	0.013267175
69	0xb9365c62	-0.00017391288
70	0x3af8b724	0.0018975479
71	0xba979306	-0.0011564202
72	0x3c28ad7f	0.010295271
73	0x3c0a95cf	0.008458569
74	0x3c705bd8	0.014670335
75	0x3bad5111	0.005289205
76	0x3c428627	0.011872805
77	0x3bd8f58a	0.0066210674
78	0x3d2b3e63	0.041807543
79	0xb973e803	-0.00023260717
80	0xbc4b092d	-0.012392324
81	0x3bc18157	0.005905311
82	0xbc8c8750	-0.017154366
83	0xbb4f4acf	-0.0031630283
84	0xbc58d967	-0.0132354265
85	0xba985047	-0.0011620604
86	0xbba0d795	-0.004908512
87	0xbc5248ca	-0.012834737
88	0x3cbe8458	0.023256466
89	0x3b9fc282	0.004875482
90	0x3cd72a6d	0.026265347
91	0x3c0bdb43	0.008536163
92	0x3ca5e1bd	0.020249242
93	0x3cb15fea	0.02165218
94	0x3c2ef34b	0.010678123
95	0x3b87ee7b	0.004148302
96	0xbbef874f	-0.007309831
97	0xbd114d3e	-0.035474055
98	0x3c5f6638	0.013635211
99	0x3c6e3fdb	0.0145415915
100	0x3c383e08	0.011245258
101	0x3bed9408	0.0072503127
102	0xbc0d7c0d	-0.008635533
103	0x3bdda9b0	0.006764613
104	0x3c06bdc5	0.0082239555
105	0xbc0f5245	-0.008747642
106	0x3c0ed4da	0.00871774
107	0x3c792330	0.015206143
108	0xbc205469	-0.00978575
109	0xbc2f1015	-0.010684987
110	0x3b458c08	0.003014328
111	0x3c6bf89a	0.014402533
112	0xbd301b82	-0.042994983
113	0x3c994ce5	0.018713424
114	0x3c496b72	0.012293683
115	0xbbfb49d9	-0.0076687154
116	0x3c3f44eb	0.011674146
117	0x3bdcc057	0.006736796
118	0xbbd2d216	-0.0064337356
119	0x3c55a9ef	0.013041004
120	0xbcda287d	-0.026630634
121	0xb9dfb07d	-0.00042665369
122	0x3c411e0f	0.011786952
123	0xbcf15143	-0.029457694
124	0xbb824145	-0.003975066
125	0xbca16f17	-0.019706292
126	0x3c4fe852	0.012689667
127	0x3bbf53c7	0.0058388445
128	0xbae80b6b	-0.0017703598
129	0x3cc1aaec	0.023641072
130	0x3c9dfead	0.019286478
131	0xbc40cd0d	-0.011767638
132	0x3c3742f8	0.0111854
133	0xbc9faa2f	-0.01949033
134	0xbc984ea9	-0.018592196
135	0x3b569b31	0.003274631
136	0x3c67366a	0.014112094
137	0xba307087	-0.0006730635
138	0x3c4cfdcf	0.012511685
139	0xbbd2f496	-0.0064378483
140	0x3c014e25	0.007892166
141	0xbc605f75	-0.013694634
142	0xbc42dd3d	-0.011893568
143	0xbbac5258	-0.0052588396
144	0xbb386909	-0.0028138778
145	0x3cb183db	0.021669319
146	0x3c66c02f	0.014083906
147	0x3b990872	0.004670196
148	0x3bf01b83	0.0073274984
149	0xbb02e54d	-0.00199731
150	0xbc6623f9	-0.0140466625
151	0xbc2e5cf0	-0.010642275
152	0x3c29454f	0.010331466
153	0xbb5b0fca	-0.003342616
154	0x3cc4d783	0.024028545
155	0xbbcc0df4	-0.0062272493
156	0x3ca0af20	0.019614756
157	0x3be187c2	0.0068826387
158	0xbca6943a	-0.020334352
159	0xbc20f44a	-0.009823868
160	0xbaaa9bee	-0.0013016441
161	0x3ce9c82b	0.02853783
162	0xbb95204f	-0.0045509706
163	0x3c406c83	0.011744621
164	0xbc0686ac	-0.008210819
165	0xbc11fcad	-0.00891034
166	0xbae294eb	-0.0017286813
167	0xbcc21d2c	-0.02369555
168	0xbbc7cda7	-0.0060975137
169	0x3c8af9b0	0.016964763
170	0xba962d47	-0.0011457585
171	0x3c5ee5ec	0.013604622
172	0xbaa7f94b	-0.0012815384
173	0x3be6a46f	0.007038645
174	0xbacad9d7	-0.0015476298
175	0xbc805510	-0.015665561
176	0xbca4b8d4	-0.020107664
177	0xbbc87d20	-0.0061184317
178	0xbc1c7824	-0.009550128
179	0x3d146c9d	0.036236394
180	0x3c9b14d5	0.018930832
181	0x3a9ea817	0.0012104538
182	0xbb1d2216	-0.0023976616
183	0x3c1cf7ea	0.009580592
184	0x3d0545a5	0.03253712
185	0xbc3976b3	-0.011319804
186	0xbc447391	-0.011990444
187	0xbc3c93c0	-0.011509836
188	0xb8826000	-6.2167645e-05
189	0xbc5e2c64	-0.013560388
190	0xbc083f05	-0.008315806
191	0xbb96ab06	-0.0045980243
192	0xba7809d3	-0.0009461913
193	0xbc2130e7	-0.009838319
194	0xbca24625	-0.019808838
195	0xbc0cc3f6	-0.008591643
196	0x3b1c8837	0.0023884901
197	0x3cae8c79	0.021307217
198	0x3c47d1a3	0.012195977
199	0x3ccaff7b	0.024780026
200	0xba39b252	-0.0007083762
201	0x3c523a4d	0.012831283
202	0xbd0dac1a	-0.034587957
203	0x3c7ac895	0.015306612
204	0xbc04f8c3	-0.00811595
205	0xba1afc89	-0.00059122645
206	0xbcd88720	-0.02643162
207	0x3b61d3cd	0.0034458518
208	0xbb606945	-0.0034242433
209	0xbd03b36c	-0.032153532
210	0x3c473169	0.012157776
211	0x3be262f1	0.0069087674
212	0x3d248535	0.0401661
213	0xbbbfd450	-0.005854167
214	0xbaed15ba	-0.001808814
215	0x3c629a6b	0.013830761
216	0xbce4c3b5	-0.027925352
217	0x3c6e3634	0.01453929
218	0x3cddaffc	0.027061455
219	0x3cb1fbbe	0.021726485
220	0x3b197a8c	0.002341899
221	0x3b8defad	0.00433155
222	0xbc4adf6d	-0.01238237
223	0xbc819ffa	-0.015823353
224	0xbc7fa010	-0.015602127
225	0x3b41a0f4	0.0029545398
226	0x3c26a21c	0.010170486
227	0xbbd364e0	-0.006451234
228	0xbb9052b7	-0.0044043916
229	0xbc6936d9	-0.014234268
230	0xbc589035	-0.013217975
231	0x3c5d4f8d	0.013507736
232	0x3d3b0d80	0.04566717
233	0xbb76e9a6	-0.0037675886
234	0x3ce04c8b	0.027380249
235	0x3a996f41	0.001170613
236	0x3bcd37fa	0.0062627764
237	0x3ac58510	0.0015069563
238	0x3ba497b6	0.005022968
239	0x3c287261	0.010281176
240	0x3c887345	0.016656527
241	0xbc81ac5c	-0.015829258
242	0x3c4670d1	0.012111858
243	0x3c229ccf	0.009925081
244	0xbb8934a7	-0.004187185
245	0xbcb3f21e	-0.021966036
246	0xbd28ae56	-0.041181885
247	0x3c0bde8b	0.008536945
248	0x3c81d8b4	0.015850402
249	0xbc87b871	-0.01656744
250	0xbcff10cc	-0.031135939
251	0x3c4f4637	0.012651018
252	0x3bf2533b	0.0073951758
253	0x3c8cc6f4	0.017184712
254	0x3a8b1f8a	0.0010614258
255	0xbc4dd516	-0.012563011

conv2.att_src f4 [1, 8, 32]
0	0x9d62c8cf	-3.0014667e-21
1	0xa9beffc3	-8.4820626e-14
2	0x883b114d	-5.6293603e-34
3	0x9f2550fa	-3.500709e-20
4	0x0dd60041	1.3188829e-30
5	0x9bb08945	-2.9205466e-22
6	0x32291773	9.842426e-09
7	0x07d4e82e	3.2034678e-34
8	0x9d21ec66	-2.1430388e-21
9	0x35029b35	4.865463e-07
10	0x8cf02f22	-3.7006222e-31
11	0xb1e43866	-6.642085e-09
12	0xb74bf0e1	-1.2155827e-05
13	0x1d0a6061	1.8313975e-21
14	0x8a8b2c46	-1.3401867e-32
15	0xb1972b1c	-4.3995794e-09
16	0x8afc3cb4	-2.4289551e-32
17	0x27d539bf	5.9181985e-15
18	0xafa619f8	-3.0213676e-10
19	0x0bc8bbf9	7.732003e-32
20	0x9d632d2a	-3.006655e-21
21	0x16116b50	1.1746869e-25
22	0x36a0fed6	4.7980384e-06
23	0xb718d25f	-9.108887e-06
24	0x32f06705	2.7986525e-08
25	0x8d9e2320	-9.745958e-31
26	0x28e24f6d	2.5125486e-14
27	0xb38b0496	-6.473526e-08
28	0x28c4290a	2.1778169e-14
29	0xb3a42b37	-7.644706e-08
30	0x12576e17	6.7977734e-28
31	0x0895eaed	9.022842e-34
32	0x102d5f85	3.419182e-29
33	0xb5c927c2	-1.4987238e-06
34	0xb5ecf436	-1.7654445e-06
35	0x3602b212	1.947516e-06
36	0xb8478d64	-4.7576978e-05
37	0x189f56fd	4.1188372e-24
38	0x887b2905	-7.5580783e-34
39	0x2518eb0f	1.326354e-16
40	0xa4d4e48a	-9.2327504e-17
41	0xb730a7d6	-1.0529495e-05
42	0x2f0e9058	1.2966106e-10
43	0x08229dc1	4.893554e-34
44	0xb6081045	-2.027505e-06
45	0x0e9a26fe	3.800148e-30
46	0x917237be	-1.9107611e-28
47	0xb5dd79e7	-1.6501261e-06
48	0x89b459ea	-4.341798e-33
49	0x0a331c41	8.6238505e-33
50	0x36f3ef69	7.2698354e-06
51	0x3840275d	4.5813027e-05
52	0x0daaa27d	1.05161765e-30
53	0x9bc6c4cb	-3.2883527e-22
54	0x31b25afe	5.1908264e-09
55	0x9705918c	-4.3158324e-25
56	0x18121b3b	1.8883806e-24
57	0xb79f2d68	-1.8975421e-05
58	0x31bb7ead	5.4568177e-09
59	0x290d76e4	3.141141e-14
60	0x15f62a4c	9.942534e-26
61	0x0acbf599	1.9640573e-32
62	0xacbdae95	-5.3910856e-12
63	0x1534c167	3.6503278e-26
64	0x0a93767e	1.4200157e-32
65	0x8fa14b60	-1.5904859e-29
66	0x271d4d1f	2.1829934e-15
67	0xb48ef944	-2.6630926e-07
68	0x09269ede	2.0056222e-33
69	0x3019cecd	5.595496e-10
70	0x15246833	3.3201735e-26
71	0xad474447	-1.1327001e-11
72	0x0a70fb65	1.1602862e-32
73	0x944a0c31	-1.0200798e-26
74	0x8be60cfd	-8.861232e-32
75	0x09d5aec4	5.1442234e-33
76	0x35825e12	9.713133e-07
77	0x380e4be1	3.3926106e-05
78	0x3814e79b	3.550165e-05
79	0x36952967	4.445366e-06
80	0xb60bdb2e	-2.0840193e-06
81	0x9516acd2	-3.042859e-26
82	0x2fb11b7c	3.221564e-10
83	0x292c9d89	3.8328312e-14
84	0xb7ca66d8	-2.4128167e-05
85	0x898bfd03	-3.3700964e-33
86	0x34081335	1.2672974e-07
87	0xb2f04a1e	-2.7973382e-08
88	0xb22faa93	-1.0225125e-08
89	0xb4af81cf	-3.2690738e-07
90	0x184cddfd	2.6478457e-24
91	0x06c9143c	7.563753e-35
92	0x359f625d	1.1875051e-06
93	0x9e140a48	-7.837181e-21
94	0x8920d026	-1.935717e-33
95	0xa97f5a15	-5.6699508e-14
96	0xb4b6a1c4	-3.4017842e-07
97	0xa4597346	-4.7152015e-17
98	0x1439604b	9.3591036e-27
99	0xb3902e04	-6.713893e-08
100	0x9d11dc98	-1.9304635e-21
101	0x900de99b	-2.798731e-29
102	0x91ef305a	-3.773735e-28
103	0x8bb3496f	-6.905878e-32
104	0x0af287fe	2.3354907e-32
105	0x8d2aadc1	-5.2594443e-31
106	0x35c0631f	1.4333963e-06
107	0x3592826b	1.0915804e-06
108	0x0b7866f4	4.7840516e-32
109	0xa1dfab7e	-1.5156461e-18
110	0xb4497e50	-1.8765536e-07
111	0x25119226	1.2626262e-16
112	0x9bb826e8	-3.046539e-22
113	0x90223f6e	-3.199773e-29
114	0x0e5318b6	2.6019656e-30
115	0x8f263e86	-8.1964735e-30
116	0x1a536e4a	4.3722868e-23
117	0x9f485814	-4.2424504e-20
118	0x19bb17ee	1.9345012e-23
119	0x8fd0f224	-2.0603653e-29
120	0x2fb9947a	3.3756803e-10
121	0x2f0d2a3c	1.283888e-10
122	0x0b896563	5.292303e-32
123	0xb329940f	-3.9483037e-08
124	0x1b0e1af0	1.1754669e-22
125	0xac1a81a6	-2.1956686e-12
126	0x375cf55d	1.317015e-05
127	0x975e7e09	-7.1891147e-25
128	0x91cd68e6	-3.2407946e-28
129	0x2766a3fb	3.2007806e-15
130	0x252efb77	1.5177294e-16
131	0xac952953	-4.2394226e-12
132	0xb695246e	-4.444787e-06
133	0x88a05706	-9.650109e-34
134	0xb20df57a	-8.263095e-09
135	0x9d561ecc	-2.8338586e-21
136	0x135a64d8	2.7565188e-27
137	0x8aaa5ba8	-1.6404882e-32
138	0x28ae6186	1.9360175e-14
139	0x13651be2	2.891761e-27
140	0x9c85d47e	-8.85613e-22
141	0x090f26a9	1.7231177e-33
142	0x113acb59	1.4735474e-28
143	0x908a9169	-5.465544e-29
144	0xb83c3408	-4.487115e-05
145	0x08aff439	1.0589846e-33
146	0x152d7fd1	3.50379e-26
147	0x1dff6a2e	6.7607725e-21
148	0xb7596ad2	-1.2959079e-05
149	0x30b13378	1.2893073e-09
150	0x36fb271f	7.484937e-06
151	0x0bb33072	6.9021184e-32
152	0xa708fe28	-1.901157e-15
153	0x37bdf56b	2.2644837e-05
154	0xac837d84	-3.737179e-12
155	0x974205d7	-6.269215e-25
156	0xb23bca5e	-1.0930846e-08
157	0x20d5b242	3.6201565e-19
158	0xa7cb815a	-5.648406e-15
159	0x36f890a7	7.4078157e-06
160	0x0abf84cf	1.8442588e-32
161	0xb6af5e6b	-5.226398e-06
162	0x96d92a37	-3.5084882e-25
163	0x38339294	4.2813437e-05
164	0xab884b6c	-9.684315e-13
165	0x21392f36	6.274292e-19
166	0x0af218ac	2.3313033e-32
167	0x90b50894	-7.140513e-29
168	0x9aa18c4f	-6.681472e-23
169	0xb74c59db	-1.2180269e-05
170	0x2d707349	1.3668019e-11
171	0xb529b7cd	-6.322487e-07
172	0xb48f371b	-2.667592e-07
173	0x8c3663f0	-1.4050844e-31
174	0x32257542	9.630925e-09
175	0x3257b604	1.2556033e-08
176	0xae9a2502	-7.009683e-11
177	0xa4202cff	-3.4732583e-17
178	0x2ba02236	1.1378179e-12
179	0x9b342698	-1.4901721e-22
180	0xad0cdc81	-8.00704e-12
181	0xad3c4e5b	-1.0703961e-11
182	0xb7b5cbcb	-2.167178e-05
183	0x9b98a400	-2.5252273e-22
184	0xb299187b	-1.7822677e-08
185	0x92956412	-9.427891e-28
186	0x2989962d	6.1100735e-14
187	0x36b3fac4	5.3638087e-06
188	0xa03dffa3	-1.6093506e-19
189	0x9719732b	-4.958233e-25
190	0xa97f6cc5	-5.6715717e-14
191	0x322bb35e	9.994293e-09
192	0x1b079780	1.121589e-22
193	0x2b298a8e	6.0233144e-13
194	0x8e6fee24	-2.9573685e-30
195	0x2451ba12	4.547726e-17
196	0xaa0dca4f	-1.2593506e-13
197	0x14e7d2be	2.3408162e-26
198	0x9b97927c	-2.5075518e-22
199	0x35c9162b	1.4982119e-06
200	0x0fa71cbd	1.6478541e-29
201	0x1a01fe82	2.6882165e-23
202	0x35a4d5a0	1.2281125e-06
203	0x0f0f67eb	7.070458e-30
204	0xb6cdcbe2	-6.133211e-06
205	0x8aa28562	-1.5650206e-32
206	0x25057980	1.1577077e-16
207	0x101f959e	3.1472482e-29
208	0xb613f92f	-2.204975e-06
209	0x8a8a9bc7	-1.3347514e-32
210	0x8a378b39	-8.837314e-33
211	0x8bbf363f	-7.3652144e-32
212	0x305ea0ee	8.0991824e-10
213	0xb22dcb9a	-1.0116219e-08
214	0xb22d64ab	-1.0092815e-08
215	0x2f175004	1.3761797e-10
216	0x2a62ee50	2.0155514e-13
217	0x3705b63f	7.96985e-06
218	0x175eaee2	7.19528e-25
219	0xad78da6c	-1.4145667e-11
220	0x09ca82da	4.8752783e-33
221	0x0e4f1d99	2.552897e-30
222	0x12a773ce	1.056773e-27
223	0x36375e0a	2.7323863e-06
224	0xa51b4280	-1.3466638e-16
225	0x9f755057	-5.1947224e-20
226	0xae97db16	-6.9056025e-11
227	0x08c25fbe	1.1698459e-33
228	0x97e5c6e2	-1.4848983e-24
229	0xb771dc5f	-1.44160285e-05
230	0x8989da12	-3.3186623e-33
231	0x1547aac2	4.0322434e-26
232	0x9b7b0049	-2.0762326e-22
233	0xb2ef8720	-2.788471e-08
234	0x204d2486	1.737626e-19
235	0xb446714e	-1.8481407e-07
236	0xaa9d43b1	-2.7935773e-13
237	0xb2d3fb9c	-2.4678052e-08
238	0x98c64c1d	-5.1258655e-24
239	0x1b91da06	2.4129132e-22
240	0x1f303ce0	3.7319804e-20
241	0x1e4d8408	1.0879913e-20
242	0xa80d44ee	-7.842019e-15
243	0xb781d983	-1.5479285e-05
244	0x063f4165	3.5971152e-35
245	0x2bd873d8	1.5379876e-12
246	0x89ca3905	-4.8683352e-33
247	0x09314d37	2.1341906e-33
248	0xb4fb5ab6	-4.6818394e-07
249	0x316ba01a	3.4288008e-09
250	0xae54cd31	-4.8385466e-11
251	0x0ac8080e	1.926233e-32
252	0xaa4cd8d0	-1.8194062e-13
253	0x11f642ac	3.8853046e-28
254	0x0a10ac34	6.9657356e-33
255	0x30e64756	1.6754977e-09
