SCG-SFFL-main/SFFL/pretrained_models/realm-java.pt (torch, 799425 bytes, 15 tensors)

conv1.att_src f4 [1, 8, 32]
0	0x8002ae94	-2.46298e-40
1	0x3264d6d1	1.332019e-08
2	0xa004f95d	-1.1263342e-19
3	0x0000bb14	6.7111e-41
4	0x96eec4a0	-3.8575062e-25
5	0x2ce677fd	6.5503145e-12
6	0x800084b0	-4.76e-41
7	0x305a9427	7.9518475e-10
8	0x165c6721	1.7804e-25
9	0x349adf42	2.8847177e-07
10	0x985eaa18	-2.8778703e-24
11	0x000439a4	3.8802e-40
12	0xab87a64a	-9.638481e-13
13	0xa0f5ba00	-4.16277e-19
14	0x1ac4c5ca	8.1383245e-23
15	0x8d9a404a	-9.50646e-31
16	0x8f93b484	-1.4564851e-29
17	0x34454e5c	1.8375562e-07
18	0x9ab66d62	-7.5450153e-23
19	0x2c485518	2.8468946e-12
20	0x0002f457	2.71324e-40
21	0x1f84163a	5.5940945e-20
22	0x9cd362ae	-1.3988317e-21
23	0x8000b87a	-6.6178e-41
24	0x30335ac3	6.52488e-10
25	0x881b76a9	-4.67831e-34
26	0xabc11d70	-1.3721645e-12
27	0x8021c6e1	-3.101916e-39
28	0x31064f04	1.9544482e-09
29	0xb48d0dd5	-2.627336e-07
30	0x29e0b6a0	9.979279e-14
31	0x800c46b0	-1.127384e-39
32	0x90102191	-2.842485e-29
33	0xb420d342	-1.4978016e-07
34	0x00002c51	1.5898e-41
35	0xacdde4bc	-6.3065924e-12
36	0x8d5bb198	-6.7698356e-31
37	0x34ca1d74	3.7646862e-07
38	0x00000285	9.04e-43
39	0x333fc1b4	4.4646825e-08
40	0x80003e74	-2.2404e-41
41	0x2953b228	4.7005938e-14
42	0x343be17e	1.7497766e-07
43	0x80017760	-1.34659e-40
44	0x2916d698	3.349282e-14
45	0x30b278e7	1.2985567e-09
46	0x2db2f892	2.0346645e-11
47	0xb30d0a37	-3.283841e-08
48	0xac5eb64d	-3.1649295e-12
49	0x0f052104	6.563765e-30
50	0x91f62d80	-3.8839998e-28
51	0xb48e0665	-2.6454214e-07
52	0x12852aa0	8.403988e-28
53	0x073f6677	1.4399355e-34
54	0x00001061	5.876e-42
55	0x343f70cf	1.78293e-07
56	0x8b91faa8	-5.6229114e-32
57	0x29082e8d	3.0238443e-14
58	0x2f886820	2.481224e-10
59	0x2a4b6083	1.8063506e-13
60	0x83c4a633	-1.1558002e-36
61	0x002e1856	4.233163e-39
62	0x02272b13	1.2281584e-37
63	0xb4cf5b0f	-3.8623008e-07
64	0x34a50a48	3.0741126e-07
65	0x87487987	-1.5082041e-34
66	0x339fecc1	7.44708e-08
67	0x000cabb3	1.16362e-39
68	0xaf150480	-1.355307e-10
69	0x1848da52	2.5959618e-24
70	0x27dbbd9c	6.0990285e-15
71	0x91691088	-1.8385553e-28
72	0x2b93be58	1.0497809e-12
73	0x0b7f22d5	4.9137418e-32
74	0x15b77196	7.409232e-26
75	0xa3c3f11a	-2.1244053e-17
76	0x80241912	-3.315071e-39
77	0x9a16f718	-3.1218874e-23
78	0x34faa312	4.6684778e-07
79	0x29ccc8df	9.0942655e-14
80	0x8ea9e4ce	-4.1882047e-30
81	0xb1f89844	-7.2350606e-09
82	0x339272f0	6.819562e-08
83	0x12d97abb	1.3724881e-27
84	0x0002fff8	2.75495e-40
85	0x2b4c4a1a	7.2578196e-13
86	0x2e4b520b	4.6229725e-11
87	0x3204b535	7.724613e-09
88	0x2e8b3a93	6.331393e-11
89	0x80c7a399	-1.8333952e-38
90	0x000034f1	1.8992e-41
91	0xb4dd8086	-4.125797e-07
92	0x8006e985	-6.34784e-40
93	0x8e0018bc	-1.5789127e-30
94	0xad057f01	-7.588375e-12
95	0xa82174f6	-8.962657e-15
96	0x052c1cc2	8.092683e-36
97	0x00021345	1.90584e-40
98	0x19e0d823	2.3248354e-23
99	0x30b718b8	1.3322028e-09
100	0x9b42da11	-1.6117765e-22
101	0x1d905f25	3.821486e-21
102	0x0003b8a4	3.41743e-40
103	0x2ccbe6f0	5.7952462e-12
104	0x2d85d179	1.5213374e-11
105	0x3203f8b0	7.681749e-09
106	0x2d77e017	1.4090082e-11
107	0x818821a7	-5.00068e-38
108	0x1867465b	2.989157e-24
109	0x11902048	2.273909e-28
110	0x8000fc90	-9.0602e-41
111	0x00000897	3.081e-42
112	0x25b0d314	3.0674165e-16
113	0x0035909e	4.91916e-39
114	0x243def7d	4.1185697e-17
115	0xb3f3b4b7	-1.1348441e-07
116	0x21300ba7	5.964654e-19
117	0x9ea14da8	-1.7078656e-20
118	0x2dd359af	2.402775e-11
119	0x9e8adf96	-1.4703791e-20
120	0xa55725c0	-1.8661068e-16
121	0xad59666c	-1.2357764e-11
122	0xa8772333	-1.3718887e-14
123	0x2e687a9b	5.2859588e-11
124	0x16031770	1.0589491e-25
125	0x92f0a2b2	-1.5186237e-27
126	0x000b817e	1.056644e-39
127	0x03d13864	1.2296863e-36
128	0x0055f250	7.892943e-39
129	0x2a1b6f1b	1.3805313e-13
130	0x28517fe1	1.162956e-14
131	0xb41e29e6	-1.4730139e-07
132	0x2d071560	7.678608e-12
133	0x9d8eaac7	-3.7763667e-21
134	0xb4a83c26	-3.1336202e-07
135	0xb44bf5f6	-1.8995328e-07
136	0x9586bfcd	-5.442478e-26
137	0xa033556c	-1.5190153e-19
138	0x1041726b	3.8150683e-29
139	0x00011276	9.8458e-41
140	0x0413ab80	1.7358516e-36
141	0x970cf907	-4.5550756e-25
142	0x16409102	1.5555393e-25
143	0x800015ae	-7.777e-42
144	0x00b3ebcd	1.6523143e-38
145	0x0001e7ea	1.7503e-40
146	0xae9a95bc	-7.0297074e-11
147	0x35117778	5.419056e-07
148	0xaf22af22	-1.4796034e-10
149	0x81c6254a	-7.278722e-38
150	0x2b8e3db4	1.0106833e-12
151	0xad4554a0	-1.1216944e-11
152	0x2fd313b1	3.8394668e-10
153	0x2995ddb1	6.6553866e-14
154	0x2a687a4c	2.064817e-13
155	0x09bfd7d5	4.6184545e-33
156	0x90aad1db	-6.737651e-29
157	0x8002ee35	-2.69124e-40
158	0xaec72381	-9.055779e-11
159	0x048ef43d	3.3608337e-36
160	0x2f725b03	2.2042106e-10
161	0x00000555	1.913e-42
162	0x0d6a2d0a	7.216103e-31
163	0x00024aa5	2.10448e-40
164	0x0d1ee471	4.8962485e-31
165	0x34277543	1.5595747e-07
166	0x328f3401	1.667104e-08
167	0x1d51bc8f	2.7758402e-21
168	0x069d9460	5.9274854e-35
169	0xb20a7502	-8.059262e-09
170	0x21323644	6.0380566e-19
171	0x2fb1e6d1	3.2360117e-10
172	0x80006387	-3.5704e-41
173	0xa7155abb	-2.0727089e-15
174	0x8c139c18	-1.1371441e-31
175	0x01568179	3.9398484e-38
176	0x0c6eb48c	1.8389184e-31
177	0xb3078266	-3.1550734e-08
178	0x2f02baab	1.1889749e-10
179	0xae29e5a1	-3.8630103e-11
180	0x14693e87	1.1775825e-26
181	0x014b8821	3.738288e-38
182	0x32d2c9dd	2.4539014e-08
183	0x80013a9a	-1.12858e-40
184	0x3190b167	4.21112e-09
185	0x0e0cb52c	1.7343563e-30
186	0xa3de4ae3	-2.4101004e-17
187	0x1ad092ef	8.626417e-23
188	0x0001d228	1.67225e-40
189	0x15c879c4	8.097147e-26
190	0x9150ab3c	-1.6461072e-28
191	0xaa37ad39	-1.6313764e-13
192	0x9419433f	-7.737788e-27
193	0xb2b92e84	-2.1557987e-08
194	0x34cdee44	3.8357587e-07
195	0x283157a1	9.844475e-15
196	0xae68ae8f	-5.2905732e-11
197	0xa6a0aba3	-1.1148752e-15
198	0xb023b157	-5.955107e-10
199	0x0000928b	5.257e-41
200	0x16683375	1.8757048e-25
201	0x000c0eca	1.107331e-39
202	0x288a1801	1.5331488e-14
203	0x954981cf	-4.0694028e-26
204	0x0209469a	1.0085432e-37
205	0x9d7dd94e	-3.3596615e-21
206	0xb329b9ad	-3.951725e-08
207	0xa533d840	-1.5599043e-16
208	0xaff3b2a2	-4.432837e-10
209	0x82e80224	-3.4090565e-37
210	0x800061b7	-3.5053e-41
211	0xa07a1adb	-2.118471e-19
212	0x262966ee	5.877315e-16
213	0x0f192054	7.5497086e-30
214	0x2d0797bf	7.707556e-12
215	0x2f29d789	1.5447034e-10
216	0x8041aca3	-6.031238e-39
217	0xb4fdbd09	-4.7262463e-07
218	0x88bcd3ca	-1.136463e-33
219	0x2ce1f5c8	6.422172e-12
220	0x80022add	-1.99047e-40
221	0x000034d8	1.8957e-41
222	0x86bb148d	-7.037178e-35
223	0xb475b7a2	-2.2884208e-07
224	0xa58bb0f8	-2.4232575e-16
225	0x947230e1	-1.2227517e-26
226	0x035d8b24	6.510579e-37
227	0xa9a748f7	-7.428947e-14
228	0x800c89d9	-1.151476e-39
229	0x9e0c483b	-7.426475e-21
230	0xb12f159a	-2.547813e-09
231	0xa0197d03	-1.3000967e-19
232	0x8000c173	-6.9397e-41
233	0x2f62785a	2.0597338e-10
234	0x00971091	1.3873103e-38
235	0x9d37d36f	-2.4329157e-21
236	0x34b2ec1c	3.3326876e-07
237	0x0205db9a	9.834319e-38
238	0x84375779	-2.1551712e-36
239	0x32e7793d	2.6947072e-08
240	0xad8a2cd0	-1.5708684e-11
241	0x8e495a7d	-2.4818731e-30
242	0x05b04b5e	1.6578646e-35
243	0x80068f0f	-6.02333e-40
244	0x33cf7484	9.660383e-08
245	0x321c0785	9.082105e-09
246	0x80009830	-5.4595e-41
247	0x12c63a18	1.2509878e-27
248	0xb45f3968	-2.0789378e-07
249	0x000a4bae	9.45504e-40
250	0xb3cfd8f9	-9.678656e-08
251	0x00000117	3.91e-43
252	0xa1335376	-6.075802e-19
253	0x9cd9a495	-1.4402399e-21
254	0x012a15cb	3.1239704e-38
255	0xadf38fe3	-2.76898e-11

conv1.att_dst f4 [1, 8, 32]
0	0x1aa64abd	6.877674e-23
1	0xab6de17a	-8.4512226e-13
2	0x0000d7be	7.7394e-41
3	0x00077e27	6.88103e-40
4	0xa9ac95b6	-7.664305e-14
5	0x2fb1cc37	3.2341216e-10
6	0x90c01fbc	-7.577954e-29
7	0xb0e5ffe8	-1.6734676e-09
8	0x85874386	-1.2720143e-35
9	0x325d403f	1.2878501e-08
10	0x2fbd8971	3.4476558e-10
11	0x183048c6	2.2784208e-24
12	0x000069c8	3.7947e-41
13	0x000059bc	3.219e-41
14	0x33611798	5.2408353e-08
15	0x000466a7	4.04167e-40
16	0x000077fe	4.3045e-41
17	0x32022601	7.575637e-09
18	0x0dbee97d	1.1765864e-30
19	0x29fb0a81	1.1148461e-13
20	0x2f85799c	2.4278968e-10
21	0x00005c3e	3.309e-41
22	0xb22e9208	-1.0161337e-08
23	0x00025a77	2.16124e-40
24	0x04335777	2.108151e-36
25	0x1010621f	2.8474582e-29
26	0x34e9ad7c	4.3525858e-07
27	0x8000ae65	-6.2561e-41
28	0x000000d2	2.94e-43
29	0xae9b205b	-7.0543314e-11
30	0x2af80d9a	4.4063088e-13
31	0x9f47f425	-4.234184e-20
32	0x00003025	1.7271e-41
33	0x00044ddb	3.95271e-40
34	0x0822d37d	4.8998705e-34
35	0x2f311033	1.6103811e-10
36	0x8994a580	-3.578534e-33
37	0x8b01bf23	-2.4988292e-32
38	0x32dbfd92	2.5610266e-08
39	0x2eb23392	8.1036636e-11
40	0x98793c71	-3.221301e-24
41	0x33344b65	4.1978087e-08
42	0x020126d4	9.488566e-38
43	0x00003529	1.907e-41
44	0x000a5571	9.49006e-40
45	0x9ad14cc6	-8.656441e-23
46	0x1d9bd393	4.124692e-21
47	0x0cef3ebf	3.6861544e-31
48	0x8dc0ffff	-1.1894542e-30
49	0xb0f305db	-1.7682241e-09
50	0x0001de2a	1.71533e-40
51	0x8f57fc44	-1.0648903e-29
52	0x80f16518	-2.216862e-38
53	0xb1c6e457	-5.7885177e-09
54	0xab4d98d1	-7.3042706e-13
55	0xa935ce69	-4.0369106e-14
56	0x01abb9dc	6.3082174e-38
57	0x800286e6	-2.32063e-40
58	0xa89cef7d	-1.742334e-14
59	0x0000f742	8.87e-41
60	0xb00ab787	-5.0464916e-10
61	0x34ba52af	3.470536e-07
62	0x30f42a7b	1.776541e-09
63	0x33013814	3.0086156e-08
64	0x00040610	3.69517e-40
65	0xafe7dda7	-4.217615e-10
66	0x9d9cadc3	-4.147252e-21
67	0x0003c2ef	3.45435e-40
68	0x0fdac6fa	2.1573103e-29
69	0x00241205	3.312542e-39
70	0x33328e15	4.1573077e-08
71	0x21332825	6.070069e-19
72	0x34270d46	1.5557916e-07
73	0xb4c36ac1	-3.6399254e-07
74	0x2f64fa1e	2.0825339e-10
75	0x00008bae	5.0108e-41
76	0x00023fd8	2.06574e-40
77	0x194786e6	1.0315301e-23
78	0x8806ed38	-4.0603008e-34
79	0x8009ad8d	-8.88778e-40
80	0x00b11e73	1.6265806e-38
81	0xa9bbfd3d	-8.348398e-14
82	0x0d11a960	4.4885452e-31
83	0x98ef1817	-6.1804377e-24
84	0x3310eeca	3.374479e-08
85	0x0775b33f	1.8484427e-34
86	0x17e1a5d4	1.4582145e-24
87	0x9610142f	-1.1638596e-25
88	0x2cd3a963	6.0157864e-12
89	0x2be244e4	1.6077387e-12
90	0xb37c34f9	-5.87215e-08
91	0x825376b1	-1.5535895e-37
92	0x850c3343	-6.592184e-36
93	0x2812d07a	8.149834e-15
94	0x185e961b	2.8768611e-24
95	0x8000714c	-4.0643e-41
96	0x8a954de4	-1.4377477e-32
97	0x8002911d	-2.35728e-40
98	0x2f036fb2	1.1954063e-10
99	0x03fc6b40	1.4835852e-36
100	0x185d3260	2.8589013e-24
101	0xb2d426af	-2.469764e-08
102	0x9d63de88	-3.0158246e-21
103	0x00452e3b	6.353234e-39
104	0x8000dfb1	-8.0245e-41
105	0x872af300	-1.286079e-34
106	0x80e69f71	-2.1179361e-38
107	0x8f04cfc3	-6.548116e-30
108	0xb4f9f8d1	-4.6560902e-07
109	0x940ce5d6	-7.113521e-27
110	0x85073bbb	-6.35864e-36
111	0x320c241a	8.157281e-09
112	0x28888b1c	1.5159362e-14
113	0x22359bd8	2.4612577e-18
114	0x8000d1ab	-7.5215e-41
115	0x00000d8b	4.858e-42
116	0x1c2f2ffb	5.7964656e-22
117	0x2d5a6e44	1.2416349e-11
118	0xafeddf36	-4.326865e-10
119	0x2e42d369	4.4298263e-11
120	0x262c5f20	5.9803406e-16
121	0x00fad507	2.3035294e-38
122	0x80010e7b	-9.703e-41
123	0x23a363f7	1.7714832e-17
124	0x001f9e7c	2.903754e-39
125	0x8000b014	-6.3165e-41
126	0x8c9043f6	-2.2227615e-31
127	0x0981a46b	3.121024e-33
128	0x800153ac	-1.21851e-40
129	0xb4b6b0ef	-3.4028878e-07
130	0xb33efce3	-4.446782e-08
131	0x0379161b	7.31999e-37
132	0x90105ddd	-2.8471302e-29
133	0x2f997156	2.7911068e-10
134	0xb03af692	-6.8016803e-10
135	0x00002d14	1.6171e-41
136	0xabfb3ca2	-1.7851452e-12
137	0x0001173c	1.0017e-40
138	0x29a7ed62	7.457469e-14
139	0xb4d9217a	-4.0443757e-07
140	0x336327c1	5.2888712e-08
141	0x805436e3	-7.733871e-39
142	0xb3508ff9	-4.8559716e-08
143	0x0f80bb74	1.2693979e-29
144	0x02ffaa07	3.7566473e-37
145	0x349e1fe7	2.9453005e-07
146	0xb3fc3895	-1.1744957e-07
147	0x8133c57b	-3.3018793e-38
148	0x8b2df00b	-3.3499176e-32
149	0x9c855c47	-8.825055e-22
150	0x04a66a53	3.9124056e-36
151	0xb4ac3a51	-3.2079927e-07
152	0x8000af78	-6.2946e-41
153	0xb4976551	-2.819966e-07
154	0x237c272c	1.3669242e-17
155	0xad285ba5	-9.5700435e-12
156	0x00037e87	3.20896e-40
157	0x34078bb9	1.2623686e-07
158	0x1d0c4fca	1.8570096e-21
159	0x80a9db53	-1.5598878e-38
160	0x808b4d64	-1.2792896e-38
161	0x1033adc8	3.5435402e-29
162	0x947083c8	-1.2142893e-26
163	0x350abc11	5.168268e-07
164	0x1604aac7	1.0716763e-25
165	0xb33ade42	-4.3508642e-08
166	0x8005636d	-4.94845e-40
167	0x1d9ec55d	4.202632e-21
168	0x1fb4f84b	7.664373e-20
169	0x186719e5	2.9869124e-24
170	0xa948e53f	-4.460776e-14
171	0xa407c008	-2.9436115e-17
172	0x0000a4cb	5.9117e-41
173	0x00005fcf	3.437e-41
174	0xad9ea192	-1.8034272e-11
175	0x8c5e4378	-1.7122561e-31
176	0x8006730e	-5.92287e-40
177	0x09a16c10	3.886096e-33
178	0x9f9c267f	-6.6132256e-20
179	0x80007955	-4.3526e-41
180	0x26926852	1.0159061e-15
181	0x05ad0b0f	1.6272904e-35
182	0xb2128fc2	-8.531005e-09
183	0x016fdaeb	4.4054433e-38
184	0x9a9a65f2	-6.385761e-23
185	0x2a24eabb	1.4647565e-13
186	0xa840a212	-1.06932844e-14
187	0x25db4f16	3.8044035e-16
188	0x000034a1	1.888e-41
189	0x0027403f	3.604632e-39
190	0x13799576	3.1501908e-27
191	0x800512b6	-4.6589e-40
192	0x80004bc4	-2.718e-41
193	0x881bb37a	-4.685459e-34
194	0x0fdb19f8	2.160507e-29
195	0x324c85c1	1.1904775e-08
196	0x816624a5	-4.227062e-38
197	0x088c80dd	8.456239e-34
198	0x1cc14ccc	1.279152e-21
199	0x0000438b	2.423e-41
200	0xa13a3dd9	-6.3101106e-19
201	0x948c2080	-1.4149206e-26
202	0x04388ee4	2.1694708e-36
203	0x842284f9	-1.9104067e-36
204	0x0000be57	6.8281e-41
205	0x1cf1d94b	1.6004211e-21
206	0x00000cc3	4.578e-42
207	0xab41dbb6	-6.8872284e-13
208	0x2f313398	1.6116386e-10
209	0x2f4b8597	1.8510203e-10
210	0x00005833	3.164e-41
211	0x800e3723	-1.305476e-39
212	0x800089ba	-4.9407e-41
213	0x8a799943	-1.2017739e-32
214	0x00004417	2.4426e-41
215	0x8009a3a3	-8.85221e-40
216	0xad74ea8b	-1.3921873e-11
217	0x0194702e	5.4527584e-38
218	0x2905f632	2.9745473e-14
219	0xb4c9e22c	-3.760373e-07
220	0xaf29460c	-1.5395346e-10
221	0x001e0fd6	2.760746e-39
222	0x28899efd	1.5279006e-14
223	0x0fe0c504	2.2163993e-29
224	0x0000e36f	8.1588e-41
225	0x12e4740b	1.441743e-27
226	0x3245bd23	1.1509914e-08
227	0x094ae87d	2.4424181e-33
228	0x0e351b16	2.2323014e-30
229	0x0002a949	2.44399e-40
230	0x872330ce	-1.22771e-34
231	0x165eb9ee	1.7991686e-25
232	0x13858b7b	3.371146e-27
233	0x8001bc1a	-1.59314e-40
234	0xa12e4ea8	-5.9057594e-19
235	0x992e3bdb	-9.007677e-24
236	0x88bb4053	-1.1269776e-33
237	0x8000bd6e	-6.7955e-41
238	0x94837860	-1.3275099e-26
239	0x8000b634	-6.5362e-41
240	0xa12029f5	-5.426564e-19
241	0x1644ce52	1.5897857e-25
242	0xa7600f61	-3.1094582e-15
243	0x32945e1d	1.7272265e-08
244	0x0f85c6b9	1.3191358e-29
245	0x80637192	-9.132455e-39
246	0x0039ebef	5.31926e-39
247	0x80028b53	-2.33651e-40
248	0x2baffea3	1.2505174e-12
249	0x29d358c4	9.385681e-14
250	0x2cd9b775	6.1878788e-12
251	0x80f4108d	-2.2413798e-38
252	0x9bd6429f	-3.5446383e-22
253	0x849c0ebf	-3.6688966e-36
254	0xb44c9657	-1.9053674e-07
255	0x240add59	3.011147e-17

conv1.bias f4 [256]
0	0xbc424e21	-0.011859448
1	0xbbb35b2c	-0.005473515
2	0xbcbde971	-0.023182603
3	0xba980d19	-0.0011600583
4	0xbd036888	-0.03208211
5	0x3b31eff1	0.0027151073
6	0xbc3b0a96	-0.011416098
7	0x3cdc2dc4	0.026877292
8	0xbc035aad	-0.008017224
9	0xbc6dbc95	-0.0145102935
10	0x3b340dfe	0.002747416
11	0x3cd1b2ef	0.025598017
12	0xbce6b995	-0.028164664
13	0xbb1cc217	-0.0023919397
14	0x3c9e8d18	0.019354388
15	0xbd3c24e4	-0.04593362
16	0x3c00c94a	0.007860491
17	0xbc164219	-0.009171032
18	0xbc77b7a5	-0.015119468
19	0xbb1db3d0	-0.0024063475
20	0xbc4b7454	-0.0124178715
21	0x3c9bd0e7	0.01902051
22	0x3c461870	0.012090787
23	0xbca5c983	-0.02023769
24	0x3cc2ae72	0.023764823
25	0x3c928235	0.017884353
26	0x3d359103	0.044327747
27	0xbce31570	-0.027720183
28	0x395ebb70	0.00021241396
29	0x3c61deff	0.013786077
30	0x3a33727a	0.00068453664
31	0xbc0ea9e3	-0.008707496
32	0xbd0d7463	-0.034534823
33	0x3a9ef543	0.0012127537
34	0x3b9f1ee4	0.0048559774
35	0xbc931905	-0.017956266
36	0x3c43c3c2	0.011948528
37	0xbc55e7de	-0.01305577
38	0xbccb159e	-0.024790581
39	0x3bb39ee3	0.0054815873
40	0x3b179197	0.002312755
41	0x3c3a4f24	0.011371408
42	0xbc3d2456	-0.011544308
43	0x3d0c3fd5	0.034240562
44	0x3d18c96f	0.037301477
45	0x3cb10d89	0.0216129
46	0x3c572c9c	0.013133194
47	0xbc84e1f3	-0.016221022
48	0x3ae85939	0.0017726786
49	0xbbf9c3bc	-0.0076222103
50	0x3aee60b4	0.0018186779
51	0xbaa42a37	-0.0012524788
52	0x3cd32d91	0.025778564
53	0x3c9f6361	0.019456567
54	0x3c220d72	0.009890901
55	0xbb1d85d3	-0.0024036064
56	0xbc036364	-0.008019302
57	0x3ccbe89b	0.024891188
58	0xbace6a2b	-0.0015748193
59	0xbb16699b	-0.002295113
60	0xbbdd6044	-0.0067558605
61	0xba206200	-0.0006118119
62	0xbb15b8a6	-0.0022845655
63	0x3cf8af2c	0.030356966
64	0xbb207a02	-0.0024486785
65	0x3cdfdb08	0.027326122
66	0x3cb0fb8a	0.021604318
67	0x3c9cf7a5	0.019161055
68	0xbc55033b	-0.0130012585
69	0x3bf653ee	0.0075173294
70	0x3b8da9f5	0.004323239
71	0x3c8238a3	0.015896147
72	0xbcd66dfc	-0.026175492
73	0xbc0d7096	-0.0086328
74	0x3a3ea9d5	0.0007273232
75	0x3ce5c1cd	0.028046513
76	0xb9d70b4a	-0.00041016407
77	0xba43622a	-0.0007453287
78	0xbbb2935b	-0.005449695
79	0xbc213716	-0.009839794
80	0xbb886649	-0.004162584
81	0x3bd2eaa6	0.0064366637
82	0xb9e146d5	-0.00042968118
83	0x3c6cd5ec	0.0144553
84	0x3b0d32d0	0.002154518
85	0x3c0fdc11	0.008780495
86	0xbcc6dc18	-0.02427487
87	0x3c6b6f21	0.014369757
88	0x3ca38fab	0.019965967
89	0x3c9f7cf7	0.019468768
90	0xbcdcc332	-0.026948545
91	0xbc3cffdb	-0.01153561
92	0xbc9fa074	-0.01948569
93	0x3c1ff060	0.0097619
94	0x3bae34ab	0.005316337
95	0xbc8a3734	-0.016872026
96	0xbba0b32c	-0.0049041715
97	0x3c7e2346	0.0155113395
98	0x3c162627	0.00916437
99	0xbaeafc12	-0.0017927906
100	0xba16c328	-0.00057511264
101	0xbc45edbe	-0.012080608
102	0x3bc1175d	0.0058926777
103	0xbce9a282	-0.028519873
104	0x3c2b22c0	0.010445297
105	0xbc802d16	-0.015646499
106	0xbc149ca9	-0.009070554
107	0xbc93dcc7	-0.01804961
108	0x3c956ca8	0.018240288
109	0xbb572692	-0.0032829386
110	0xbbaf0d38	-0.005342152
111	0xbc63f7c5	-0.013914053
112	0x3cb2d571	0.021830292
113	0xbcb22728	-0.021747187
114	0xbc5496a4	-0.012975369
115	0xbb51f058	-0.0032034125
116	0xbcccc5ba	-0.024996627
117	0x3c9e7387	0.019342197
118	0xbaf73de8	-0.0018863054
119	0xb9d280e9	-0.00040150367
120	0xbba12b2f	-0.004918478
121	0xbbe532b0	-0.006994568
122	0xbcddd06c	-0.027076922
123	0x3b3a3769	0.0028414375
124	0x3ce1c326	0.027558874
125	0xb674cbd3	-3.6477475e-06
126	0x3c33070d	0.010926974
127	0x3c7ca2da	0.015419686
128	0xbc9e6ca6	-0.019338917
129	0x3c2965d8	0.010339223
130	0x3c86e6e8	0.016467527
131	0xbccb9ce4	-0.024855085
132	0xbc5999c8	-0.013281293
133	0x3c268a48	0.010164805
134	0x3b2a3766	0.0025972961
135	0x3cb1a1e2	0.021683637
136	0xbca7f23f	-0.020501254
137	0xbcc628a3	-0.024189299
138	0xbc6518fc	-0.0139830075
139	0x3c061dd0	0.008185819
140	0xbb28d5f1	-0.0025762285
141	0x3cc5c684	0.024142511
142	0x3c99c660	0.01877135
143	0xbbffabe5	-0.007802474
144	0x3cd22f77	0.025657399
145	0x3cb0bee1	0.021575393
146	0x3c7e7b3d	0.015532312
147	0x3c0c2624	0.008554015
148	0xbc0a8b22	-0.008456023
149	0x3c00253f	0.00782138
150	0x3abd31a9	0.0014434356
151	0x3c4e6d35	0.012599279
152	0x3cb9047c	0.022585146
153	0xbc6217b9	-0.013799601
154	0xbc8778b6	-0.016537052
155	0xbbb40a11	-0.005494364
156	0x3c8f0c53	0.017461931
157	0x3b90d1e7	0.0044195536
158	0x3c5e6b21	0.013575346
159	0x3d04afa8	0.03239408
160	0xbc9814a4	-0.01856453
161	0x3b0a9ddc	0.002115122
162	0x3c4d46ca	0.012529084
163	0x3b6c5888	0.003606351
164	0xbc3c0396	-0.011475464
165	0xb733a82c	-1.0708387e-05
166	0x3b9df7f3	0.0048208176
167	0xbc9e764b	-0.019343516
168	0x3cf2d207	0.029641164
169	0xbc9464cc	-0.01811447
170	0xbc8daf13	-0.017295396
171	0xbc05d102	-0.008167507
172	0xbc0488c8	-0.008089252
173	0xbabad615	-0.0014254475
174	0x3c9eb6f1	0.019374343
175	0xbc3e0348	-0.011597462
176	0xbc69a14f	-0.01425965
177	0x3d0426e1	0.03226364
178	0xbcad195e	-0.02113026
179	0x3c372fd2	0.011180835
180	0xbc86caf5	-0.0164542
181	0x3aeb0e1e	0.0017933284
182	0xbc5339c7	-0.012892193
183	0xbbf13d19	-0.0073620197
184	0xbc299bd8	-0.010352097
185	0xbcb7ad60	-0.022421539
186	0xbca2a650	-0.019854695
187	0xbafdd5da	-0.0019366101
188	0xbc2e021d	-0.010620621
189	0xbc5fb686	-0.013654357
190	0xbcf9493d	-0.03043043
191	0xbb831198	-0.0039999
192	0xbcd1c3ae	-0.025606003
193	0xbbd9e440	-0.006649524
194	0x3c416fad	0.011806411
195	0xbc66670e	-0.014062656
196	0x3c9221e7	0.017838432
197	0xbca0f00e	-0.019645717
198	0xbc7da659	-0.015481555
199	0x3bdc1b90	0.006717153
200	0xbc203041	-0.00977713
201	0x3c0f8e77	0.008761994
202	0x3c802a07	0.01564504
203	0x3c8e9b20	0.017407954
204	0x3ba8e089	0.00515372
205	0x3bfcc904	0.0077143926
206	0xbba5555f	-0.0050455774
207	0x3c1c1c1b	0.009528185
208	0x3ce90412	0.028444324
209	0xbb6c7375	-0.003607956
210	0xbca56c37	-0.020193202
211	0x3c09173c	0.008367356
212	0xbca0ab5e	-0.019612964
213	0xbbd5ed3d	-0.006528525
214	0xbc4ec9c4	-0.012621347
215	0x3be472db	0.0069716997
216	0x3be9f0ea	0.007139315
217	0xbc80eca6	-0.015737843
218	0xbb8f9e10	-0.004382856
219	0x3c0b0f1d	0.00848749
220	0xbb235b1a	-0.0024926127
221	0x3bca5caf	0.0061755995
222	0xbd195de7	-0.037443068
223	0x3cdc711f	0.02690941
224	0x3ca9ae97	0.020713134
225	0x3d012526	0.031529568
226	0xb9a3c9a1	-0.00031240008
227	0x3c1720eb	0.009224157
228	0xb946a4d6	-0.00018944158
229	0x3cc9671f	0.024585305
230	0x3c2cc7d2	0.010545688
231	0x3c1421fa	0.009041304
232	0xbc1e1e29	-0.009650745
233	0xbcf5fdf8	-0.030028328
234	0x3c8ed87c	0.017437212
235	0x3c4959e1	0.012289495
236	0xbaa20ceb	-0.0012363469
237	0x3b0d3162	0.0021544327
238	0xbb658ebe	-0.0035027708
239	0x3d01d007	0.03169253
240	0x3c30eed7	0.010799131
241	0xbbb57046	-0.0055370657
242	0xbc942475	-0.01808379
243	0xbc0e9d73	-0.008704531
244	0x3c2cc0f8	0.010544054
245	0x3c7054ee	0.014668686
246	0xbd029918	-0.031884283
247	0x3c4f315d	0.0126460465
248	0xbbe165f0	-0.006878607
249	0xbbca3656	-0.006171028
250	0x3c8f3719	0.017482327
251	0xba454272	-0.0007524855
252	0xbb1d757c	-0.0024026325
253	0x3c194ed6	0.009357175
254	0xbcb3a546	-0.021929394
255	0xbc20bb60	-0.009810299

conv1.lin_src.weight f4 [256, 256]
0	0x3d56d1e4	0.05244626
1	0xbb7b9e4d	-0.0038393915
2	0xbc961a56	-0.018323105
3	0x3d1f9ffa	0.038970925
4	0xb9a31ded	-0.0003111208
5	0x3d22700c	0.039657637
6	0x3b785843	0.0037894405
7	0x3c0ce31d	0.00859907
8	0xbcf96fb3	-0.03044877
9	0x3c881b2f	0.016614525
10	0x3beea51e	0.007282867
11	0xbcc86f2c	-0.024467073
12	0xbc0aab68	-0.008463718
13	0x3c6182f9	0.0137641365
14	0xbcc653f4	-0.024209954
15	0x3d0b269a	0.03397236
16	0x3cbd7f4d	0.02313199
17	0x3a7746a2	0.00094328274
18	0xbc723a25	-0.014784371
19	0x3b72389c	0.0036960011
20	0x3bac5bf6	0.005259986
21	0xbca89a89	-0.0205815
22	0x3b9dafdc	0.004812224
23	0x3c232b25	0.009959017
24	0xbc73ee56	-0.014888367
25	0xbca2e3ff	-0.019884108
26	0x3c1d9e22	0.009620221
27	0xbcd3d800	-0.025859833
28	0x3cf3cd53	0.029760992
29	0xbc4556bc	-0.012044605
30	0x3caf15f9	0.021372782
31	0xbc3d3dd0	-0.011550382
32	0x3c82d3c3	0.015970116
33	0xbbbe22f2	-0.0058025056
34	0x3c4a3069	0.012340643
35	0x3be80aef	0.0070813815
36	0xbc20d3b4	-0.009816099
37	0xbb3cc406	-0.0028803363
38	0x3ce7b602	0.02828503
39	0xbc82d701	-0.015971662
40	0x3c2e1b35	0.010626604
41	0x3ba7701c	0.0051098
42	0x3b8180bc	0.003952114
43	0xbd1b6d74	-0.03794618
44	0xbcb48b2f	-0.022039024
45	0xbc75f0ac	-0.015010994
46	0xbcebdf8a	-0.028793115
47	0x3bb38791	0.0054788073
48	0x3b9a699f	0.004712298
49	0x3b853972	0.004065686
50	0xbbe9ae6c	-0.0071313884
51	0xbc7e2be7	-0.015513397
52	0xbc9a7c47	-0.018858088
53	0x3c180501	0.009278537
54	0x3c47794a	0.012174914
55	0x3ceace11	0.028662713
56	0x3bedd55d	0.007258101
57	0x3ca65b03	0.02030707
58	0x3cea219a	0.028580476
59	0xb8722651	-5.773298e-05
60	0xbcb23018	-0.021751449
61	0xbaa83cd5	-0.0012835512
62	0x3c338ecd	0.010959339
63	0xbc04a106	-0.008095032
64	0x3cde6958	0.027149841
65	0x3c7ec2be	0.01554936
66	0xbcadfb09	-0.021237867
67	0xbcd8fac4	-0.026486762
68	0x3c130ca4	0.008975182
69	0x3c1a1c1d	0.009406117
70	0x3bbd69fc	0.0057804566
71	0x3d0ed115	0.034867365
72	0xbb1b7d75	-0.0023725901
73	0x3bb651dd	0.005563958
74	0xbcc806c9	-0.024417298
75	0xbc05d5bb	-0.008168633
76	0x3c0037b5	0.007825782
77	0x3cbc2a57	0.022969408
78	0x3d065a5e	0.032801025
79	0xbc434504	-0.01191831
80	0xbbcef8d9	-0.006316286
81	0xbc910d8d	-0.017706657
82	0x3cafea64	0.02147407
83	0xbcdcf338	-0.026971444
84	0xbc405896	-0.0117398705
85	0xbce72e2a	-0.028220255
86	0x3baa4066	0.005195665
87	0xbc80e12f	-0.015732376
88	0xbcaec520	-0.02133423
89	0xbcbf27b3	-0.02333436
90	0x3ad024b5	0.001588008
91	0x3c13dfdc	0.00902554
92	0xbbb60ca2	-0.005555705
93	0x3c9b81b1	0.01898274
94	0x3ca3189f	0.019909201
95	0x3c77ae63	0.015117261
96	0x3b4da807	0.003138067
97	0xbb1b19f0	-0.0023666583
98	0xbd00ad56	-0.031415306
99	0xbc67dc6c	-0.014151674
100	0x3ca4d70d	0.020122075
101	0xbc47112a	-0.012150088
102	0xbc7b1a82	-0.015326144
103	0x3c30384f	0.0107556125
104	0xbb822450	-0.003971614
105	0xbc39d1c5	-0.011341517
106	0xbb1c3e44	-0.0023840824
107	0x3c1cf30a	0.009579429
108	0x3c725f5b	0.014793242
109	0x3c84f297	0.016228957
110	0x3cc2d317	0.023782296
111	0x3a70f05e	0.0009191091
112	0x3cc8d0b1	0.024513574
113	0x3c825b23	0.015912598
114	0xbbacf856	-0.0052786274
115	0x3b7a17ca	0.0038161152
116	0xbd18689b	-0.037209135
117	0x3c9a9038	0.018867597
118	0x3bc817cf	0.006106354
119	0x3ad55112	0.0016274771
120	0x3d0d5a29	0.03450981
121	0xbbbba8df	-0.005726918
122	0x3d2d0abe	0.042246573
123	0x3ca19f1e	0.019729193
124	0x3b346cd5	0.002753069
125	0xbca29395	-0.019845763
126	0xba770c3e	-0.00094241265
127	0xbcbd6c9f	-0.023123084
128	0x3d4b76b0	0.049673736
129	0xbc8285fe	-0.015933033
130	0xbaeebfd3	-0.0018215127
131	0x3a89f90c	0.0010526492
132	0x3c819d41	0.015822055
133	0xbcc5ac6e	-0.024130072
134	0xbc18b468	-0.009320356
135	0x3c0eeebb	0.00872391
136	0xbcb295bc	-0.021799915
137	0x3c644a61	0.013933749
138	0xbc4d2749	-0.012521573
139	0x3c1260ec	0.008934241
140	0xbceb7ff5	-0.028747538
141	0xbb772c40	-0.0037715584
142	0x3cb930d5	0.022606293
143	0xbce5420e	-0.027985599
144	0xbbcfa835	-0.0063371905
145	0x3aef7036	0.0018267694
146	0x3c8dc54c	0.017305993
147	0x3b957ad3	0.004561761
148	0x3cef445e	0.029207405
149	0x3c18d3a6	0.009327805
150	0xbc8c2eb6	-0.017112117
151	0x3d1400de	0.03613364
152	0xbc0c6d3d	-0.008570966
153	0x3cb0221e	0.021500643
154	0x3c4fdf29	0.012687483
155	0xbc910bfc	-0.01770591
156	0xbc91aa64	-0.017781444
157	0x3d0d74aa	0.034535088
158	0xbcc821ce	-0.024430182
159	0xbd031e82	-0.032011516
160	0xbb6e63bb	-0.0036375362
161	0xbd15af89	-0.036544356
162	0xbba536af	-0.005041919
163	0xbc0e6211	-0.008690373
164	0xbd4f1b55	-0.050563175
165	0x3c9f6229	0.019455986
166	0xbac67d44	-0.0015143533
167	0x3b3e3ccc	0.0029027937
168	0xbb8ed977	-0.00435942
169	0xbbaed8af	-0.0053358893
170	0x3cbb731a	0.022882033
171	0x3c3c3bfe	0.011488913
172	0xbc85a917	-0.01631598
173	0x3c106527	0.008813179
174	0x3a880d82	0.0010380002
175	0x3c731165	0.01483569
176	0x3bb7141a	0.005587113
177	0x3bff5dc3	0.0077931597
178	0x3cc17186	0.023613703
179	0xbc9973f6	-0.018732052
180	0xbccc1ce0	-0.024916112
181	0x3c03903b	0.008029993
182	0x3ae9f9c7	0.0017850929
183	0x3c64a5b8	0.013955526
184	0x3c970294	0.018433847
185	0xbc8de0c5	-0.017319093
186	0x3aec99e2	0.0018051232
187	0xbb54df69	-0.0032481796
188	0xbca179b1	-0.019711347
189	0xbc95bee2	-0.018279497
190	0x3c74689c	0.014917519
191	0x3b53d931	0.00323255
192	0xbc314094	-0.010818619
193	0x3b1acdb9	0.0023621155
194	0x3c372b90	0.01117982
195	0x3b5a265a	0.003328702
196	0xbcd35938	-0.025799379
197	0xbc818225	-0.015809128
198	0x3cbe8046	0.023254525
199	0x3bccc905	0.0062495493
200	0x3b3501e5	0.0027619537
201	0xbb746984	-0.0037294338
202	0xbb19f2e8	-0.002349073
203	0x3c58abf8	0.013224594
204	0x3c72768f	0.014798774
205	0x3d684763	0.056708705
206	0x3c46e786	0.01214016
207	0xbb563041	-0.003268257
208	0xbd5c8d90	-0.053845942
209	0xbb56fbf0	-0.0032803975
210	0x3c82315b	0.015892675
211	0xbd46fe55	-0.048582394
212	0xbb60ad2b	-0.0034282904
213	0x3d07713d	0.033066977
214	0xba6755a5	-0.0008824713
215	0xbcf1a148	-0.02949585
216	0xbc2936ee	-0.010328038
217	0x3cb48563	0.02203626
218	0xbc969243	-0.01838029
219	0xbc297d62	-0.010344835
220	0x3c7f9048	0.015598364
221	0x3c18ed50	0.009333923
222	0xbab3fcfa	-0.0013732009
223	0xbc36f1ac	-0.0111660175
224	0xbc9d58c7	-0.019207371
225	0xbc7f91ab	-0.015598695
226	0x3a2610c9	0.00063348986
227	0xbc7c4289	-0.015396723
228	0x3b60d89f	0.0034308804
229	0x3b9431a3	0.0045225187
230	0x3c748795	0.014924903
231	0xbce2deba	-0.027694095
232	0x3c0f42c1	0.008743943
233	0x3b1a74d3	0.0023568168
234	0xbd0b5c15	-0.034023363
235	0xbbf88acb	-0.007584905
236	0x3cfe8f18	0.031074092
237	0xbc5eab07	-0.013590581
238	0xbcb00a5e	-0.021489318
239	0xbc5a8bd8	-0.013339005
240	0x3b39c789	0.0028347692
241	0x3b44b1bf	0.0030013171
242	0x3d07f150	0.033189118
243	0x3c216cae	0.009852571
244	0xbb43b8fe	-0.0029864903
245	0x3bf68fae	0.007524452
246	0x3d097b2d	0.033564735
247	0xbcabed76	-0.020987254
248	0x3aab31bb	0.0013061085
249	0xbc454c55	-0.012042125
250	0x3b829c2a	0.0039859014
251	0xbc879275	-0.016549328
252	0x3cdfe543	0.027331
253	0xba0d7d01	-0.000539735
254	0x3b48950f	0.0030606424
255	0xbc2259eb	-0.009909133

conv1.lin_dst.weight f4 [256, 256]
0	0x3d56d1e4	0.05244626
1	0xbb7b9e4d	-0.0038393915
2	0xbc961a56	-0.018323105
3	0x3d1f9ffa	0.038970925
4	0xb9a31ded	-0.0003111208
5	0x3d22700c	0.039657637
6	0x3b785843	0.0037894405
7	0x3c0ce31d	0.00859907
8	0xbcf96fb3	-0.03044877
9	0x3c881b2f	0.016614525
10	0x3beea51e	0.007282867
11	0xbcc86f2c	-0.024467073
12	0xbc0aab68	-0.008463718
13	0x3c6182f9	0.0137641365
14	0xbcc653f4	-0.024209954
15	0x3d0b269a	0.03397236
16	0x3cbd7f4d	0.02313199
17	0x3a7746a2	0.00094328274
18	0xbc723a25	-0.014784371
19	0x3b72389c	0.0036960011
20	0x3bac5bf6	0.005259986
21	0xbca89a89	-0.0205815
22	0x3b9dafdc	0.004812224
23	0x3c232b25	0.009959017
24	0xbc73ee56	-0.014888367
25	0xbca2e3ff	-0.019884108
26	0x3c1d9e22	0.009620221
27	0xbcd3d800	-0.025859833
28	0x3cf3cd53	0.029760992
29	0xbc4556bc	-0.012044605
30	0x3caf15f9	0.021372782
31	0xbc3d3dd0	-0.011550382
32	0x3c82d3c3	0.015970116
33	0xbbbe22f2	-0.0058025056
34	0x3c4a3069	0.012340643
35	0x3be80aef	0.0070813815
36	0xbc20d3b4	-0.009816099
37	0xbb3cc406	-0.0028803363
38	0x3ce7b602	0.02828503
39	0xbc82d701	-0.015971662
40	0x3c2e1b35	0.010626604
41	0x3ba7701c	0.0051098
42	0x3b8180bc	0.003952114
43	0xbd1b6d74	-0.03794618
44	0xbcb48b2f	-0.022039024
45	0xbc75f0ac	-0.015010994
46	0xbcebdf8a	-0.028793115
47	0x3bb38791	0.0054788073
48	0x3b9a699f	0.004712298
49	0x3b853972	0.004065686
50	0xbbe9ae6c	-0.0071313884
51	0xbc7e2be7	-0.015513397
52	0xbc9a7c47	-0.018858088
53	0x3c180501	0.009278537
54	0x3c47794a	0.012174914
55	0x3ceace11	0.028662713
56	0x3bedd55d	0.007258101
57	0x3ca65b03	0.02030707
58	0x3cea219a	0.028580476
59	0xb8722651	-5.773298e-05
60	0xbcb23018	-0.021751449
61	0xbaa83cd5	-0.0012835512
62	0x3c338ecd	0.010959339
63	0xbc04a106	-0.008095032
64	0x3cde6958	0.027149841
65	0x3c7ec2be	0.01554936
66	0xbcadfb09	-0.021237867
67	0xbcd8fac4	-0.026486762
68	0x3c130ca4	0.008975182
69	0x3c1a1c1d	0.009406117
70	0x3bbd69fc	0.0057804566
71	0x3d0ed115	0.034867365
72	0xbb1b7d75	-0.0023725901
73	0x3bb651dd	0.005563958
74	0xbcc806c9	-0.024417298
75	0xbc05d5bb	-0.008168633
76	0x3c0037b5	0.007825782
77	0x3cbc2a57	0.022969408
78	0x3d065a5e	0.032801025
79	0xbc434504	-0.01191831
80	0xbbcef8d9	-0.006316286
81	0xbc910d8d	-0.017706657
82	0x3cafea64	0.02147407
83	0xbcdcf338	-0.026971444
84	0xbc405896	-0.0117398705
85	0xbce72e2a	-0.028220255
86	0x3baa4066	0.005195665
87	0xbc80e12f	-0.015732376
88	0xbcaec520	-0.02133423
89	0xbcbf27b3	-0.02333436
90	0x3ad024b5	0.001588008
91	0x3c13dfdc	0.00902554
92	0xbbb60ca2	-0.005555705
93	0x3c9b81b1	0.01898274
94	0x3ca3189f	0.019909201
95	0x3c77ae63	0.015117261
96	0x3b4da807	0.003138067
97	0xbb1b19f0	-0.0023666583
98	0xbd00ad56	-0.031415306
99	0xbc67dc6c	-0.014151674
100	0x3ca4d70d	0.020122075
101	0xbc47112a	-0.012150088
102	0xbc7b1a82	-0.015326144
103	0x3c30384f	0.0107556125
104	0xbb822450	-0.003971614
105	0xbc39d1c5	-0.011341517
106	0xbb1c3e44	-0.0023840824
107	0x3c1cf30a	0.009579429
108	0x3c725f5b	0.014793242
109	0x3c84f297	0.016228957
110	0x3cc2d317	0.023782296
111	0x3a70f05e	0.0009191091
112	0x3cc8d0b1	0.024513574
113	0x3c825b23	0.015912598
114	0xbbacf856	-0.0052786274
115	0x3b7a17ca	0.0038161152
116	0xbd18689b	-0.037209135
117	0x3c9a9038	0.018867597
118	0x3bc817cf	0.006106354
119	0x3ad55112	0.0016274771
120	0x3d0d5a29	0.03450981
121	0xbbbba8df	-0.005726918
122	0x3d2d0abe	0.042246573
123	0x3ca19f1e	0.019729193
124	0x3b346cd5	0.002753069
125	0xbca29395	-0.019845763
126	0xba770c3e	-0.00094241265
127	0xbcbd6c9f	-0.023123084
128	0x3d4b76b0	0.049673736
129	0xbc8285fe	-0.015933033
130	0xbaeebfd3	-0.0018215127
131	0x3a89f90c	0.0010526492
132	0x3c819d41	0.015822055
133	0xbcc5ac6e	-0.024130072
134	0xbc18b468	-0.009320356
135	0x3c0eeebb	0.00872391
136	0xbcb295bc	-0.021799915
137	0x3c644a61	0.013933749
138	0xbc4d2749	-0.012521573
139	0x3c1260ec	0.008934241
140	0xbceb7ff5	-0.028747538
141	0xbb772c40	-0.0037715584
142	0x3cb930d5	0.022606293
143	0xbce5420e	-0.027985599
144	0xbbcfa835	-0.0063371905
145	0x3aef7036	0.0018267694
146	0x3c8dc54c	0.017305993
147	0x3b957ad3	0.004561761
148	0x3cef445e	0.029207405
149	0x3c18d3a6	0.009327805
150	0xbc8c2eb6	-0.017112117
151	0x3d1400de	0.03613364
152	0xbc0c6d3d	-0.008570966
153	0x3cb0221e	0.021500643
154	0x3c4fdf29	0.012687483
155	0xbc910bfc	-0.01770591
156	0xbc91aa64	-0.017781444
157	0x3d0d74aa	0.034535088
158	0xbcc821ce	-0.024430182
159	0xbd031e82	-0.032011516
160	0xbb6e63bb	-0.0036375362
161	0xbd15af89	-0.036544356
162	0xbba536af	-0.005041919
163	0xbc0e6211	-0.008690373
164	0xbd4f1b55	-0.050563175
165	0x3c9f6229	0.019455986
166	0xbac67d44	-0.0015143533
167	0x3b3e3ccc	0.0029027937
168	0xbb8ed977	-0.00435942
169	0xbbaed8af	-0.0053358893
170	0x3cbb731a	0.022882033
171	0x3c3c3bfe	0.011488913
172	0xbc85a917	-0.01631598
173	0x3c106527	0.008813179
174	0x3a880d82	0.0010380002
175	0x3c731165	0.01483569
176	0x3bb7141a	0.005587113
177	0x3bff5dc3	0.0077931597
178	0x3cc17186	0.023613703
179	0xbc9973f6	-0.018732052
180	0xbccc1ce0	-0.024916112
181	0x3c03903b	0.008029993
182	0x3ae9f9c7	0.0017850929
183	0x3c64a5b8	0.013955526
184	0x3c970294	0.018433847
185	0xbc8de0c5	-0.017319093
186	0x3aec99e2	0.0018051232
187	0xbb54df69	-0.0032481796
188	0xbca179b1	-0.019711347
189	0xbc95bee2	-0.018279497
190	0x3c74689c	0.014917519
191	0x3b53d931	0.00323255
192	0xbc314094	-0.010818619
193	0x3b1acdb9	0.0023621155
194	0x3c372b90	0.01117982
195	0x3b5a265a	0.003328702
196	0xbcd35938	-0.025799379
197	0xbc818225	-0.015809128
198	0x3cbe8046	0.023254525
199	0x3bccc905	0.0062495493
200	0x3b3501e5	0.0027619537
201	0xbb746984	-0.0037294338
202	0xbb19f2e8	-0.002349073
203	0x3c58abf8	0.013224594
204	0x3c72768f	0.014798774
205	0x3d684763	0.056708705
206	0x3c46e786	0.01214016
207	0xbb563041	-0.003268257
208	0xbd5c8d90	-0.053845942
209	0xbb56fbf0	-0.0032803975
210	0x3c82315b	0.015892675
211	0xbd46fe55	-0.048582394
212	0xbb60ad2b	-0.0034282904
213	0x3d07713d	0.033066977
214	0xba6755a5	-0.0008824713
215	0xbcf1a148	-0.02949585
216	0xbc2936ee	-0.010328038
217	0x3cb48563	0.02203626
218	0xbc969243	-0.01838029
219	0xbc297d62	-0.010344835
220	0x3c7f9048	0.015598364
221	0x3c18ed50	0.009333923
222	0xbab3fcfa	-0.0013732009
223	0xbc36f1ac	-0.0111660175
224	0xbc9d58c7	-0.019207371
225	0xbc7f91ab	-0.015598695
226	0x3a2610c9	0.00063348986
227	0xbc7c4289	-0.015396723
228	0x3b60d89f	0.0034308804
229	0x3b9431a3	0.0045225187
230	0x3c748795	0.014924903
231	0xbce2deba	-0.027694095
232	0x3c0f42c1	0.008743943
233	0x3b1a74d3	0.0023568168
234	0xbd0b5c15	-0.034023363
235	0xbbf88acb	-0.007584905
236	0x3cfe8f18	0.031074092
237	0xbc5eab07	-0.013590581
238	0xbcb00a5e	-0.021489318
239	0xbc5a8bd8	-0.013339005
240	0x3b39c789	0.0028347692
241	0x3b44b1bf	0.0030013171
242	0x3d07f150	0.033189118
243	0x3c216cae	0.009852571
244	0xbb43b8fe	-0.0029864903
245	0x3bf68fae	0.007524452
246	0x3d097b2d	0.033564735
247	0xbcabed76	-0.020987254
248	0x3aab31bb	0.0013061085
249	0xbc454c55	-0.012042125
250	0x3b829c2a	0.0039859014
251	0xbc879275	-0.016549328
252	0x3cdfe543	0.027331
253	0xba0d7d01	-0.000539735
254	0x3b48950f	0.0030606424
255	0xbc2259eb	-0.009909133

conv2.att_src f4 [1, 8, 32]
0	0x08df7f4e	1.34512535e-33
1	0x03018896	3.8066486e-37
2	0x0000280e	1.4369e-41
3	0x00655e25	9.309158e-39
4	0x32d096a8	2.4282897e-08
5	0x2c5e9640	3.1631503e-12
6	0x80314384	-4.52416e-39
7	0xa8933006	-1.6341105e-14
8	0x183cba28	2.4392415e-24
9	0x80017602	-1.34169e-40
10	0x2abef90b	3.3923588e-13
11	0x2f192016	1.3926668e-10
12	0x3045516a	7.178388e-10
13	0xa93642dd	-4.0470113e-14
14	0xadb0b117	-2.0087527e-11
15	0x812afda5	-3.140605e-38
16	0x1d70f351	3.1889527e-21
17	0x824e6ddf	-1.5166021e-37
18	0x84acab90	-4.059456e-36
19	0x80239361	-3.267112e-39
20	0xb3a74f50	-7.7909704e-08
21	0x080063c2	3.8635864e-34
22	0x80090460	-8.28089e-40
23	0xa5226a15	-1.4087202e-16
24	0x8009eb85	-9.11008e-40
25	0x335ee9fa	5.1901203e-08
26	0x03fb4875	1.4769089e-36
27	0x3350f750	4.8653703e-08
28	0x8002ab5f	-2.45147e-40
29	0x927e6f37	-8.028535e-28
30	0x2d3a7bce	1.0600366e-11
31	0x10a3b59b	6.457197e-29
32	0x08d30331	1.2699851e-33
33	0xb231a6ed	-1.03407105e-08
34	0x8196c948	-5.539012e-38
35	0xa0c3c4f9	-3.316463e-19
36	0x800085cc	-4.7997e-41
37	0x80f8f34c	-2.2862482e-38
38	0xab7b7209	-8.933137e-13
39	0x2ce7840b	6.5800746e-12
40	0xb492d9e9	-2.735317e-07
41	0x00020bbc	1.8788e-40
42	0x29f355d9	1.080626e-13
43	0x0c826c5c	2.0094888e-31
44	0x80019bc0	-1.47708e-40
45	0x332c2d9f	4.0088363e-08
46	0x8d65bdcf	-7.0794547e-31
47	0x80193004	-2.313112e-39
48	0x2b38a913	6.560457e-13
49	0xaae35bdf	-4.0387049e-13
50	0x2e6d2425	5.3919664e-11
51	0x00dbec0c	2.0196651e-38
52	0xb4159f46	-1.393465e-07
53	0xb493ac8f	-2.7506437e-07
54	0x8000cbb9	-7.3082e-41
55	0x801b2e73	-2.496221e-39
56	0x068fac65	5.404393e-35
57	0x34201aa2	1.491085e-07
58	0x88f45046	-1.4704088e-33
59	0x0fd28d27	2.0761969e-29
60	0x3519e504	5.7330203e-07
61	0x25d4b9e8	3.6902113e-16
62	0x900070c1	-2.533041e-29
63	0x34738fd2	2.268346e-07
64	0xb19212b9	-4.2512878e-09
65	0x350bcb2e	5.20772e-07
66	0xa12dbd77	-5.8865435e-19
67	0x29c3e5cd	8.699604e-14
68	0x0000e162	8.0852e-41
69	0x80006c05	-3.875e-41
70	0x8227b440	-1.2320951e-37
71	0x0e196c70	1.8910917e-30
72	0x0303893f	3.865499e-37
73	0xb4cd4102	-3.8231525e-07
74	0x31aad93c	4.972348e-09
75	0x84357734	-2.1331183e-36
76	0xb456ee53	-2.0017005e-07
77	0x80389c77	-5.198917e-39
78	0x3118a214	2.2211042e-09
79	0xa793373f	-4.0860594e-15
80	0x30e46cd3	1.6620113e-09
81	0xaab6f4c0	-3.2499524e-13
82	0xb3cda9bc	-9.576931e-08
83	0x00008bbc	5.0127e-41
84	0x80049f9c	-4.24599e-40
85	0x80018008	-1.37764e-40
86	0xb337fa23	-4.2835506e-08
87	0x34679669	2.156827e-07
88	0x85058a0e	-6.2789866e-36
89	0xa80e4431	-7.89737e-15
90	0x0c8b6ba0	2.1481115e-31
91	0x92f09b74	-1.5184452e-27
92	0xb3c84c48	-9.327101e-08
93	0x09eef338	5.7525138e-33
94	0xb4921c55	-2.7215233e-07
95	0xb08578bf	-9.711342e-10
96	0x874c11de	-1.5352505e-34
97	0x0614f365	2.8014524e-35
98	0xb086efa1	-9.81789e-10
99	0xa53154f0	-1.5381081e-16
100	0x2d0fcbf7	8.173898e-12
101	0xb50b9dc9	-5.201114e-07
102	0x04ddeee6	5.2176244e-36
103	0x26f670a5	1.7100211e-15
104	0x29e57745	1.0190333e-13
105	0x3189b606	4.0079184e-09
106	0x800035c0	-1.9282e-41
107	0xb2563f87	-1.2470884e-08
108	0x87657730	-1.7263071e-34
109	0x18693364	3.014049e-24
110	0x0002ae40	2.4618e-40
111	0xab1b254b	-5.5118816e-13
112	0xae6fd0b8	-5.4527688e-11
113	0x27153759	2.0707908e-15
114	0x1a66781e	4.7659915e-23
115	0x800091f3	-5.2357e-41
116	0x30582c06	7.8642903e-10
117	0x182900fa	2.1843231e-24
118	0x802074ca	-2.980632e-39
119	0x982a0bbd	-2.1977911e-24
120	0x083722c6	5.5110435e-34
121	0x9116ed39	-1.1906013e-28
122	0xb3aff3ce	-8.19342e-08
123	0xaf6b19e5	-2.1382325e-10
124	0x01b9a684	6.8197205e-38
125	0x0484bb60	3.1205128e-36
126	0x0fa1722d	1.5919805e-29
127	0xb2071604	-7.86304e-09
128	0x89b3be68	-4.327174e-33
129	0xa0403159	-1.627936e-19
130	0xb5124705	-5.4492585e-07
131	0x82ca5163	-2.9727946e-37
132	0x8f736464	-1.20001595e-29
133	0x8013c579	-1.815714e-39
134	0x293bb2d6	4.1677457e-14
135	0x00015624	1.22737e-40
136	0x305044a9	7.576753e-10
137	0x337aea06	5.8420504e-08
138	0x987dfb2a	-3.282629e-24
139	0x2e16d882	3.429835e-11
140	0xa4c28a7f	-8.436871e-17
141	0xb194744f	-4.3205897e-09
142	0x01d8800a	7.9529596e-38
143	0xb3199282	-3.5756337e-08
144	0x1d9ed6af	4.204423e-21
145	0x33958ab5	6.963584e-08
146	0xb366d582	-5.3745232e-08
147	0x875962b2	-1.635427e-34
148	0x964b61e4	-1.6429098e-25
149	0x8003958a	-3.29151e-40
150	0x1d9b5fa6	4.1127057e-21
151	0x94e42fc8	-2.3040963e-26
152	0xb2e6406f	-2.6804825e-08
153	0x1abaee6b	7.731298e-23
154	0xad51a6c5	-1.1917305e-11
155	0xa6eef4fc	-1.6580971e-15
156	0x8000e1ea	-8.1043e-41
157	0x21f9ef66	1.6936265e-18
158	0x30e522d5	1.6671843e-09
159	0x2d36aff5	1.03845725e-11
160	0x2994b015	6.603066e-14
161	0x2fc5505f	3.5891198e-10
162	0x8003097d	-2.7891e-40
163	0x0b8b7f4d	5.3732393e-32
164	0xb4c01178	-3.5775497e-07
165	0x0c8fd3e6	2.216017e-31
166	0xa8e57fa3	-2.5479461e-14
167	0x212f55aa	5.940568e-19
168	0x1d9a412f	4.083086e-21
169	0xb21b3ca9	-9.03598e-09
170	0xb184a40a	-3.8603547e-09
171	0x00045407	3.97485e-40
172	0x9aa6c5c5	-6.8975505e-23
173	0x34278e9e	1.5604971e-07
174	0x8005e771	-5.42203e-40
175	0x340ab935	1.291963e-07
176	0x0000043f	1.523e-42
177	0xa798709f	-4.231058e-15
178	0x00000afa	3.938e-42
179	0x95064d48	-2.712205e-26
180	0x80036082	-3.10127e-40
181	0x2ceb2e7d	6.684263e-12
182	0xae0ac3b1	-3.1551376e-11
183	0x8b870553	-5.200812e-32
184	0x32d64e8a	2.4948594e-08
185	0x801d47f1	-2.689037e-39
186	0x80128f5c	-1.704467e-39
187	0x20858246	2.2617284e-19
188	0x80185b07	-2.236706e-39
189	0x04f01321	5.6441296e-36
190	0x010a50ff	2.540471e-38
191	0x331c1b95	3.6346666e-08
192	0x28de3b57	2.4672686e-14
193	0xb30c94c4	-3.273159e-08
194	0xade9f1c2	-2.6596395e-11
195	0x999cf050	-1.6227083e-23
196	0xb42570b7	-1.5407828e-07
197	0x2fa9b05a	3.0866226e-10
198	0xadaf0a6a	-1.9899821e-11
199	0x33f99be0	1.16233196e-07
200	0x80bd5653	-1.7387876e-38
201	0x27ff1a78	7.0805415e-15
202	0x0000314e	1.7687e-41
203	0x2790f020	4.0228373e-15
204	0x9d5e5b17	-2.9428548e-21
205	0x89695854	-2.8087886e-33
206	0x2e929f23	6.66758e-11
207	0xb393bbbc	-6.8793696e-08
208	0x06bc5837	7.084736e-35
209	0x9171bf26	-1.907045e-28
210	0x0003dd98	3.55e-40
211	0x299f6a15	7.079421e-14
212	0xb17ce75f	-3.6802346e-09
213	0xb0d70f2b	-1.564762e-09
214	0x000268f9	2.21328e-40
215	0x166a8c01	1.8946547e-25
216	0x0eb78e17	4.524981e-30
217	0x805990bd	-8.225281e-39
218	0x80006fdd	-4.0129e-41
219	0x2e08f4a2	3.1140097e-11
220	0x00014476	1.16395e-40
221	0xa7573138	-2.9863925e-15
222	0x92c9611f	-1.2708826e-27
223	0xa309a6e4	-7.462125e-18
224	0xb4d6daa1	-4.001968e-07
225	0xb1df7f32	-6.5046146e-09
226	0x8001306f	-1.0921e-40
227	0xaf153899	-1.3571579e-10
228	0x9acd9c07	-8.503809e-23
229	0x28cc4add	2.2681016e-14
230	0x8679e764	-4.7001694e-35
231	0x3408a199	1.2724776e-07
232	0x00013fe4	1.14755e-40
233	0x8d83c0ca	-8.119911e-31
234	0x3301b289	3.019753e-08
235	0x31b6accb	5.3165414e-09
236	0x2481cff8	5.6297145e-17
237	0x842d3a35	-2.036278e-36
238	0x8000b652	-6.5404e-41
239	0x1aca4983	8.3664006e-23
240	0x31fadf47	7.3013413e-09
241	0x09000902	1.5411675e-33
242	0x2b65c657	8.1632395e-13
243	0x15815aa7	5.224571e-26
244	0xa88deb5e	-1.5756219e-14
245	0x91499f32	-1.590516e-28
246	0x34801564	2.3857422e-07
247	0xaec3c89a	-8.903207e-11
248	0xb25fc7b6	-1.3025717e-08
249	0x0b9170ad	5.6021504e-32
250	0x0000acfb	6.2054e-41
251	0x12ebdd16	1.4885087e-27
252	0x12ef542f	1.5103773e-27
253	0xaf3a9fcc	-1.6973373e-10
254	0x2e0e2b07	3.2325278e-11
255	0x882825df	-5.060018e-34

conv2.att_dst f4 [1, 8, 32]
0	0x80029137	-2.35764e-40
1	0x85ee8785	-2.2431194e-35
2	0x807a57d3	-1.1235436e-38
3	0x8000be24	-6.821e-41
4	0x80014d63	-1.19597e-40
5	0xb1e1366a	-6.554548e-09
6	0x2134705e	6.113509e-19
7	0x0001c659	1.62989e-40
8	0x2179a36d	8.4580774e-19
9	0x8209c290	-1.0121007e-37
10	0x15d3b626	8.55096e-26
11	0x80001fbd	-1.1386e-41
12	0x8f9a9a0a	-1.5244906e-29
13	0x0000cf3b	7.434e-41
14	0x001c3243	2.589424e-39
15	0x34dda2d1	4.1282922e-07
16	0x92d96abd	-1.3720938e-27
17	0xb502c416	-4.8714116e-07
18	0x93833180	-3.311786e-27
19	0x0006c26f	6.20763e-40
20	0xa3a39492	-1.7735417e-17
21	0x0e0e078e	1.7506489e-30
22	0xb2ff0241	-2.9686932e-08
23	0x2fef64cb	4.3545464e-10
24	0x06aeb0e2	6.571143e-35
25	0x00042859	3.81816e-40
26	0x253068ca	1.530107e-16
27	0xa6272999	-5.799614e-16
28	0xa52549e2	-1.4336501e-16
29	0xad89a643	-1.5648932e-11
30	0xa7c0f948	-5.3560976e-15
31	0x0003e6d5	3.58313e-40
32	0xb2f5a00e	-2.8594538e-08
33	0x3395112c	6.941477e-08
34	0x082a9c2d	5.13411e-34
35	0x2df597be	2.7920662e-11
36	0x0015a000	1.985943e-39
37	0x2aac40e2	3.059836e-13
38	0xb0159c8d	-5.4428356e-10
39	0xb431eef7	-1.6571344e-07
40	0x2e4b7d08	4.6267906e-11
41	0x84ad2f4a	-4.0715533e-36
42	0x3403a208	1.2259272e-07
43	0x31bd19de	5.5035647e-09
44	0x2c9b4312	4.4128113e-12
45	0x1f229494	3.4427735e-20
46	0x8b9ce947	-6.044001e-32
47	0x314987ee	2.9326617e-09
48	0x3517bbda	5.6525244e-07
49	0x31f544ce	7.1382606e-09
50	0x00007b50	4.4236e-41
51	0x30b3c659	1.3080338e-09
52	0x811ca9b2	-2.8774425e-38
53	0x000149e3	1.18341e-40
54	0xa802afcf	-7.254572e-15
55	0xb4c66506	-3.6953878e-07
56	0x2c70d6df	3.4225329e-12
57	0x000d9440	1.247044e-39
58	0x12ea2e59	1.4778902e-27
59	0x86da1611	-8.203491e-35
60	0x8130ae6c	-3.2451236e-38
61	0x211ecd57	5.3804247e-19
62	0x8008f48a	-8.22408e-40
63	0x98f4c0cc	-6.3267197e-24
64	0xa627b0c2	-5.8179316e-16
65	0x0000983b	5.461e-41
66	0xb41aa0cd	-1.4400867e-07
67	0x0185718b	4.901941e-38
68	0x8001e842	-1.75154e-40
69	0x9492a09b	-1.480558e-26
70	0x2fc8d388	3.653009e-10
71	0x8d9c14c3	-9.6192405e-31
72	0x2e3742c1	4.1668672e-11
73	0x8001ae41	-1.54346e-40
74	0x8001399a	-1.12499e-40
75	0x089fddc5	9.621602e-34
76	0x334a427c	4.7092257e-08
77	0xb42caada	-1.6080904e-07
78	0x163e0876	1.5350748e-25
79	0x8306c563	-3.960565e-37
80	0xa66bc806	-8.1803086e-16
81	0x31648deb	3.3259038e-09
82	0xb3b16a8f	-8.261588e-08
83	0x32fad04b	2.9198551e-08
84	0x000104e9	9.3597e-41
85	0x0da116f7	9.92792e-31
86	0xa7a7cac0	-4.6571633e-15
87	0xafa43efa	-2.9876174e-10
88	0x876eccb4	-1.7965287e-34
89	0x15cf3cf2	8.370279e-26
90	0x30b6cb4f	1.3300027e-09
91	0x8d790bca	-7.674324e-31
92	0xb0f9a8e6	-1.8165138e-09
93	0x0000f51c	8.7929e-41
94	0x2d14450b	8.428157e-12
95	0x80216247	-3.065827e-39
96	0x000399be	3.30659e-40
97	0x2777ce1f	3.4389874e-15
98	0x8aa0f890	-1.5500938e-32
99	0xad161a2f	-8.532327e-12
100	0x00022d40	1.99904e-40
101	0x331fed39	3.7235825e-08
102	0x89a1bdaf	-3.8937718e-33
103	0xab1f11ff	-5.651312e-13
104	0x2a010ca2	1.1461885e-13
105	0x2d313bed	1.0074591e-11
106	0x8288043f	-1.998584e-37
107	0xb515340b	-5.558256e-07
108	0xa8650379	-1.2712807e-14
109	0x00008e9a	5.1156e-41
110	0x01138efa	2.7102217e-38
111	0xb4761167	-2.2916866e-07
112	0x1abb24b9	7.7400716e-23
113	0x8001e77f	-1.7488e-40
114	0x01739ad3	4.4743132e-38
115	0x19a6138a	1.717189e-23
116	0x8005e53d	-5.41413e-40
117	0x2f20190d	1.4560815e-10
118	0xb02269fd	-5.9085875e-10
119	0x80028e0c	-2.34628e-40
120	0x80037339	-3.1684e-40
121	0x11b501c2	2.8557848e-28
122	0x3100aef2	1.8725896e-09
123	0x8174986e	-4.4925085e-38
124	0x00000688	2.343e-42
125	0xab5f1f4f	-7.9268964e-13
126	0x1aedbb7f	9.832382e-23
127	0x00073e1c	6.65129e-40
128	0x32ee9bb3	2.777765e-08
129	0x8ece97ce	-5.0929103e-30
130	0x027f8cca	1.8774846e-37
131	0x34dfd2bb	4.1690313e-07
132	0xa27746a0	-3.351213e-18
133	0x0000b293	6.406e-41
134	0x8002681c	-2.21018e-40
135	0x962c2eda	-1.3908833e-25
136	0x30286e8a	6.127513e-10
137	0xb32c4753	-4.011174e-08
138	0x81ac991a	-6.340251e-38
139	0x00007e35	4.5275e-41
140	0x31ad88f2	5.0505315e-09
141	0x94945c82	-1.4980669e-26
142	0xb4b4072d	-3.3532834e-07
143	0xac73e054	-3.4656904e-12
144	0x3317a86f	3.5310617e-08
145	0x80538216	-7.669012e-39
146	0x000e1da2	1.296327e-39
147	0x92af6c33	-1.1070726e-27
148	0xaaca94e7	-3.598573e-13
149	0x94834966	-1.325657e-26
150	0x8006dd07	-6.30303e-40
151	0x872e2df8	-1.3103814e-34
152	0x8006a7d0	-6.11213e-40
153	0x1292d3f7	9.266149e-28
154	0x0900f814	1.5524085e-33
155	0x13613826	2.8426676e-27
156	0x269f87b7	1.1069627e-15
157	0x0150d0eb	3.8353458e-38
158	0x800018f4	-8.951e-42
159	0x20ac7ed4	2.922186e-19
160	0x31369c00	2.6573161e-09
161	0x9170facb	-1.9009943e-28
162	0x3201770e	7.535858e-09
163	0x338d38cd	6.576156e-08
164	0x9270825f	-7.589134e-28
165	0xb23c5db5	-1.0964347e-08
166	0x1d9d0fd7	4.157393e-21
167	0x800f275e	-1.391655e-39
168	0x0001095a	9.519e-41
169	0x3070cab0	8.759953e-10
170	0x0001e095	1.724e-40
171	0xb2b1d5b3	-2.0702691e-08
172	0x88127617	-4.407409e-34
173	0xa0b41123	-3.0504526e-19
174	0xae40ceee	-4.3839536e-11
175	0xa788eaf6	-3.800233e-15
176	0x80001c82	-1.0227e-41
177	0x9a8f9075	-5.9376797e-23
178	0x8d87c7d8	-8.368128e-31
179	0x2cb1e84d	5.056433e-12
180	0xb0d7b4b8	-1.5694672e-09
181	0x34830062	2.440093e-07
182	0x802ff7b1	-4.405123e-39
183	0xa6ba29fd	-1.2917724e-15
184	0x8ddfed5e	-1.380058e-30
185	0xab241508	-5.829369e-13
186	0x813bb993	-3.4479619e-38
187	0x8000b396	-6.4423e-41
188	0xb22bd8ea	-1.0002831e-08
189	0x336cfd0f	5.5178187e-08
190	0x0005235c	4.71862e-40
191	0x0c90e2b6	2.232316e-31
192	0x0fafbc8c	1.7328958e-29
193	0x1d99d808	4.0722134e-21
194	0x00008ce1	5.0538e-41
195	0x0023039e	3.21554e-39
196	0x000053a8	3.001e-41
197	0x9d438667	-2.587752e-21
198	0x984453ae	-2.5374654e-24
199	0x16017efc	1.0460606e-25
200	0x0004897e	4.16665e-40
201	0x000089c8	4.9427e-41
202	0xa2af7dba	-4.7566963e-18
203	0x9fd952f2	-9.2040296e-20
204	0x800fdfd3	-1.457825e-39
205	0x127da4d6	8.00359e-28
206	0x342d29be	1.6127066e-07
207	0x8001fb5b	-1.82005e-40
208	0x2db47b8c	2.0518497e-11
209	0xac31fa58	-2.5292182e-12
210	0x80000ce5	-4.626e-42
211	0xb0cb2033	-1.4779346e-09
212	0x0006a565	6.10345e-40
213	0x2f6c9a25	2.1518838e-10
214	0x34345923	1.6796234e-07
215	0x800edbe9	-1.364586e-39
216	0xa0d900f2	-3.6761855e-19
217	0xb129cff9	-2.4710956e-09
218	0xaf69a525	-2.1249898e-10
219	0x1ac6e5f5	8.2262396e-23
220	0x92e96d2f	-1.4731283e-27
221	0x0000d674	7.6931e-41
222	0xa610d265	-5.0245174e-16
223	0x25d24f32	3.6482858e-16
224	0xb33b0c81	-4.3550703e-08
225	0xacf380bd	-6.920768e-12
226	0xb4978bbc	-2.8227612e-07
227	0x8000b297	-6.4066e-41
228	0x0006035b	5.52217e-40
229	0xb0100eb5	-5.2407795e-10
230	0x8b8eac3b	-5.4955554e-32
231	0x2894c385	1.6516094e-14
232	0x8001848a	-1.39382e-40
233	0x8c1db3f9	-1.2148999e-31
234	0x341041e8	1.3435022e-07
235	0xb313c330	-3.4403627e-08
236	0xb3df15cc	-1.03882115e-07
237	0xb31f16af	-3.7040703e-08
238	0x04ede23f	5.5926206e-36
239	0xb2007460	-7.477041e-09
240	0x92ef62fa	-1.510742e-27
241	0x0000a207	5.8124e-41
242	0x3312b7f3	3.4160575e-08
243	0x81063917	-2.4652873e-38
244	0xb16bd977	-3.4320615e-09
245	0x0000322a	1.7995e-41
246	0xb5100f81	-5.366674e-07
247	0x2ce399d3	6.468806e-12
248	0x94b3df2f	-1.8162411e-26
249	0x3307626b	3.1521648e-08
250	0x88d5e71d	-1.2873806e-33
251	0x846f919a	-2.8161172e-36
252	0x9130aeb6	-1.3937789e-28
253	0x12849e3b	8.369378e-28
254	0x8001b6a8	-1.5736e-40
255	0x19f7d627	2.5625697e-23
