SCG-SFFL-main/SCG/checkpoint/activemq.pth (torch, 55195 bytes, 5 tensors)

sage.linear.weight f4 [64, 14]
0.108888276 0.038563486 -0.074347116 0.59312075 -0.09882908 0.04213053 0.1582156 0.0016685891
0.16900973 -0.49746034 -0.06844853 0.04905331 8.161e-05 -0.009875107 -0.6376898 0.001499492
-0.0036285904 3.1510277e-05 -0.43530113 0.00037808844 -0.00014560489 -0.25907478 0.8130299 -0.27947837
-0.052190688 7.863386e-05 -0.017709149 -0.019983832 0.011789416 -0.22027276 0.4885152 0.26510638
-0.013939216 0.0805916 -0.0063233427 -0.097754724 -0.31413963 0.024304044 0.020998051 -0.608661
-0.2154806 -0.42709437 0.86932385 -0.14745252 -0.24057314 -0.040082905 -0.071828626 -0.23316357
-0.15628149 -0.06441037 -0.0009031139 -0.37831903 -0.01588714 0.26351488 -0.0015106592 -0.32250676
-0.3600519 0.037016064 0.6593975 -0.46461672 -0.32257795 -0.08960175 -0.39530477 -1.0787729
0.025026593 1.5843134 -0.2347765 -0.19636503 -0.23857956 0.35386917 -0.32041144 -0.14015722
-0.47880027 0.8446385 -0.23136596 0.5966205 -0.48626608 -0.26019037 -0.4477845 1.2194568
0.27535355 0.07566927 0.19888526 0.3678971 -0.077141136 0.51627755 0.6190379 -0.31891143
0.55535203 -0.52150756 0.46029493 0.48502165 0.81943846 0.3414141 0.5617176 -0.39096603
-0.29263422 -0.8611271 0.12308522 0.2465637 0.20206143 -0.028672999 0.75200635 -0.35073453
0.2930269 0.2468017 -0.090531625 0.35810763 -0.21452208 0.17790431 -0.13715063 -0.026169254
0.02216499 0.123083696 0.053748026 -0.07312842 -0.07647203 0.06837338 0.15010233 0.02585596
0.15748315 -0.0040338296 -0.013217108 0.5991355 0.12878427 0.73710257 -0.20085831 0.080295764
0.06691697 -0.14513998 0.7075781 -0.5067605 0.2029573 0.08130275 0.083945535 -0.009324845
-0.33100432 0.07740588 0.086839125 0.11300057 -0.011883394 -0.6546059 -0.019681945 3.714761e-18
-0.0058816923 -0.0011809417 -0.0047125313 -0.0062662633 0.0071007167 -0.062445406 -0.0035610169 0.08522466
0.0586814 -0.007552567 -0.036606096 -0.26645246 -0.21847321 -0.06732941 -0.3058061 -0.024353243
0.07033092 0.53760284 -0.18892296 0.5438651 -0.00297723 1.0756316 0.3538281 0.45234892
-0.0005803865 -1.3873765 -0.20603234 0.014981123 -0.017646639 -0.00052896905 -0.0019264153 -0.0015339499
-0.000579239 0.073361024 0.0011219053 -0.09719102 -2.4768617e-05 -0.5409602 0.4471105 -0.8006481
-0.6684864 0.13978812 0.2366383 0.29610014 0.11961173 -0.14022501 -0.10790052 0.40147477
0.6534255 0.1588335 -0.09089746 0.20255105 -0.040540207 0.07417622 0.22396107 0.019062344
-0.022034204 0.13005833 0.11198787 0.17820485 0.11238552 -0.681518 0.45430556 0.11083998
0.028161876 -0.029253284 -0.16366777 0.13071537 0.2548049 0.099539064 -0.021599062 0.30662826
-0.30246434 -0.4633811 0.30277103 -0.21261984 0.21780847 0.5092156 0.13546234 0.29458636
-3.7011254e-05 -4.105536e-05 -0.00012215003 0.0005134653 -4.2773704e-06 -1.2233596e-07 6.2843e-41 1.0493e-41
-1.3602e-41 -0.15400939 -9.677e-42 -0.003331633 9.803928e-36 -0.04620646 0.15664308 0.18516093
0.16154529 0.4446555 -0.33907878 -0.06197653 -0.06982451 -0.111502625 -0.066713236 -0.27130944
-0.09487251 -0.1286118 -0.0537996 -0.05202805 0.46947613 0.057340138 -1.0339867 0.29958344
00000000: d100 df3d bff4 1d3d 4d43 98bd c3d6 173f
00000010: e766 cabd 1091 2c3d 4503 223e 8fb4 da3a
00000020: e310 2d3e 1fb3 febe be2e 8cbd 20ec 483d
00000030: 0926 ab38 33cb 21bc a43f 23bf 9a8a c43a
00000040: a5cd 6dbb e729 0438 cadf debe 2c3a c639
00000050: 84ad 18b9 73a5 84be ba22 503f ca17 8fbe
00000060: e7c5 55bd 3be8 a438 c712 91bc 22b5 a3bc
00000070: 6528 413c 2f8f 61be aa1e fa3e 06bc 873e
00000080: 4f61 64bc 350d a53d 0b34 cfbb a133 c8bd
00000090: e9d6 a0be 4619 c73c 1b04 ac3c 35d1 1bbf
000000a0: f2a6 5cbe 1dac dabe 028c 5e3f cbfd 16be
000000b0: ce58 76be f92d 24bd e31a 93bd 6ec2 6ebe
000000c0: 4108 20be 96e9 83bd f3be 6cba 08b3 c1be
000000d0: bf25 82bc 6ceb 863e 5001 c6ba 9b1f a5be
000000e0: b958 b8be 289e 173d 46ce 283f 3ee2 edbe
000000f0: f028 a5be 1f81 b7bd 6365 cabe 3b15 8abf
00000100: 9204 cd3c c8ca ca3f 4069 70be ea13 49be
00000110: 334e 74be 572e b53e f80c a4be 6085 0fbe
00000120: 4f25 f5be 3b3a 583f 33eb 6cbe 1fbc 183f
00000130: def7 f8be ac37 85be 0344 e5be 2917 9c3f
00000140: 24fb 8c3e 7df8 9a3d 94a8 4b3e 025d bc3e
00000150: 2cfc 9dbd c42a 043f 4579 1e3f 5c48 a3be
00000160: 8d2b 0e3f 8581 05bf c7ab eb3e c254 f83e
00000170: b8c6 513f d4cd ae3e bacc 0f3f b32c c8be
00000180: 27d4 95be d372 5cbf 1b14 fc3d 327b 7c3e
00000190: 31e9 4e3e a3e3 eabc 7d83 403f 7a93 b3be
000001a0: 9f07 963e 96b9 7c3e a568 b9bd e259 b73e
000001b0: adab 5bbe 8c2c 363e 3771 0cbe e760 d6bc
000001c0: 5a93 b53c 4e13 fc3d e426 5c3d 5ac4 95bd
000001d0: 5e9d 9cbd 5807 8c3d 6db4 193e e1cf d33c
000001e0: 4343 213e 372e 84bb 928c 58bc f260 193f
000001f0: 06e0 033e c1b2 3c3f cdad 4dbe 1b72 a43d
00000200: c40b 893d 939f 14be d723 353f 0ebb 01bf
00000210: 0ad4 4f3e 0e82 a63d a3eb ab3d 3cc7 18bc
00000220: 6679 a9be f986 9e3d b6d8 b13d d86c e73d
00000230: 91b2 42bc 4194 27bf 083c a1bc ed0c 8922
00000240: 36bb c0bb d4c9 9aba 946b 9abb 3a55 cdbb
00000250: 21ad e83b c1c6 7fbd f35f 69bb 448a ae3d
00000260: e85b 703d 867b f7bb 46f0 15bd 756c 88be
00000270: 71b7 5fbe 00e4 89bd 9e92 9cbe 7480 c7bc
00000280: a809 903d 57a0 093f 0575 41be be3a 0b3f
00000290: a11d 43bb 4cae 893f f528 b53e 479a e73e
000002a0: 1425 18ba 8e95 b1bf 24fa 52be 6273 753c
000002b0: af8f 90bc 83aa 0aba c57f fcba d10e c9ba
000002c0: 12d8 17ba 4e3e 963d e50c 933a 160c c7bd
000002d0: 33c6 cfb7 5e7c 0abf abeb e43e 46f7 4cbf
000002e0: ed21 2bbf 9e24 0f3e 4f51 723e 709a 973e
000002f0: fff6 f43d 2597 0fbe f3fa dcbd 1a8e cd3e
00000300: e546 273f 40a5 223e 7328 babd 8b69 4f3e
00000310: 7d0d 26bd b4e9 973d 0d56 653e a228 9c3c
00000320: 1381 b4bc 032e 053e e559 e53d 557b 363e
00000330: 612a e63d f777 2ebf bd9a e83e 1200 e33d
00000340: bcb3 e63c 95a4 efbc 8698 27be 40da 053e
00000350: ca75 823e 23db cb3d 84f0 b0bc 61fe 9c3e
00000360: 9bdc 9abe 4a40 edbe ce04 9b3e 04b9 59be
00000370: 2f09 5f3e f45b 023f a4b6 0a3e 06d4 963e
00000380: 883c 1bb8 db32 2cb8 6615 00b9 139a 063a
00000390: 5586 8fb6 745b 03b4 2eaf 0000 401d 0000
000003a0: eb25 0080 a3b4 1dbe fa1a 0080 8757 5abb
000003b0: a981 5005 fc42 3dbd 0b67 203e d49a 3d3e
000003c0: 216c 253e e3a9 e33e bc9b adbe 1adb 7dbd
000003d0: 2700 8fbd 7d5b e4bd f3a0 88bd 12e9 8abe
000003e0: 854c c2bd d0b2 03be f85c 5cbd 5d1b 55bd
000003f0: 2d5f f03e 7edd 6a3d ad59 84bf 0063 993e

weight f4 [64, 64]
0.00012871044 -0.000112046626 -0.009105522 -0.0007970153 -0.011580435 0.011100708 0.0027284836 -0.0030004038
0.0083205085 -0.0008438032 3.5916096e-06 0.0158398 -4.3326304e-06 0.0011634908 -0.0019294546 0.0048248433
-1.4015909e-10 -0.005352266 0.0019082966 0.0031308613 5.407267e-12 0.00048953004 0.011919399 -0.00048897223
0.0011499713 8.415044e-05 -0.003694799 -0.003833208 0.00042319065 -0.006226674 0.009029045 -0.0012624946
-0.0061951703 0.008064484 0.0019277295 0.011823312 -0.0045352606 0.0037498923 0.0016051366 -0.0003748653
-0.0037063917 -0.013608162 0.011660306 0.0011081694 0.0008331619 2.0938e-41 -5.247e-41 0.00047141605
0.0022474988 0.0007837745 -0.0001614665 -0.0011047563 -0.0031675147 -7.087884e-05 0.005645342 -0.007860715
0.0005876558 -0.0032180944 0.001489612 -0.0018152165 -0.0030177191 -0.01590829 -0.0087710405 0.015499156
2.8210738e-05 -0.0004164245 -0.007978835 -0.0018925254 0.005428926 0.02692421 -0.01724998 -0.008961342
0.009510678 -0.0060410043 3.540164e-06 0.03447239 -1.7207858e-05 0.0002856302 -0.0065518646 0.0032179686
-5.8822405e-11 -0.011997535 -0.0015115662 0.011553733 -1.4013325e-10 -0.0032705998 0.022079708 -0.0056493175
0.0012969174 0.009070998 -0.0075572254 -0.0041027996 -0.0045024217 -0.010196138 0.011666247 -0.0033881273
-0.017452342 0.02729562 -0.004093085 0.0017745761 -0.009371588 0.012685355 -0.009274267 -0.0017251394
-0.0024641866 -0.042941704 0.006512867 -0.0009603052 -0.0014149646 2.663934e-29 6.803e-42 0.005729414
0.0014054652 0.0021369522 -0.009144604 -0.008942457 -0.0146256825 -0.00010166973 0.0038008548 -0.021422993
0.0018652877 -0.006586542 -0.009805042 -0.016619442 -0.006039425 -0.032556437 -0.017583806 0.041918933
-0.0005780825 0.00085244037 0.10237674 0.0073966826 -0.01777045 -0.07803915 0.018674295 -0.025326837
-0.10075022 -0.034034085 -4.941986e-05 -0.15377489 1.0857514e-05 -0.016173948 0.009742887 -0.06356467
3.8983658e-10 0.04007781 -0.029923083 0.01937951 -1.4233535e-12 -0.022841893 -0.05810155 -0.0030497191
-0.02946111 -0.032250587 0.005814557 0.009105158 -0.0041898307 0.023306472 -0.062980294 0.012206063
0.04111432 -0.09346396 -0.033655193 -0.07197138 0.029166417 0.005058178 -0.03789579 -0.0052421344
-0.041402876 0.09079431 -0.055450883 -0.022115873 0.035821233 -1.467157e-39 -4.331e-42 -0.009224472
-0.015527659 0.03507763 -0.011580103 -0.0006083468 -0.01447849 0.00046886 -0.016192349 0.04420436
-0.0056392173 0.022080367 0.0101202475 -0.027800633 0.018411562 0.081058055 0.07144418 -0.025574392
-5.7508358e-05 0.0007959018 -0.026548121 0.0051103355 -0.048869014 -0.058031756 0.022566332 0.03761154
0.022771785 0.028758772 7.21278e-06 -0.021291135 6.100021e-05 0.011325973 0.015017051 0.015194504
6.75219e-11 0.01733376 0.02701272 -0.058159016 2.1057142e-10 0.02636507 -0.07717164 0.022735195
0.011540007 -0.044426057 0.024277745 0.011727664 0.013813146 0.031842332 -0.012025038 0.011585739
0.04538062 -0.050563127 0.03712883 0.01768506 0.015108383 -0.02156142 0.03853435 0.009993251
0.0048268666 0.08359525 0.001669173 0.016709713 -0.023995576 -3.418e-42 -1.1558e-41 -0.013294012
0.0033795089 -0.036937002 0.034907844 0.028959705 0.06365226 0.00010296426 0.018349197 0.00094373565
-0.0059283646 0.010617622 0.022620808 0.070258416 0.009727692 0.058926415 0.026942011 -0.005339689
00000000: 72f6 0639 93fa eab8 542f 15bc cbee 50ba
00000010: ddbb 3dbc bedf 353c 5cd0 323b 6ca2 44bb
00000020: be52 083c ad32 5dba 6207 7136 78c2 813c
00000030: 0361 91b6 4680 983a c1e5 fcba b819 9e3b
00000040: 471b 1aaf 1062 afbb cf1f fa3a 232f 4d3b
00000050: 5540 be2c ce53 003a 9549 433c 5f2e 00ba
00000060: a2ba 963a ec79 b038 7124 72bb 8f36 7bbb
00000070: b0df dd39 2109 ccbb 8fee 133c 4a7a a5ba
00000080: db00 cbbb e620 043c deab fc3a 91b6 413c
00000090: 869c 94bb c1c0 753b 7263 d23a 9289 c4b9
000000a0: efe6 72bb c5f4 5ebc de0a 3f3c ff3f 913a
000000b0: 8c68 5a3a 5e3a 0000 4492 0080 6428 f739
000000c0: c64a 133b 3776 4d3a 554f 29b9 78cd 90ba
000000d0: 1496 4fbb caa4 94b8 90fc b83b 3aca 00bc
000000e0: ea0c 1a3a aae6 52bb 163f c33a 8fec edba
000000f0: edc4 45bb 1a52 82bc 69b4 0fbc 2cf0 7d3c
00000100: 19a6 ec37 8d53 dab9 a9b9 02bc 9d0e f8ba
00000110: 22e5 b13b 2990 dc3c d44f 8dbc 98d2 12bc
00000120: add2 1b3c 9ef3 c5bb 8e93 6d36 ec32 0d3d
00000130: 9859 90b7 a3c0 9539 06b1 d6bb 8ee4 523b
00000140: 125a 81ae 4f91 44bc bf1f c6ba de4b 3d3c
00000150: 0114 1aaf 8f57 56bb 81e0 b43c e91d b9bb
00000160: 54fd a93a 869e 143c 9aa2 f7bb c770 86bb
00000170: 0d89 93bb b40d 27bc c923 3f3c 580b 5ebb
00000180: 37f8 8ebc 109b df3c 491f 86bb e598 e83a
00000190: 4a8b 19bc 3cd6 4f3c 18f3 17bc 131e e2ba
000001a0: 317e 21bb a4e3 2fbd e369 d53b febc 7bba
000001b0: 5576 b9ba d713 0710 f712 0000 cfbd bb3b
000001c0: 9637 b83a 1c0c 0c3b 40d3 15bc 6283 12bc
000001d0: 8fa0 6fbc 8537 d5b8 c317 793b 467f afbc
000001e0: ab7c f43a ebd3 d7bb 54a5 20bc 7f25 88bc
000001f0: 5ee6 c5bb e659 05bd ea0b 90bc 30b3 2b3d
00000200: 768a 17ba 4e76 5f3a e5aa d13d df5f f23b
00000210: 5693 91bc fdd2 9fbd d6fa 983c 3a7a cfbc
00000220: 2256 cebd 5367 0bbd 2c48 4fb8 2a77 1dbe
00000230: ab28 3637 3a7f 84bc a1a0 1f3c 322e 82bd
00000240: 9f50 d62f a128 243d 4121 f5bc c7c1 9e3c
00000250: b751 c8ab ec1e bbbc e4fb 6dbd ccdd 47bb
00000260: 6d58 f1bc 3119 04bd 0a88 be3b cd2d 153c
00000270: d94a 89bb 37ed be3c d0fb 80bd f0fb 473c
00000280: 7d67 283d 086a bfbd 07da 09bd bb65 93bd
00000290: 69ee ee3c 13bf a53b 9e38 1bbd 36c6 abbb
000002a0: 1096 29bd 5ef2 b93d 7720 63bd 592c b5bc
000002b0: 49b9 123d d6f9 0f80 130c 0080 3d22 17bc
000002c0: b967 7ebc 90ad 0f3d 79ba 3dbc 7679 1fba
000002d0: 3037 6dbc 53d1 f539 d1a5 84bc a20f 353d
000002e0: 2fc9 b8bb e3e1 b43c 65cf 253c 27be e3bc
000002f0: d8d3 963c c401 a63d 5451 923d 6381 d1bc
00000300: 2135 71b8 11a4 503a 727b d9bc 9a74 a73b
00000310: e02a 48bd b5b2 6dbd 07dd b83c 8f0e 1a3d
00000320: e58b ba3c 8497 eb3c 4f05 f236 bf6a aebc
00000330: 7ada 7f38 9390 393c 140a 763c 5ef2 783c
00000340: 737b 942e 88ff 8d3c c849 dd3c 2638 6ebd
00000350: 9686 672f 8ffb d73c 2a0c 9ebd 293f ba3c
00000360: 4c12 3d3c 19f8 35bd 1fe2 c63c 6325 403c
00000370: 8950 623c 1b6d 023d aa04 45bc 1dd2 3d3c
00000380: 07e1 393d 481b 4fbd 6614 183d 42e0 903c
00000390: 2789 773c 93a1 b0bc 32d6 1d3d bcba 233c
000003a0: b12a 9e3b fd33 ab3d 27c8 da3a cfe2 883c
000003b0: 5f92 c4bc 8709 0080 3820 0080 21cf 59bc
000003c0: c07a 5d3b 414b 17bd 87fb 0e3d e73c ed3c
000003d0: 1e5c 823d 84ee d738 0e51 963c 0765 773a
000003e0: ba42 c2bb 89f5 2d3c 464f b93c a5e3 8f3d
000003f0: e660 1f3c d35c 713d 7eb5 dc3c 8ff8 aebb

encoder.sage.linear.weight f4 [64, 128]
0.0009001654 -0.0021365643 -0.12197142 0.015829014 -0.24436222 -0.111156516 -0.061343864 -0.0396813
-0.02417981 -0.0048869154 -0.252226 -0.032796707 0.46502358 -0.0007047249 0.20157258 0.23555952
-0.38234794 0.016571574 -5.589978e-08 -0.025912577 -0.015571129 -0.0049613137 -0.15126953 -0.20547971
-0.7079496 -0.08042238 -0.0027371808 -0.23526515 0.24066913 -0.046789765 -0.0010237107 -0.015475933
-0.037754185 0.0074117435 -0.03845336 -0.088066675 0.74716574 -0.09298351 0.026373312 0.0050983457
-0.04396594 0.064020835 -0.020581042 -0.01049 0.0027698688 0.008432562 -0.13706684 0.021795705
-0.06844573 0.03449534 -0.13180071 -0.014510444 -0.054160118 -0.00032371885 -0.026314849 0.05351533
0.004611884 0.014353082 -0.017132405 -0.00994247 0.0021672307 1.144554 -0.030026136 -0.09998242
-0.07362987 -2.0986611e-25 -0.014167134 -0.00072216394 0.06563822 -0.092208326 -0.035380557 -0.06495471
0.2057327 -0.15649137 0.07543475 -0.058860354 -3.0743115e-05 0.026574828 0.004645046 0.14276348
0.030145472 -0.0026377344 -0.06981336 -0.07482083 -0.0023518386 -0.03782448 -0.08029911 -0.06205521
0.009751111 -0.04728295 -0.004433848 -0.0027772174 0.032502923 0.45190695 -0.03143676 -0.021195577
-0.022743389 -0.0053224526 -0.065633476 -0.1107447 -3.0807132e-05 -0.07407679 -0.08971807 -4.6182162e-05
-0.03562573 -0.020091958 -0.07275894 -0.053103298 0.93278354 -0.1819069 2.428e-42 -0.0029569864
-0.01241153 -0.43340054 -0.00052586733 -0.0001971453 -0.04527778 5.8868546e-09 -0.057665024 -0.017453188
-0.0030449666 0.3978886 -0.009616705 0.001440694 0.021661475 -0.018847222 0.47866574 -0.15363237
-0.008867401 -0.02409501 0.06023645 -0.4127661 -0.017233398 0.052783005 0.76143324 -1.018267
-0.02825175 0.03462884 0.43775606 0.13589495 1.1169968 0.9592073 0.0012538452 -0.07232285
-1.8029193e-11 -0.007794085 -0.22556713 -0.19127876 7.8175066e-17 0.079451665 0.26534292 -0.025080489
0.102523595 0.7407138 0.030110775 0.020071292 -0.08645356 -0.17057313 0.040160574 0.02009348
0.024602568 0.0108016925 -0.010114926 -0.14069562 -0.022750447 0.26012248 0.10359481 -0.0061913477
0.093165785 -0.51562583 -0.3735181 -0.34135845 -0.026050229 -1.5377689e-28 -1.0681473e-09 -0.026818685
0.05726279 0.07567009 -0.046492282 -0.022391414 0.34272486 -7.77986e-05 -0.2770632 0.0071226857
0.0059598284 -0.001221045 -0.005811573 0.379127 -0.007512086 -0.054996382 0.02176425 0.08354976
-0.0034797501 -4.4089877e-05 -0.11498842 -0.2570926 0.30603394 0.14008531 0.19344188 0.11231171
0.045884434 0.018551353 0.5813804 0.50584716 -0.00028693877 -0.14258607 -0.002197081 0.041361835
-3.3889294e-06 -0.02049108 0.13824877 0.2911178 0.39746726 0.057038434 0.6829667 0.05199156
-0.41044912 0.12330001 0.03210027 0.14046973 0.1485679 -0.41428924 -0.0066215415 0.051088553
-0.0008504732 0.085368894 0.053379137 0.178211 0.0011778477 -1.190764 0.035296146 -0.010512369
0.1544044 -1.1224017 0.03528018 0.06788384 0.023853702 3.7909513e-06 4.5200477e-07 -0.042876724
0.018727947 0.06042887 -0.015612075 -0.014297394 -0.026311766 3.906874e-10 -0.21840146 0.026288263
0.1099845 0.8152669 0.010032163 0.053552236 1.3339036 0.050520666 -0.6322038 -0.13973214
00000000: 14f9 6b3a 9a05 0cbb 27cc f9bd d9ab 813c
00000010: 173a 7abe 07a6 e3bd b443 7bbd dc88 22bd
00000020: bd14 c6bc 6b22 a0bb c423 81be d755 06bd
00000030: 9217 ee3e 4abd 38ba 0b69 4e3e 8436 713e
00000040: 1cc3 c3be 1cc1 873c 7516 70b3 9d46 d4bc
00000050: 0c1e 7fbc 8492 a2bb 66e6 1abe 4669 52be
00000060: 2f3c 35bf 7db4 a4bd 4662 33bb 59e9 70be
00000070: f871 763e a0a6 3fbd 082e 86ba c58e 7dbc
00000080: 22a4 1abd 36de f23b 4581 1dbd 4d5c b4bd
00000090: 4146 3f3f 236e bebd d80c d83c 0610 a73b
000000a0: a115 34bd 5b1d 833d 9399 a8bc 40de 2bbc
000000b0: b086 353b bb28 0a3c 405b 0cbe e88c b23c
000000c0: 462d 8cbd fc4a 0d3d c4f6 06be 37bd 6dbc
000000d0: 00d7 5dbd cfb8 a9b9 3d92 d7bc e432 5b3d
000000e0: 491f 973b 3029 6b3c 4259 8cbc bee5 22bc
000000f0: 1908 0e3b bf80 923f 5ff9 f5bc 95c3 ccbd
00000100: 42cb 96bd 9de6 8196 441d 68bc 9a4f 3dba
00000110: 556d 863d b8d7 bcbd 34eb 10bd fa06 85bd
00000120: 98ab 523e 463f 20be 897d 9a3d 8e17 71bd
00000130: 2bf2 00b8 74b3 d93c 7835 983b 9730 123e
00000140: a3f3 f63c d7dd 2cbb 4ffa 8ebd aa3b 99bd
00000150: 4e21 1abb d8ed 1abd dc73 a4bd 9b2d 7ebd
00000160: 20c3 1f3c c4ab 41bd d049 91bb fa01 36bb
00000170: c921 053d 5960 e73e d5c3 00bd 59a2 adbc
00000180: 5850 babc f867 aebb d86a 86bd 1ece e2bd
00000190: e836 01b8 92b5 97bd 1cbe b7bd b8b3 41b8
000001a0: 49ec 11bd e497 a4bc a402 95bd d882 59bd
000001b0: e7ca 6e3f cd45 3abe c506 0000 00ca 41bb
000001c0: bb59 4bbc ade6 ddbe 5cda 09ba cab8 4eb9
000001d0: 3275 39bd 5245 ca31 2932 6cbd fdf9 8ebc
000001e0: 108e 47bb 0eb8 cb3e 628f 1dbc abd5 bc3a
000001f0: 6873 b13c 7d65 9abc ad13 f53e ce51 1dbe
00000200: 9348 11bc e662 c5bc 7fba 763d 1456 d3be
00000210: 0e2d 8dbc fe32 583d 4aed 423f 9356 82bf
00000220: 3770 e7bc f8d6 0d3d 9021 e03e 0c28 0b3e
00000230: c0f9 8e3f 9c8e 753f 1058 a43a 011e 94bd
00000240: 2296 9ead 8665 ffbb 12fb 66be 94de 43be
00000250: 6a42 b424 8eb7 a23d 07db 873e 9975 cdbc
00000260: e4f7 d13d 6b9f 3d3f dfaa f63c 8d6c a43c
00000270: 900e b1bd b9aa 2ebe 6a7f 243d 159b a43c
00000280: 538b c93c 95f9 303c 13b9 25bc 8312 10be
00000290: 255f babc c62e 853e 8429 d43d cae0 cabb
000002a0: b4cd be3d 0e00 04bf c43d bfbe 89c6 aebe
000002b0: 4a67 d5bc 74ef 4291 18ce 92b0 dcb2 dbbc
000002c0: 638c 6a3d ecf8 9a3d b16e 3ebd 336e b7bc
000002d0: a279 af3e ce27 a3b8 3adb 8dbe 6b65 e93b
000002e0: aa4a c33b 790b a0ba 026f bebb ef1c c23e
000002f0: f227 f6bb e343 61bd f14a b23c 231c ab3d
00000300: 850c 64bb 25ed 38b8 0c7f ebbd a4a1 83be
00000310: 7bb0 9c3e 8672 0f3e a115 463e af03 e63d
00000320: 51f1 3b3d 02f9 973c 59d5 143f 337f 013f
00000330: 4570 96b9 1502 12be e7fc 0fbb 076b 293d
00000340: 5d6d 63b6 e9dc a7bc 1691 0d3e 640d 953e
00000350: d480 cb3e 22a1 693d e8d6 2e3f 1af5 543d
00000360: 6326 d2be b784 fc3d 937b 033d 4cd7 0f3e
00000370: 2f22 183e b81d d4be 84f9 d8bb 3b42 513d
00000380: 4af2 5eba e3d5 ae3d 15a4 5a3d f27c 363e
00000390: 0362 9a3a f46a 98bf b192 103d 123c 2cbc
000003a0: 301c 1e3e dcaa 8fbf f381 103d af06 8b3d
000003b0: d768 c33c 0c68 7e36 10ab f234 819f 2fbd
000003c0: 5a6b 993c 4384 773d cac9 7fbc 9e3f 6abc
000003d0: c68b d7bc 5dc8 d62f a2a4 5fbe 7c5a d73c
000003e0: 8e3f e13d 55b5 503f f15d 243c 9759 5b3d
000003f0: 5abd aa3f c2ee 4e3d 1cd8 21bf f115 0fbe

linear.weight f4 [2, 64]
-0.13315575 -0.04387858 0.10190977 0.04314695 -0.023261273 -0.51597786 -0.03654592 0.003011306
0.6672909 0.1280972 0.47064766 0.69294775 -0.020927608 0.015398793 -0.008026557 -0.05914629
-0.0014031867 0.64888126 -0.0024749704 0.06557568 0.01056604 0.13701588 -0.029741254 0.08773338
-0.015910326 0.06294502 0.008589248 0.08630694 -0.05198337 0.139124 0.17006423 -0.22483084
0.00046644823 0.5687904 0.7801315 0.05964901 0.021206906 -0.09095098 -0.06913456 -0.122230776
-0.0676631 0.05226934 0.090038754 0.63530636 -0.0064168093 -0.002913775 0.5120414 -0.012691509
0.0055520544 0.4608198 0.18930371 -0.055542123 0.21058168 0.20943753 -0.29468274 0.07351784
0.060733557 0.14639609 0.09011984 0.057946276 0.09741835 0.073924154 -0.063336074 0.14098409
0.18805677 0.13583912 -0.12001858 -0.020333689 0.022023397 0.577119 0.013696917 0.01625593
-0.60493624 -0.030881139 -0.4282253 -0.69908553 0.01909349 0.03154156 0.007969907 0.06513507
0.0075597074 -0.670998 0.017973537 -0.042337064 -0.010525886 -0.09035231 0.04156922 -0.08770712
-0.04075951 0.06353812 -0.03676781 -0.13202389 0.044994567 -0.05170482 -0.22935387 0.19123659
-0.00025570215 -0.56877923 -0.8261812 -0.06479565 -0.069356225 -0.055973522 -0.06491208 0.15171024
0.033259433 -0.031409163 -0.117066465 -0.64828485 0.07946704 0.0029176737 -0.5784006 -0.022060517
-0.0075264242 -0.41782314 -0.20273773 -0.05071709 -0.27662417 -0.1570071 0.27577057 -0.07429011
-0.03254885 -0.06373692 -0.081454545 -0.083518155 -0.11641618 0.0052145934 -0.028925367 -0.024013542
00000000: fb59 08be 07ba 33bd 12b6 d03d dbba 303d
00000010: 6d8e bebc 2017 04bf 2db1 15bd 5559 453b
00000020: 94d3 2a3f ea2b 033e bbf8 f03e 0665 313f
00000030: 6070 abbc 384b 7c3c d281 03bc 6143 72bd
00000040: 22eb b7ba 151d 263f 1d33 22bb 8b4c 863d
00000050: 2f1d 2d3c e44d 0c3e eea3 f3bc 8fad b33d
00000060: 5f56 82bc 52e9 803d ebb9 0c3c b1c1 b03d
00000070: 84ec 54bd 8676 0e3e 5125 2e3e 0e3a 66be
00000080: 9f8d f439 3f9c 113f b3b6 473f 8552 743d
00000090: 1bba ad3c 8244 babd 6c96 8dbd 2154 fabd
000000a0: f492 8abd 6018 563d 3d66 b83d 70a3 223f
000000b0: 1944 d2bb 08f5 3ebb 2515 033f 0cf0 4fbc
000000c0: 02ee b53b 93f0 eb3e d5d8 413e 2380 63bd
000000d0: b9a2 573e cb76 563e a8e0 96be 8590 963d
000000e0: c0c3 783d dbe8 153e c090 b83d 1359 6d3d
000000f0: 4683 c73d 8c65 973d 58b6 81bd 225e 103e
00000100: f491 403e 6919 0b3e 4dcc f5bd d692 a6bc
00000110: 696a b43c 12be 133f 0969 603c 282b 853c
00000120: 1add 1abf 71fa fcbc 5940 dbbe 45f7 32bf
00000130: f369 9c3c b931 013d 3694 023c 8965 853d
00000140: 6cb7 f73b 86c6 2bbf 3d3d 933c a169 2dbd
00000150: c474 2cbc a20a b9bd 7d44 2a3d ca9f b3bd
00000160: 72f3 26bd 4620 823d d899 16bd 4531 07be
00000170: 394c 383d 6fc8 53bd bedb 6abe 86d3 433e
00000180: c30f 86b9 849b 11bf 9c80 53bf 95b3 84bd
00000190: a30a 8ebd 7e44 65bd a0f0 84bd ee59 1b3e
000001a0: 0b3b 083d e5a6 00bd 8bc0 efbd fff5 25bf
000001b0: 9ebf a23d 7136 3f3b 1012 14bf 42b8 b4bc
000001c0: 39a0 f6bb eaec d5be 7b9a 4fbe b9bc 4fbd
000001d0: afa1 8dbe 78c6 20be cd31 8d3e 6a25 98bd
000001e0: f151 05bd 8188 82bd a4d1 a6bd 910b abbd
000001f0: 9b6b eebd 2edf aa3b e4f4 ecbc 0cb8 c4bc

linear.bias f4 [2]
-0.02180613 -0.056532077
00000000: c5a2 b2bc 2e8e 67bd
