SCG-SFFL-main/SCG/checkpoint/alluxio.pth (torch, 55195 bytes, 5 tensors)

sage.linear.weight f4 [64, 14]
00000000: bf93 debe 4bc6 a03f a233 fc3e 6ccd a53e
00000010: ddc0 2fbe 646f b03f 9fa0 87be 3595 69bd
00000020: b510 50be 9e5c 323f e60d 7fbb 3caa a33e
00000030: 422d aa3d 64e4 ea3d a660 9e3e 75b7 e03d
00000040: 9eab 163d 1a9e 9cbc 9a38 4bbe c0db 81bc
00000050: ecd9 85bc ab9f 0fbd 84d4 7dbc 0a33 04be
00000060: 41e9 f5be 84a3 c2be a26e 04be c38c 4abc
00000070: 4b04 eebe f724 0080 1a42 febe c613 0000
00000080: a126 0080 f827 f19d 4833 96bb 64ea 6fa0
00000090: ee94 87be b8fc 99bb d7a4 d220 c709 9bbc
000000a0: 3618 28bc fec7 ccb6 b9fa 33ba 9cbf 5d2b
000000b0: f0b0 05be 281c b735 46e0 3bbd e7e8 50bd
000000c0: c810 ac8d 93ae 372e 976a f13c 539f a5bd
000000d0: 4f0d c23b dbd6 d737 d081 c338 97df 9db2
000000e0: e538 653e a8a8 4ebf 9186 683f 5609 533e
000000f0: d35b a4bd 6da0 4fbf 4085 5c3e 356d 36be
00000100: 525b a93e d9d6 243c 3849 9e3d daee e5bd
00000110: 2050 aebe a264 e1be 16f3 5f3d f4a5 0d3f
00000120: 1126 66bc c058 093f 4aa4 85be 36e0 b73e
00000130: 6a7f 8bbc cdcc 2f3e 82dc cc3d 8d89 4f3c
00000140: 42e1 fa3d 5814 dd3e 40fb 5e3c 55ef 9fbe
00000150: 69a9 4f3d 022c 363e 9b41 66bd 7b78 ae3e
00000160: 236a 17bf 329f 033f aa7b 82bc 9f42 0a3f
00000170: 7723 f0be db70 be3d 7a31 863e b581 383f
00000180: 0a4a 293e f6d8 2d3e c89a e03c 7a49 cf3c
00000190: f817 98bc c19c 8e3d b7e7 17bd 2617 383d
000001a0: 869f be3d 1aec 153d 311c debd 4bf1 983e
000001b0: 1a15 d3bd dff2 843d be90 52bd 43a9 093e
000001c0: 5015 96be a20f e7bc eb63 883f 07c8 343d
000001d0: 8902 3fbe 2b30 5fbe f090 0e3e 00a7 a8bd
000001e0: bb27 7fbe 2c50 15be eea4 113e 73e0 93be
000001f0: 9edf fc3d 4b87 4b3e 22b7 edbe 1d67 7dbf
00000200: 91eb cc3d 550e 2ebf f6fb 4c3e 41c9 95be
00000210: bcfe fe3d ee35 473f adbf 5dbf 8d8c 143e
00000220: 1ab3 debd 725b debd 1f45 20be 8de4 a73d
00000230: e424 c13e 9b5c 763e fbb5 c03d f8df 3fbd
00000240: f1f7 eabc e19a 98bd 211f c2bc 90c8 6bbd
00000250: 2e4e cc3c e45c b3be 9286 2dbe 6528 a2bd
00000260: 914e 803e 5ec9 05be 2313 a33e bdfe 433f
00000270: 0636 b3be 44a6 e13e 4d50 52bf ae71 0b3e
00000280: 190b 9bbe df2c efbc 6c82 ca3c bc31 683f
00000290: 4af7 08bd 1682 89be 1750 adbe 134e ad3e
000002a0: 1544 753f 3fd6 c53e 150d b03e 02c6 d43e
000002b0: 138e 95be f809 54be 7882 a23c 32fd 41be
000002c0: c152 5fbe 3626 a13e 4deb 3abc 6c86 733f
000002d0: 1257 ba3e 768d 01bd 0007 243d 2d46 ca3e
000002e0: 64c4 5bbe 343b 1e3e e3cb 0cbf f079 893e
000002f0: 3041 1e3f 6a8b c1be 8047 86be 4ae9 0d3f
00000300: 7dd6 95be 37b2 663e 7d92 1cbd 0fc4 4c3f
00000310: f340 40bf 8b70 38bf be4f 1cbf 27ff 583f
00000320: 0071 533e 408a 3d3d b39a 2e3d 5465 8e3c
00000330: 7233 663c 1745 ca3d 1146 2e3c 8ce7 203d
00000340: db76 f53c 9e7e 18bc 2f83 64bd 3ae9 f93d
00000350: c7c1 c93e 6f19 cd3e 2cbd 093f 969f 923f
00000360: f870 17bf 383e 6c3e 88eb 3e3f 2a28 413e
00000370: f20a 963e 4910 59bf 65dc 14bb 27c1 94be
00000380: 0801 c7b8 17c2 7214 a57a deba 28b2 7ab8
00000390: b713 f7b9 ae38 27ba 2549 da3a c5b3 928c
000003a0: 3341 bf3c 2cc0 ccbe 2cc5 85b1 d02f 0000
000003b0: 4aac da3c 7e87 5dbf 484c d7ba 09cd 3ebc
000003c0: 098b 12bc a94c e23c 727c 2dbc 852b ee3c
000003d0: 71d7 3b3e 35a6 373a 25ee 99bb dee4 a8bd
000003e0: 781b 77bc c10c 83bb b57f b1bb bace 97bb
000003f0: 3df2 51bc bb03 23bb 9430 c7be d4f7 dcbe
-0.43472096 1.2560514 0.49258143 0.32383287 -0.17163415 1.3783994 -0.26489732 -0.05702706
-0.20318873 0.6967257 -0.0038918196 0.31965816 0.083094135 0.11469343 0.30933112 0.10972492
0.03678476 -0.019118357 -0.1984581 -0.015851855 -0.016339265 -0.03506438 -0.015492562 -0.12910095
-0.4802952 -0.38015378 -0.12932828 -0.012362662 -0.4648765 -1.326e-41 -0.49659806 7.093e-42
-1.3857e-41 -6.3833496e-21 -0.00458375 -2.0321641e-19 -0.26480812 -0.004699316 3.5684466e-19 -0.01892556
-0.010259679 -6.102956e-06 -0.00068656687 7.8780884e-13 -0.13055778 1.3642757e-06 -0.04586818 -0.051003363
-1.0604358e-30 4.1764436e-11 0.029469771 -0.08087029 0.0059219967 2.5730047e-05 9.322504e-05 -1.8378882e-08
0.22384985 -0.807261 0.9083033 0.2060903 -0.080253266 -0.81104165 0.21535206 -0.17815097
0.33077484 0.010060989 0.07728809 -0.11227198 -0.34045506 -0.4402209 0.054675184 0.5533135
-0.014047162 0.53651047 -0.26101905 0.35913247 -0.01702853 0.17167969 0.10002996 0.012667072
0.12249996 0.43179584 0.013609707 -0.31237283 0.05069867 0.17790225 -0.05621491 0.34076294
-0.59146327 0.5141479 -0.015928108 0.54007906 -0.46902058 0.09298869 0.26209623 0.7207292
0.1653215 0.16977295 0.027417555 0.025303591 -0.018566117 0.06963492 -0.037086215 0.04494395
0.093077704 0.036602117 -0.10845221 0.29871592 -0.10306759 0.064916365 -0.05140757 0.13443474
-0.29313135 -0.028205696 1.0655493 0.044136073 -0.18653311 -0.21795718 0.13922477 -0.08234978
-0.249175 -0.14581364 0.14223072 -0.2888218 0.12347339 0.19875829 -0.46428782 -0.98985463
0.10005868 -0.6799062 0.2001799 -0.29255107 0.124509305 0.77816665 -0.866206 0.14506741
-0.10874005 -0.108572856 -0.15651368 0.081978895 0.37723458 0.24058764 0.0940971 -0.046844453
-0.02868268 -0.07451416 -0.023696484 -0.05756432 0.024939623 -0.35031807 -0.16945866 -0.07917861
0.2505994 -0.13065097 0.31850538 0.76560575 -0.35002154 0.44072163 -0.8215378 0.13617584
-0.30281904 -0.0291962 0.024720393 0.9070089 -0.03343896 -0.2685706 -0.33850166 0.33848628
0.9580701 0.3864002 0.3438498 0.41557318 -0.29209957 -0.20706928 0.019837603 -0.18944243
-0.21808912 0.31474465 -0.011408639 0.95126987 0.36394554 -0.03162905 0.04004574 0.39506665
-0.21461636 0.15452272 -0.54998606 0.26850843 0.6181822 -0.37801677 -0.26226425 0.55434096
-0.29265204 0.22528921 -0.03822564 0.7998666 -0.75099105 -0.72046727 -0.61059177 0.8476433
0.20648575 0.046274424 0.042628 0.017382301 0.014050351 0.09876459 0.010636822 0.03928332
0.029963901 -0.009307532 -0.05578917 0.122026876 0.39405653 0.40058467 0.5380428 1.1454952
-0.5915675 0.2307061 0.7457814 0.18862978 0.29305226 -0.84790474 -0.0022714373 -0.29053614
-9.4892515e-05 1.2256155e-26 -0.0016973807 -5.9770566e-05 -0.000471262 -0.00063789904 0.0016653879 -2.2603057e-31
0.02334652 -0.39990366 -3.8932253e-09 1.7152e-41 0.026693482 -0.8653487 -0.0016425932 -0.011645564
-0.008944281 0.027624445 -0.010588752 0.029073486 0.18343903 0.0007005663 -0.0046975785 -0.08246778
-0.015082233 -0.003999323 -0.005416835 -0.004632798 -0.012814102 -0.002487405 -0.3890425 -0.43157828

weight f4 [64, 64]
00000000: 2e38 4cbe 1259 a93c 2ebd 08be d224 00be
00000010: 3932 cbbd 896a d23d fa70 30be 6460 313d
00000020: 6454 343e 37c0 593e 5963 59be a2d4 023e
00000030: 5678 4bbe eddb 3abe ca5b d5bc 9199 50be
00000040: 02a4 473e 7708 2fbe 4ecf 61bd 49b1 a2bd
00000050: c28a 923c a156 ca3d 9088 22be f091 01bd
00000060: fc90 ea3d 2005 98bd c2d1 3ebd 7089 b23d
00000070: 95a3 483e 9c79 5cbd 26d9 45be a42d 28be
00000080: 776a fbbc f391 0a3e 5e72 a0bd a274 1fbe
00000090: 1955 3f3c 03e2 88bd a5f6 6c3d b052 c4bd
000000a0: 94f9 67bd c8d2 34be 150b 383e 8e4e 7cbc
000000b0: 4e0c 3abe be17 113e a26c 4ebe e7b3 693d
000000c0: 3e07 063e 846e efbc 66ad 0f3e a243 fe3d
000000d0: c4a7 463e 81c0 403e 7611 fc3d 08fc a43d
000000e0: b0cc db3d 97d0 6cbd c7ea 1f3d 7bdb c73c
000000f0: 51fb d3bd 2318 2dbc 54b5 4c3e 1982 3bbe
00000100: 8747 173e 7f88 ecbc aeab f43d ad82 2b3d
00000110: a604 4e3d 0c52 7cbd 2a6d 0dbe 5570 39be
00000120: 7997 0c3e fb66 c63d d8e3 eb3c 3c9b 543d
00000130: 5bd6 9ebd d1c9 39bd a937 0dbd 79c2 443e
00000140: 98af 073e afeb fcbc 6084 33be e242 183d
00000150: 9f42 8d3a d618 123e 770f 36be a2c4 30be
00000160: 02ce 0b3e 9385 aebd b8be 5abc 09c0 bcbd
00000170: e833 2dbd 2e4b c7bc 5499 04bd 31e1 48be
00000180: a637 3dbe 8f59 c63c fd92 493b f4b9 413e
00000190: 15b4 673d e21c 2f3d aa0f 32be d5ef b23d
000001a0: a034 cdbd 02a4 05be 05e3 58be 933f 87bd
000001b0: 6438 1abe 2c5c ebbd 3c6e 09be d10e 5bbe
000001c0: 8cdb 25bd d382 7bbb fb60 a33d 7500 21be
000001d0: 6d48 59be 0932 753d aef2 33bd 1d1b afbd
000001e0: 9004 febd 59da 30be e579 08be 2a7d 9dbd
000001f0: 03fb 713c 2c34 ff3d ecb5 223e 316e 21bd
00000200: 7d2c 063d d00a b0bd 56bb 13be 7f2b ac3a
00000210: c09c 52be 9ef8 76bd de07 edbd ddf4 27be
00000220: e66e 4e3e 8b92 2abd 7c11 e43b fb55 1e3e
00000230: 805c adbd abf7 a83d d133 55be 5642 173e
00000240: 7262 8abd ed89 05be 562f a9bd 88c2 2b3e
00000250: def0 85bd 4da1 943d 9d98 5abe 00b7 303d
00000260: 1a55 f6bc 33ea 373d a932 3abd c2ab 2b3e
00000270: 9057 f1bd d757 ce3d 1307 01be 9e90 00be
00000280: d8a0 2fbe d009 3b3e 6632 853d 4bfc 833d
00000290: 2618 d33d 2df7 bc3d 7031 4e3e 152c 863d
000002a0: d266 0c3e 1de6 9d3c 89c3 f7bd f081 3c3e
000002b0: c65a 33bd 142d efbb dedd fe3d d1dc 00be
000002c0: df45 753b f93d 063d 375c d43d 93d7 febd
000002d0: bbf3 6ebd 44e2 31be 9cfb 07be dd14 54ba
000002e0: e404 80bc bf31 00be 7fe0 e83d e664 09be
000002f0: 0d83 143e 5afb f43d 42dc c83a 4970 28be
00000300: 83f4 033d d510 583e 7152 28be 8964 a53d
00000310: f2b6 61ba 21de d8bd 2951 f33d 726e 94bd
00000320: 6520 1e3e 1ae5 483e ea65 03be dd30 30be
00000330: 8095 50be f4f7 41be 440e cdbd aa72 37bd
00000340: f92f 203e e799 223e 2939 df3d be44 4abc
00000350: 14b5 06bd 867b 053c 5673 583d 242d ee3d
00000360: 4034 fcbd 62df 01be ca5d 56be 8b1a 193e
00000370: bd31 75bd d62f 483e dd4f 9e3d afb7 12bd
00000380: fa10 533d 55d4 d6bd 4f40 153d d5d5 c63c
00000390: 8337 4abe d106 063e 5510 b5bd b0a9 64bc
000003a0: abf9 44be adaa 183e 54ff 113e d1a5 84bd
000003b0: ca84 c0bd cb95 273e 7a9a 11be 46f7 c73d
000003c0: e137 2b3e d50c 503d 1f53 07be 9e2b eabd
000003d0: 6f8e 8c3d aff0 e3bc 2553 2f3e 9c46 25be
000003e0: e572 ad3d 5808 13be bbaa ae3c 1c16 c23d
000003f0: 310c c2bc 0ba9 11be 025b 1a3c 80e2 14be
-0.19943306 0.020672355 -0.13353416 -0.12514046 -0.099216886 0.10274226 -0.17230597 0.043304816
0.17610317 0.2126473 -0.21229304 0.12776425 -0.19870123 -0.18247958 -0.026044745 -0.20371081
0.19496158 -0.17093073 -0.05512934 -0.07943971 0.01788843 0.098798044 -0.15872407 -0.031633317
0.11453435 -0.074228525 -0.04658676 0.087176204 0.19593652 -0.053826913 -0.19321117 -0.1642366
-0.030690415 0.13532238 -0.07834314 -0.15571836 0.011678004 -0.06683733 0.057852406 -0.09586084
-0.0566345 -0.17658532 0.17972977 -0.015399588 -0.18168756 0.14169213 -0.20158628 0.057056334
0.130887 -0.029227503 0.1403099 0.12415244 0.19399935 0.18823434 0.12308018 0.08055884
0.107324004 -0.057816114 0.03904226 0.024396649 -0.10350669 -0.010564837 0.19991046 -0.18311347
0.1477338 -0.02887368 0.11946808 0.04187267 0.0502974 -0.061601683 -0.13811174 -0.18109258
0.13729657 0.09687611 0.028795168 0.051905856 -0.07755729 -0.045358483 -0.03447691 0.1921481
0.13250577 -0.030874101 -0.17530966 0.03717316 0.0010777301 0.14267287 -0.17779337 -0.1726251
0.13652804 -0.08521571 -0.013351135 -0.09216315 -0.04228583 -0.02432784 -0.032372788 -0.19617154
-0.1847826 0.024212627 0.0030757778 0.18918592 0.056568224 0.042752154 -0.17388788 0.087371506
-0.10019803 -0.13050845 -0.21180351 -0.06603923 -0.15060574 -0.1149219 -0.13420957 -0.21392371
-0.04049258 -0.0038377538 0.07977482 -0.1572283 -0.21219034 0.05986217 -0.04393261 -0.08550093
-0.12403214 -0.17270793 -0.13327749 -0.07689889 0.0147693185 0.12461123 0.1588971 -0.039411727
0.03275727 -0.08595812 -0.14426932 0.0013135521 -0.20567608 -0.060295694 -0.11573766 -0.16402002
0.20159492 -0.04164366 0.006960092 0.15462486 -0.084649086 0.08250364 -0.20820548 0.14771399
-0.06757058 -0.13040896 -0.08260982 0.16773427 -0.065400824 0.07257328 -0.2134728 0.043143272
-0.030069876 0.044901084 -0.04545847 0.16764739 -0.11784279 0.10075348 -0.12600355 -0.12555167
-0.17151201 0.18265462 0.06503753 0.064446054 0.1030734 0.092268325 0.20136046 0.06551377
0.13711098 0.019274766 -0.12097842 0.18408942 -0.04378774 -0.007299075 0.124446616 -0.12584235
0.003742568 0.032773945 0.10369151 -0.12443461 -0.05833791 -0.1737147 -0.13279575 -0.0008090267
-0.015627332 -0.12518977 0.11370944 -0.13417396 0.14503117 0.11962004 0.0015324431 -0.16449083
0.032215606 0.21100171 -0.16437699 0.08075816 -0.000861033 -0.10589243 0.118807144 -0.07247628
0.15442045 0.19618645 -0.12831846 -0.1720614 -0.2036953 -0.18942243 -0.100124866 -0.044787087
0.156433 0.15879022 0.10899574 -0.012345491 -0.032887533 0.008147126 0.052844368 0.11629704
-0.123146534 -0.1268287 -0.20934215 0.14951532 -0.059861887 0.19549498 0.077300765 -0.035819706
0.051529862 -0.10489718 0.036438283 0.024271885 -0.19747739 0.13088538 -0.08841006 -0.013956472
-0.19235866 0.14908858 0.14257556 -0.064769395 -0.094003275 0.16365735 -0.14219084 0.097639605
0.16720535 0.050793488 -0.13215302 -0.114341006 0.068631046 -0.027824728 0.17121561 -0.16140217
0.0846918 -0.14358652 0.021321645 0.09476873 -0.023687454 -0.14224641 0.009421112 -0.14539528

encoder.sage.linear.weight f4 [64, 128]
00000000: 96ee a8be fd3d db3a 842e ad3b 1266 173c
00000010: 0b58 a4bc 8463 073f b96f d9bb ec0a 80ba
00000020: 9f13 53bf 6360 8bbe e7e9 dd3a 911e 7d3d
00000030: 697a d03e c196 8dbe db2b d0be 1f75 08bf
00000040: fcb3 59b9 51b6 45bc b12b d7b8 375c 353e
00000050: d8c6 30be 4ba5 c53a a895 323e d27e 89b7
00000060: 9acb 493b f265 6a3c ae1c cebd 59fe 05bf
00000070: 4c2b d03e 6458 8fbe d5f2 25bd 0e5a fd3e
00000080: d691 dabd b6ae 623e e791 77ba 0a94 83bd
00000090: 67ad 5604 74a4 07bf e86c e7bd 8b6a d2bf
000000a0: fa0c 4d3e c3b0 82bd 6554 0d3f 8793 c93c
000000b0: 6979 49bc bb84 063f 5c7a 233e 71b6 74be
000000c0: 906f f7bb c5c1 cbbd 6fd5 57be e42d 07bf
000000d0: b2ab a4be e3fa 57bc d2b9 e03e f619 8e3f
000000e0: 7792 f93d 4c5d 683d 56ed 003e 767d c5b8
000000f0: da0b dc3c 5026 2f3f f146 5e3f 0c9b a5aa
00000100: fb31 a3be f97c 2abb ee62 573a 52fd 723e
00000110: b520 a9be d341 13bb 576e 543b f81c 3ebc
00000120: 7b9b 0fbf 9b90 be3e d0bf b93d 944a ecbd
00000130: d812 f53e a8cd 673e 53f4 77be 5a3c 2f3d
00000140: c5ec d8bd 3ca6 7b3e 2ab4 d73c b53d adba
00000150: 6bb1 c13e 836e 443e dab5 5bbc 0888 89be
00000160: 0bc8 48bd 2430 8c39 5d9a 9736 6bb7 eabd
00000170: 5889 65be 6bf9 de3d ca68 c53e 2903 86bb
00000180: 03ff c1b7 657a a13b 46b6 6cba 8e49 8ebe
00000190: 4d6d 153a 83c3 b13e 9d18 9d3e ebcc 0b3e
000001a0: 8d83 213f 6cb5 6abb bbf5 45bb a7eb 10bd
000001b0: 02fe 1f3a db34 a33d c897 26be 7395 47be
000001c0: a7d0 74bd 5212 3e3f 7d02 e33e 5b0c 1d3f
000001d0: 5ea5 323f b1c7 a6bb d28e 593f a619 a03c
000001e0: aed5 17b9 6c4f ceb9 8efa ec38 5aed 6539
000001f0: 8eca 0280 8994 e53e 481e c8bd 7e5b 0014
00000200: a130 fdbd 2ce4 1bbd a58a ad3d 27e6 0d3e
00000210: ae4b 15be 0227 2c3e 73d4 fd3e 94b6 de3a
00000220: e19f 543d 4873 45be cba8 e6bd 6717 de3e
00000230: cf82 e83d 3d1b 02be d1a7 183e 5296 39be
00000240: ccf2 b7bd 15cb f439 eb4e 1a3b 6b39 c93e
00000250: e994 adbc ef82 2fbd b20f 103d c8b6 9839
00000260: 5802 d73d 8f76 ba3d 0e8f 22bc 406c a4bd
00000270: 0ba2 af3c d387 cd3d 1a10 613e 170e 403f
00000280: 4e81 dd3b 9099 26be bf7e 283d 7aa5 cb3d
00000290: 7a91 933d f420 b93e 95d8 193e 5700 11be
000002a0: 421c 533c eab5 d9bb 2ce5 07be 96a5 f23d
000002b0: 202f 073f cb14 0dbd d519 08c0 f989 b93d
000002c0: 1de6 2e3e 984a 133e 341f a73e 53ad 5e3d
000002d0: ae01 0fbf d3fa 16bd 1f12 c33c c33c a63d
000002e0: fae4 1d3a d706 7c3e ffed 013c bf8b 72bd
000002f0: 66a4 3a3c f4b0 663e 408b 28bd 3eef cabd
00000300: 6e39 d9bd 34b1 613a 9f40 0000 335c ae36
00000310: c2c9 04bd 7962 abbc 65b5 aebd 3d62 b5bd
00000320: 9d34 a8bc cfe2 b7bd b4e8 3ebe b810 393c
00000330: def5 e13b 016c acbc c060 a1bb 67c6 783e
00000340: c01e 0080 e875 043a caf1 8c3a 9f10 dd39
00000350: bfd8 13bd a089 183e e09f 873c 07d6 803e
00000360: c641 5cbe 1e60 a7bb 05eb 5bbe af2a 38bd
00000370: 8c30 82bb bb96 26bd 01e9 ca3c 7741 b23d
00000380: 5bb0 3abf a063 c53c 5248 bfbb 2c85 98be
00000390: 9b2f 8dbe 28c6 943e 816a fa3d d20a acbd
000003a0: 9069 db3e a682 93ba 0e17 78bb c728 3dbe
000003b0: 6cde d43d c83f ae3d 1885 3bbe a729 853b
000003c0: 730f cb3b e65f fa3c cdc0 e03d 7655 093d
000003d0: 278a 2f3c 892c 323d 575e 083f 8b28 0a3c
000003e0: 46c6 bcbe a10c d8bb 615b 9bba 1454 57bb
000003f0: 35c7 05b9 0b2c b73d 758a 383e fea4 1d10
-0.32994527 0.0016726848 0.005285086 0.009240644 -0.020061513 0.52886224 -0.006635633 -0.000976888
-0.82451814 -0.27221975 0.001693067 0.06179673 0.40718392 -0.2765408 -0.4065846 -0.5330371
-0.00020761782 -0.012067393 -0.00010260137 0.17710958 -0.17263353 0.0015079168 0.17439902 -1.6390728e-05
0.0030791522 0.014306532 -0.10064064 -0.5234123 0.40658033 -0.27997124 -0.040514786 0.4948277
-0.10672347 0.2213696 -0.00094440434 -0.064247206 2.5235202e-36 -0.5298531 -0.11300069 -1.6438764
0.20024481 -0.06381371 0.552069 0.02460648 -0.012297013 0.5254628 0.15964645 -0.23897721
-0.007551141 -0.09949068 -0.21077512 -0.528044 -0.32162243 -0.013182375 0.4389177 1.1101673
0.12186139 0.0567296 0.12590536 -9.417061e-05 0.02686112 0.68417835 0.86827 -2.9417473e-13
-0.3187407 -0.002601443 0.0008216341 0.23729447 -0.33032766 -0.0022469654 0.00324144 -0.011603586
-0.5609662 0.372197 0.090697885 -0.11537662 0.4786594 0.22637045 -0.24214296 0.042782165
-0.10592035 0.24575132 0.026331026 -0.0013217243 0.37830672 0.19182782 -0.013410056 -0.26861596
-0.0490189 0.00026738748 4.518121e-06 -0.114607655 -0.22415674 0.108874165 0.3855651 -0.004089732
-2.3126142e-05 0.0049279206 -0.00090298464 -0.27790493 0.0005700186 0.34719476 0.3068284 0.13652389
0.63091356 -0.0035813702 -0.0030206281 -0.035380986 0.0006103219 0.07969066 -0.16268837 -0.19490604
-0.0597693 0.74246705 0.44337836 0.6134698 0.6978358 -0.005089723 0.8498355 0.01954348
-0.00014480084 -0.00039350556 0.000113000264 0.00021927562 -2.56334e-40 0.44839886 -0.09771401 6.480392e-27
-0.12362791 -0.0380594 0.0847371 0.13857327 -0.14579651 0.16811755 0.49576148 0.0016991668
0.051910285 -0.19282258 -0.112626635 0.4337723 0.11353075 -0.12705703 0.14907767 -0.18123749
-0.08981857 0.00046690615 0.0023545574 0.3930162 -0.02118917 -0.042849477 0.03517122 0.00029127882
0.10498494 0.091046445 -0.009921802 -0.080284595 0.021439573 0.10035672 0.21978799 0.750215
0.006759799 -0.16269517 0.0411365 0.099436715 0.07205482 0.36157954 0.15024026 -0.14160286
0.012885155 -0.0066440003 -0.13271016 0.11847989 0.5280628 -0.034443658 -2.1265767 0.09059519
0.17079969 0.14383924 0.32640994 0.054364514 -0.5586194 -0.0368603 0.023812352 0.08117058
0.0006023195 0.24611984 0.007930278 -0.059215304 0.011391735 0.2252844 -0.041148424 -0.09908913
-0.10606657 0.0008609474 2.3182e-41 5.1963375e-06 -0.032418974 -0.020920979 -0.08530692 -0.08856628
-0.0205329 -0.08978807 -0.18643457 0.01129549 0.0068957647 -0.021047594 -0.0049248636 0.24294434
-1.1031e-41 0.000505297 0.0010753211 0.00042164788 -0.036095377 0.1489625 0.016555727 0.2516329
-0.21509466 -0.0051078936 -0.21476372 -0.04496258 -0.0039730724 -0.04067109 0.024769308 0.08703893
-0.7292535 0.024095356 -0.0058374787 -0.29789102 -0.27575383 0.2905743 0.12227345 -0.08400501
0.42853975 -0.0011254146 -0.0037855539 -0.18472587 0.10393986 0.08508259 -0.1831249 0.0040638032
0.00619691 0.030563306 0.10974274 0.033528768 0.01071409 0.043499503 0.5326895 0.008432518
-0.3687002 -0.0065933024 -0.0011852795 -0.003285651 -0.00012758079 0.089439474 0.18021567 3.1089896e-29

linear.weight f4 [2, 64]
00000000: e0a4 0dbc c0e2 953e b8d2 373d 7f30 d53d
00000010: 8f3f a93c 7cc1 443d 16e9 59bc d14d cd3d
00000020: cabd a9bc 027b 24bc 4644 153d 429c 143d
00000030: 1e60 1e3e 3120 953c 6c27 483b a2b4 fd3d
00000040: 0eb6 cb3d 4213 1cbf ebac 023f 37b9 b6bc
00000050: 67d4 063d b235 1abc 0733 47bf 988f 003d
00000060: 6efc 9abc 87cf 133d 2d00 11bf 5620 2f3d
00000070: 8379 793d 2bdb 0a3d 34dd 8c3d f4eb 43be
00000080: 2387 633c 8e28 873d 1674 43bf 0b84 2f3f
00000090: e118 38bd 79c6 b13d 0a60 4cbd 5626 053e
000000a0: 1912 b13d 234c ee3c 3933 4d39 4093 483d
000000b0: 1281 993d f213 453d 193c cd3e fb97 5cbf
000000c0: 2883 ac3d 92ad d43d 97f3 5dbc 9395 ec3d
000000d0: 5416 d93d b142 a3bd 81dc 8c3d 9c30 b63e
000000e0: 8518 993e 7017 963d 9077 a4bd d68a d73d
000000f0: d767 ef3d 767b 53be aad9 1cbd 78e9 063d
00000100: dc6a 2e3c b882 36be 9b7e d23d b395 0ebe
00000110: f3f0 d43c 0c3e 6dbd 4c41 12be 25b8 9eba
00000120: e4b7 b83c 0034 74bb 58e8 e43c d12d aa3c
00000130: 7354 6c3c 9365 83bd 5d03 e0bd 61c5 60be
00000140: 70a0 98bd c950 2d3f 2c41 02bf e25f 253c
00000150: 55c0 b6bb c30d 303c 084c 473f 9e83 a63c
00000160: dd67 46bd 6f8e 0cbe 4977 2c3f 2a08 54bd
00000170: 7bec 18bd b7e3 783c d869 bbbc 6232 403e
00000180: 8f5b 70bd 4d25 0ebe 9e98 4a3f 2b71 32bf
00000190: 609a 87bd b66e 87bc 1977 f2bc 3407 4dbd
000001a0: cf7f 0cbe 48f4 843c 6cd6 40bb cfd4 60bc
000001b0: cf3e 25bd 61e5 1f3d 913c f1be 48ea 603f
000001c0: 6e05 ba3c 39ff dcbd b6ca a23d c97a ffbd
000001d0: 3b27 febd cf37 90bd 31c1 8cbd 44a3 96be
000001e0: e14e 64be 46b7 1d3b 0f8c 8f3c 9964 68bd
000001f0: 9df3 a7bd 4aaa 2d3e 4014 41bd 8cd4 41bd
-0.008645266 0.2927456 0.04487869 0.104096405 0.02066019 0.048036084 -0.013300201 0.10024608
-0.020720381 -0.010039093 0.036442064 0.03628183 0.15466353 0.018203827 0.0030541075 0.123879686
0.099468336 -0.60966885 0.510451 -0.022305114 0.032917406 -0.009412216 -0.77812237 0.03138694
-0.018919196 0.036086585 -0.56640893 0.042755447 0.0609069 0.03390042 0.06878129 -0.19132978
0.0138872 0.06599532 -0.7634901 0.68560857 -0.0449456 0.08680434 -0.049896277 0.13002905
0.0864603 0.02908904 0.00019569405 0.048968554 0.07495321 0.048114724 0.40084913 -0.86169404
0.084234536 0.103846684 -0.013546846 0.115519665 0.10599962 -0.07971705 0.06877995 0.3558396
0.2990152 0.07328689 -0.08030617 0.10524528 0.11689728 -0.20652565 -0.038293518 0.032937497
0.010645594 -0.17823303 0.10278054 -0.13924293 0.0259938 -0.0579205 -0.14282721 -0.0012109323
0.022548623 -0.003726244 0.027942821 0.0207738 0.014424431 -0.06415858 -0.109381415 -0.21950294
-0.07452476 0.67701393 -0.50880694 0.010093661 -0.005577127 0.010745469 0.7785039 0.020326432
-0.048438895 -0.13726209 0.67369515 -0.0517656 -0.0373349 0.01519101 -0.022877619 0.1876922
-0.058681067 -0.13881417 0.79139125 -0.6970393 -0.066212416 -0.016532283 -0.029597806 -0.050055698
-0.1372063 0.016229764 -0.002942468 -0.0137226125 -0.040343102 0.039037112 -0.4711652 0.87857485
0.022707667 -0.10790867 0.0794882 -0.12474591 -0.12409826 -0.07041895 -0.06872786 -0.29421437
-0.22295715 0.0024065538 0.01752284 -0.056736562 -0.082007624 0.16959491 -0.047138453 -0.04732184

linear.bias f4 [2]
00000000: 86fd dd3d c0ff 27bd
0.108393714 -0.041015387
