SCG-SFFL-main/SCG/checkpoint/binnavi.pth (torch, 55195 bytes, 5 tensors)

sage.linear.weight f4 [64, 14]
0.2145987 0.32050887 0.7926555 0.03672214 0.06830711 0.45152858 -0.18553793 -0.06676735
-0.0063890056 -1.1028277 -0.10611747 0.2725996 0.14677018 -0.32238108 -2.5863412e-05 5.9778296e-07
-4.2182066e-08 -0.4897653 -0.114043504 -0.08743313 -0.016269239 -2.5975223e-07 1.606825e-11 -0.001786674
-4.313716e-28 -7.95719e-05 -0.00047271448 -9.2e-42 -0.5720299 -1.0828772 0.031921487 -0.3227799
0.4601069 -0.51824945 0.6478412 -0.19819096 -0.31638652 0.3763881 0.07922938 -0.38442346
-0.0952963 -0.43188828 0.50744116 0.048856504 0.35423043 -0.077653386 0.011548976 0.07715051
0.030903796 0.07361203 -0.0013503289 -0.59377635 0.0651202 0.08758967 0.08070739 -0.11653898
0.34845015 0.04240458 0.3282198 0.55531573 1.1241865 -0.13564508 0.3246751 -0.022033215
1.1764928 -0.67390496 0.14903302 0.47282887 0.07111794 -0.64220655 0.17735274 1.0689251
0.010778194 0.48276675 -0.7903849 0.5835807 -0.41934818 0.07469389 -0.27520284 0.24756947
-0.14439058 0.7777382 0.1896089 0.1085322 0.2244976 0.29131007 0.095811084 0.06954877
-0.22482857 0.18596509 0.52677494 -0.09519019 -0.15332703 -0.31164414 -0.12421262 1.1402177
-0.0013767496 -0.14984328 0.020434026 -0.7853614 1.1710862 -0.11970687 0.29402253 -0.16671838
0.17891277 -0.27481076 0.036588058 -0.9016896 0.05826181 -0.31282398 0.07894074 -0.17256142
-5.47326e-40 -0.024140596 -0.123574644 -0.00075648027 -3.296283e-39 -6.14858e-40 0.0012298701 -0.73816437
0.086925976 7.2090233e-12 7.9228e-41 5.1896773e-28 1.6288465e-09 0.02660393 -0.67118967 -0.17301276
-0.40897197 -0.24346209 0.10846611 -0.38812706 0.61729896 -0.43419427 -0.44099894 0.54843205
-0.25705054 1.0094091 0.27596453 0.42046082 0.07694586 0.5977289 0.10509137 0.018864505
-0.07982372 0.16801602 0.03649633 0.0027042592 0.031141277 -0.06933584 -0.008043119 -0.06566956
0.029557778 0.0041316063 -0.38522974 -0.16248971 0.48937538 0.03482335 -0.61705124 -0.12029471
-0.15802558 -0.09799603 -0.27150264 0.18673906 0.42839077 0.44552937 -0.12393685 0.16918786
0.010140824 0.020563414 -0.02383794 0.013682002 0.014092811 0.01498415 -0.053138435 -0.013451625
0.1981807 -0.03493183 0.008811439 -0.035613142 0.20805271 -0.015171281 -0.0030166039 0.0097444095
-0.0022991877 -0.001678981 4.9416504e-12 -5.928427e-05 -0.01804638 -0.002391344 0.00015510754 -0.37054738
-3.530111e-05 -1.639872e-36 8.035241e-05 -0.107134774 1.653262 0.3558738 -0.4180563 0.24545962
-0.52901566 0.21741131 -0.41694254 0.1440571 0.40381137 0.41138348 -0.576599 0.8663446
0.05160096 0.44324088 -0.28168723 -0.28464782 0.9701177 -0.030181123 0.1800776 -0.21321271
0.58436286 -0.10768842 0.05532979 0.78232336 0.07456533 -0.53329545 -0.18442033 -0.25142702
-0.3771148 -0.73605627 -0.42391607 -0.25169685 1.2465783 -0.2694883 0.77135277 -1.3163483
0.102758504 0.4950058 0.013335884 0.36548406 -0.23421267 -0.09511334 -0.2498573 -0.3101096
-0.2294295 -0.06962675 -0.54916286 -0.18640861 0.14777486 0.043394405 -0.6213342 0.37241232
-0.39922503 1.2685037 0.14509927 0.8062899 0.37595442 0.014169516 0.3119266 -0.28798392
00000000: c3bf 5b3e bd19 a43e 79eb 4a3f f469 163d
00000010: 99e4 8b3d c12e e73e a8fd 3dbe 52bd 88bd
00000020: dd5a d1bb 7529 8dbf 1e54 d9bd 2d92 8b3e
00000030: ec4a 163e 220f a5be 41f5 d8b7 5577 2035
00000040: ac2b 35b3 84c2 fabe a48f e9bd 2410 b3bd
00000050: 1147 85bc 1374 8bb4 7b56 8d2d d52e eaba
00000060: 06b5 0892 d7df a6b8 aad6 f7b9 a519 0080
00000070: 8d70 12bf b89b 8abf 1bc0 023d 6843 a5be
00000080: 2293 eb3e ffab 04bf ecd8 253f 92f2 4abe
00000090: 6afd a1be f1b5 c03e 0343 a23d 27d3 c4be
000000a0: b52a c3bd 7620 ddbe aae7 013f c21d 483d
000000b0: b15d b53e bd08 9fbd eb37 3d3c 1601 9e3d
000000c0: f529 fd3c e7c1 963d 85fd b0ba ba01 18bf
000000d0: bd5d 853d 3762 b33d eb49 a53d fdab eebd
000000e0: 0f68 b23e 6db0 2d3d 6d0c a83e 2c29 0e3f
000000f0: 58e5 8f3f 8be6 0abe d13b a63e 007f b4bc
00000100: 5197 963f 0985 2cbf 1d9c 183e a016 f23e
00000110: 48a6 913d a667 24bf f59b 353e 8ad2 883f
00000120: 0697 303c 342d f73e aa56 4abf 8b65 153f
00000130: ceb4 d6be 1cf9 983d 63e7 8cbe da82 7d3e
00000140: 20db 13be da19 473f d628 423e 2146 de3d
00000150: b3e2 653e 9826 953e 9a38 c43d 966f 8e3d
00000160: 7639 66be a26d 3e3e b9da 063f 13f3 c2bd
00000170: c301 1dbe d28f 9fbe 3063 febd a7f2 913f
00000180: 0d74 b4ba 8470 19be 4265 a73c 720d 49bf
00000190: 27e6 953f e028 f5bd 1f8a 963e 39b8 2abe
000001a0: e934 373e ffb3 8cbe 5cdd 153d 21d5 66bf
000001b0: f0a3 6e3d 772a a0be afab a13d f1b3 30be
000001c0: b9f5 0580 80c2 c5bc b414 fdbd 884e 46ba
000001d0: b2e4 2380 f9b1 0680 9833 a13a 57f8 3cbf
000001e0: 3f06 b23d 1ca5 fd2c dbdc 0000 aa77 2412
000001f0: f1dd df30 7cf0 d93c 16d3 2bbf 422a 31be
00000200: c664 d1be 204e 79be 7b23 de3d 97b8 c6be
00000210: 4e07 1e3f b64e debe 9dca e1be 0b66 0c3f
00000220: 219c 83be 5134 813f 394b 8d3e a446 d73e
00000230: cb95 9d3d c304 193f 253a d73d bc89 9a3c
00000240: 9e7a a3bd 640c 2c3e 2d7d 153d f139 313b
00000250: fe1b ff3c f3ff 8dbd 49c7 03bc c37d 86bd
00000260: 2723 f23c 6d62 873b d53c c5be b463 26be
00000270: 698f fa3e eea2 0e3d 12f7 1dbf 135d f6bd
00000280: 75d1 21be 24b2 c8bd 6502 8bbe 8638 3f3e
00000290: 0956 db3e 6d1c e43e 9ad2 fdbd 953f 2d3e
000002a0: b325 263c 9b74 a83c c947 c3bc 7a2a 603c
000002b0: 89e5 663c 1580 753c b0a7 59bd 3464 5cbc
000002c0: e2ef 4a3e ae14 0fbd db5d 103c 16df 11bd
000002d0: c50b 553e f790 78bc 37b2 45bb 04a7 1f3c
000002e0: f8ad 16bb 4111 dcba 6ede ad2c 00a8 78b8
000002f0: 00d6 93bc 18b8 1cbb 5da4 2239 63b8 bdbe
00000300: 4710 14b8 4081 0b84 df82 a838 7a69 dbbd
00000310: 179e d33f 1735 b63e 7a0b d6be c459 7b3e
00000320: 926d 07bf 12a1 5e3e 7e79 d5be b483 133e
00000330: 5dc0 ce3e dba0 d23e fe9b 13bf c2c8 5d3f
00000340: 875b 533d 78f0 e23e 4f39 90be 5cbd 91be
00000350: a259 783f 673e f7bc 4366 383e 6f54 5abe
00000360: ce98 153f bf8b dcbd 7da1 623d 5846 483f
00000370: b5b5 983d 0d86 08bf afd8 3cbe 0bbb 80be
00000380: 3115 c1be 2f6e 3cbf 870b d9be 69de 80be
00000390: e18f 9f3f 5ffa 89be 6077 453f 1a7e a8bf
000003a0: 0d73 d23d 6671 fd3e c07e 5a3c ba20 bb3e
000003b0: 72d5 6fbe c8ca c2bd 98da 7fbe afc6 9ebe
000003c0: 91ef 6abe 7898 8ebd f095 0cbf e6e1 3ebe
000003d0: 4b52 173e 55be 313d c20f 1fbf d4ac be3e
000003e0: 3967 ccbe 545e a23f e794 143e 0469 4e3f
000003f0: 197d c03e 4227 683c d8b4 9f3e a172 93be

weight f4 [64, 64]
-0.18729928 0.19881353 0.12207848 -0.10248577 0.06176049 -0.19675526 0.076332316 -0.16686538
0.046210326 0.08216889 -0.030569833 -0.06635658 0.08010464 -0.09137565 -0.033610124 -0.1261541
0.12655231 -0.15170477 -0.071881555 0.008154145 0.120259814 -0.18605225 0.024442151 0.0039678337
-0.112697996 -0.079301886 -0.1208995 -0.03178895 0.10339218 -0.047167707 0.032016303 -0.060818724
0.16375454 0.16386892 1.0427066e-05 -0.16241303 0.17302503 -0.20951568 -0.21234752 0.085793845
-0.17383654 -0.042210698 0.11102192 0.056554336 0.048710655 0.11283275 0.19127469 -0.12343857
-0.14522545 -0.041678917 0.07551208 0.1902814 -0.030984903 0.13175033 -0.19858186 -0.16125382
-0.08764537 0.11572615 0.019400252 0.14424182 -0.13791123 -0.011269077 0.10913581 0.115901865
-0.040682666 -0.117087714 -0.15925056 0.09872333 0.1322113 0.064900994 -0.11726379 0.037813958
-0.022172613 0.0061239135 0.07379949 0.053399533 0.16545522 0.13294263 -0.17554922 -0.05213662
-0.028163891 0.034144845 0.072471045 0.018351171 -0.1525516 -0.0326403 0.2112355 -0.1465028
-0.004993816 -0.17942987 0.07428427 0.16760078 0.08848013 -0.06486564 -0.1159358 -0.15398468
-0.14914732 -0.0028146107 -0.030559922 0.050721917 0.19690132 0.045808963 -0.17483482 0.11773943
0.1170779 -0.0906543 0.0208914 0.08872287 -0.21562836 0.21586545 0.048760183 0.117571205
-0.024981467 -0.02434854 -0.14579205 0.071339786 0.195678 -0.066607445 0.05432478 -0.07472306
0.043769054 0.10071815 -0.13189879 0.049292505 0.09812044 -0.08407728 0.040028058 0.052584853
-0.19671549 -0.19522208 -0.10933529 -0.077504426 -0.11921468 -0.170635 -0.112669446 0.122379705
0.111163825 0.12940295 -0.17913082 -0.14602442 -0.09292397 0.20934896 0.11660262 0.16171679
0.09758489 -0.0452841 -0.04676113 -0.21120624 -0.17639281 -0.20804957 -0.17939346 0.024392312
0.10406841 0.035918064 -0.07713058 0.15750092 -0.10455136 -0.17108421 -0.12726721 0.1795665
-0.04258158 -0.13118665 0.21171418 -0.03806963 0.09940516 -0.087316014 0.08896094 -0.20027943
-0.08420769 0.19041088 -0.015877556 -0.044591654 0.080846764 0.081581205 -0.17542171 -0.07657361
-0.07887303 -0.000467179 -0.07941129 0.15712312 -0.20757224 0.20735171 -0.1404987 0.10660015
0.10773827 0.014893695 -0.068205886 0.047881186 0.13773704 0.037742596 -0.0075402134 -0.07832006
-0.052589756 0.04929852 -0.1308072 0.1388071 -0.085417256 -0.12493408 -0.03328296 0.15073769
0.16523331 -0.055432037 -0.17506883 -0.21188594 -0.022532681 -0.1548632 -0.1361196 0.18252435
-0.17945974 -0.17344353 0.09742216 -0.10434638 0.023257956 0.13514587 0.09167256 0.11002518
0.09632381 -0.106415324 0.08245264 -0.11705537 -0.14540987 -0.0031685117 0.13714324 -0.16765831
0.11977911 -0.014315897 0.068847075 0.19819678 -0.21415506 0.14554402 -0.052185114 0.1873197
-0.08920579 0.167796 -0.018667543 -0.100178935 -0.04674923 -0.18599352 0.081335805 0.051907375
0.054385405 0.18557358 0.067476094 -0.015522777 0.08416353 -0.1658937 0.16226752 -0.015637062
0.15652277 -0.07762026 -0.041941993 -0.11770779 -0.06134023 0.027884012 0.012649502 -0.05307784
00000000: 62cb 3fbe c695 4b3e 4804 fa3d 0fe4 d1bd
00000010: 91f8 7c3d 367a 49be 1e54 9c3d c2de 2abe
00000020: 0a47 3d3d 2a48 a83d 966d fabc f5e5 87bd
00000030: e70d a43d 2823 bbbd c5aa 09bd 8a2e 01be
00000040: ee96 013e 7f58 1bbe a336 93bd f798 053c
00000050: c74a f63d 7b84 3ebe e83a c83c 9a04 823b
00000060: 35ce e6bd 0769 a2bd 289a f7bd 2135 02bd
00000070: 47bf d33d ed32 41bd 8723 033d 0e1d 79bd
00000080: 45af 273e 41cd 273e e8ef 2e37 9a4f 26be
00000090: 792d 313e 478b 56be a171 59be afb4 af3d
000000a0: 3502 32be 20e5 2cbd 765f e33d 85a5 673d
000000b0: d384 473d db14 e73d 83dd 433e 5ccd fcbd
000000c0: fbb5 14be 83b7 2abd 14a6 9a3d 21d9 423e
000000d0: 0dd4 fdbc 8fe9 063e 0b59 4bbe b91f 25be
000000e0: 6a7f b3bd d501 ed3d 47ed 9e3c 21b4 133e
000000f0: 9a38 0dbe efa1 38bc 9882 df3d f55d ed3d
00000100: dea2 26bd afcb efbd 9412 23be 752f ca3d
00000110: 6662 073e d0ea 843d ff27 f0bd cfe2 1a3d
00000120: 57a3 b5bc 1cab c83b 3024 973d 78b9 5a3d
00000130: 186d 293e 1d22 083e 2dc3 33be 358d 55bd
00000140: f6b7 e6bc 77db 0b3d b36b 943d 3255 963c
00000150: 7d36 1cbe d6b1 05bd 1e4e 583e d404 16be
00000160: 2aa3 a3bb 77bc 37be 5a22 983d 8a9f 2b3e
00000170: 1235 b53d 47d8 84bd c06f edbd 29ae 1dbe
00000180: 13ba 18be 5575 38bb cd58 fabc c9c1 4f3d
00000190: 80a0 493e 2ea2 3b3d e607 33be 5f21 f13d
000001a0: 8ac6 ef3d f6a8 b9bd 7124 ab3c 56b4 b53d
000001b0: aecd 5cbe d50b 5d3e c2b8 473d 2cc9 f03d
000001c0: efa5 ccbc 9776 c7bc 834a 15be 981a 923d
000001d0: d05f 483e 7c69 88bd a983 5e3d 6708 99bd
000001e0: 2e47 333d 5145 ce3d 7a10 07be f0e6 493d
000001f0: 5ff3 c83d b530 acbd 76f4 233d 3763 573d
00000200: c96f 49be 4ce8 47be 2eeb dfbd a4ba 9ebd
00000210: d326 f4bd f1ba 2ebe 3dbf e6bd 36a2 fa3d
00000220: dca9 e33d 3582 043e 126e 37be 6d87 15be
00000230: ec4e bebd 935f 563e 5bcd ee3d 1699 253e
00000240: 96da c73d d27b 39bd 9988 3fbd 7346 58be
00000250: 51a0 34be f20a 55be ebb2 37be 63d2 c73c
00000260: d221 d53d d21e 133d a3f6 9dbd ec47 213e
00000270: 061f d6bd b330 2fbe 5652 02be 48e0 373e
00000280: 066a 2ebd cb55 06be 9acb 583e e6ee 1bbd
00000290: ef94 cb3d bdd2 b2bd 2731 b63d 0d16 4dbe
000002a0: 1575 acbd 12fb 423e a611 82bc bda5 36bd
000002b0: fd92 a53d 0c14 a73d c0a1 33be a0d2 9cbd
000002c0: 2f88 a1bd b4ef f4b9 63a2 a2bd e2e4 203e
000002d0: d18d 54be 0254 543e e4de 0fbe 2e51 da3d
000002e0: e2a5 dc3d af04 743c 87af 8bbd 101f 443d
000002f0: f00a 0d3e fb97 1a3d e513 f7bb 4566 a0bd
00000300: 5b68 57bd 3fed 493d 53f2 05be 7323 0e3e
00000310: 3eef aebd 70dd ffbd b753 08bd fb5a 1a3e
00000320: ec32 293e b40c 63bd 3e45 33be a1f8 58be
00000330: 7596 b8bc 7594 1ebe f062 0bbe aae7 3a3e
00000340: 4bc4 37be 2e9b 31be 4585 c73d 8eb3 d5bd
00000350: 7887 be3c ae63 0a3e d3be bb3d e254 e13d
00000360: 6b45 c53d 47f0 d9bd eedc a83d baba efbd
00000370: 53e6 14be cea6 4fbb 476f 0c3e 9fae 2bbe
00000380: c04e f53d 398d 6abc b2ff 8c3d 19f4 4a3e
00000390: 774b 5bbe 7e09 153e 0fc0 55bd bcd0 3f3e
000003a0: 86b1 b6bd b7d2 2b3e adec 98bc 9d2a cdbd
000003b0: 1f7c 3fbd 1675 3ebe 6393 a63d d49c 543d
000003c0: 3bc3 5e3d 0007 3e3e e830 8a3d 3f53 7ebc
000003d0: ee5d ac3d 0ae0 29be 7529 263e 4c19 80bc
000003e0: 8147 203e 5ff7 9ebd 5ecb 2bbd c810 f1bd
000003f0: e53f 7bbd 036d e43c db3f 4f3c 2668 59bd

encoder.sage.linear.weight f4 [64, 128]
-0.09979489 -0.036942597 0.0009704395 0.026146462 0.009224012 -0.1619801 0.14221075 -5.6823737e-05
0.005151907 -0.0010680845 -4.0268734e-08 -2.2393871e-05 -0.004171021 -2.3232003e-06 -0.41922146 -0.008059428
-0.803069 9.594052e-08 2.6961582e-06 4.646513e-06 -0.15448675 4.2458465e-05 -0.0509981 1.0397866e-06
0.00022219757 -0.17913632 0.06954881 1.5806534e-06 6.7030196e-06 -0.029153623 0.12696326 1.1014621e-13
0.035626624 0.039597612 -8.479137e-13 -0.7302737 0.0015751963 -0.0007936835 8.03187e-07 9.95191e-06
-0.00021387459 2.9680468e-06 -9.007361e-07 0.0018663389 3.6727558e-06 2.4203293e-06 2.4975555e-09 1.2428568e-06
-0.00014952455 6.9544208e-06 -0.0047797468 5.4686216e-06 5.1419e-41 0.40010327 6.8153236e-07 0.041367196
8.622833e-07 -0.0010905388 0.36605445 -0.2347475 -3.8121217e-07 0.004284782 1.756701e-05 9.2148343e-07
1.358071e-06 4.109362e-25 0.06529283 9.634819e-09 2.4252327e-07 -0.006743586 -0.03473261 -0.20254849
-1.3781607e-13 1.6860494e-07 -0.00019715194 -0.01803534 -0.29304692 -0.00074371387 -0.0056788903 -0.06096742
0.10418262 4.910835e-06 -7.2740263e-06 -0.004949313 -0.016387567 -0.0007381617 4.3862677e-08 -0.12339761
7.863594e-06 7.224157e-06 -0.00032630222 0.2654041 -0.007814271 1.0761102e-07 0.0015219974 -5.659037e-05
0.19146828 0.054484177 0.050137494 -0.861458 -0.7127448 1.1427259e-06 1.01870256e-07 -0.017514143
-0.0583496 -0.003029854 0.039337967 0.043201376 1.4633936e-06 -0.00439995 0.5629346 0.014835243
4.6411213e-05 2.6569523e-07 0.16507223 0.01610223 -0.14985962 0.75512457 2.094435e-06 2.513523e-10
1.4781257e-07 -1.2121636e-05 -0.007233244 -0.04754912 -0.098524414 -0.19201778 -6.732405e-31 1.8757277e-06
0.059557054 3.0607702e-13 0.20836322 0.41848662 -0.008744068 0.38582906 0.016478375 -0.216916
-7.6252544e-19 -0.23391877 0.020984977 0.25871032 -0.014869752 -0.07285503 -0.08116172 0.3249321
-0.09254095 6.233317e-05 -0.23121265 -0.008814356 -0.13502264 0.0025171973 -0.05064208 -0.01595751
0.12562048 -0.18544826 0.0055747116 0.12552735 0.45220935 0.00066321203 0.5058639 0.081157945
0.04830991 -0.22034077 1.8482615e-06 -0.57067424 -0.72173697 -0.30396247 0.26403773 -0.07312851
5.988009e-08 0.09796219 0.022219516 1.1255e-41 0.06645394 -0.04953378 0.16356488 0.06696741
0.0014799896 0.93943316 -0.063983284 0.54560286 7.583015e-09 0.013024355 -0.10412463 0.1459201
-0.36163244 0.3743069 -0.10792606 -0.019617645 0.3936364 -0.21091588 -2.8746697e-06 -1.5646077
0.011633907 -1.5938245e-05 -0.10821677 -0.08448291 0.01328481 0.12116273 -0.014247859 0.025665661
-0.002266573 -0.7359433 0.0026383377 -0.048154883 -0.03845548 -0.45109072 0.07358383 0.084266655
-0.0054563144 -0.097532175 0.5407621 0.35436806 0.037578307 0.00013849614 0.009384812 -0.0012897437
0.50802535 0.010592036 -0.0002484956 0.78243786 -0.14144373 -0.07387187 -0.0011825198 0.0006500165
-0.020348618 0.010690691 0.018577741 0.025576195 -0.0745542 0.22719109 -0.07240874 0.08141874
0.24538918 -0.67501837 0.0033392403 -3.1692794e-05 0.29599002 -0.06758823 0.006164312 -0.0045713
-0.073473096 -0.46417755 0.072006255 -0.06717416 0.0003184926 -0.0002908773 0.04805721 0.05375045
-0.0064187283 -0.298791 0.02132454 0.5790065 -0.2828251 0.45051304 1.8082412e-08 0.042620584
00000000: 4361 ccbd 1f51 17bd 1865 7e3a 1b31 d63c
00000010: 4f20 173c 1dde 25be b29f 113e 0656 6eb8
00000020: 54d1 a83b f8fe 8bba f1f3 2cb3 79da bbb7
00000030: 0fad 88bb 47e8 1bb6 32a4 d6be b10b 04bc
00000040: ee95 4dbf dc07 ce33 a5ef 3436 3ee9 9b36
00000050: c631 1ebe 6e15 3238 62e3 50bd cc8e 8b35
00000060: b5fd 6839 836f 37be 9b6f 8e3d d626 d435
00000070: 80ea e036 94d3 eebc a802 023e f806 f829
00000080: 39ed 113d 1b31 223d 9faa 6eab 38f3 3abf
00000090: d176 ce3a 330f 50ba 979a 5735 21f7 2637
000000a0: 8643 60b9 a82e 4736 1dca 71b5 f19f f43a
000000b0: 7779 7636 f16c 2236 76a1 2b31 3cd0 a635
000000c0: b1c9 1cb9 055a e936 6c9f 9cbb 1a7f b736
000000d0: 568f 0000 56da cc3e 8cf2 3635 a670 293d
000000e0: a877 6735 69f0 8eba 7d6b bb3e a661 70be
000000f0: 67a9 ccb4 5b67 8c3b de5c 9337 dc5b 7735
00000100: f746 b635 715b fe16 3fb8 853d 6286 2532
00000110: 2534 8234 4df9 dcbb c843 0ebd df68 4fbe
00000120: c72a 1baa c609 3534 92ba 4eb9 d9be 93bc
00000130: 3f0a 96be cbf5 42ba fc15 babb f9b8 79bd
00000140: b35d d53d c0c7 a436 6913 f4b6 d92d a2bb
00000150: 383f 86bc 3181 41ba 8663 3c33 e3b7 fcbd
00000160: e1ed 0337 0967 f236 8b13 abb9 0ce3 873e
00000170: 6e07 00bc c917 e733 c27d c73a 725b 6db8
00000180: 4310 443e cd2a 5f3d f95c 4d3d 8388 5cbf
00000190: 7176 36bf c35f 9935 c4c3 da33 d279 8fbc
000001a0: fdff 6ebd 8490 46bb d920 213d edf3 303d
000001b0: d269 c435 752d 90bb 7b1c 103f 850f 733c
000001c0: a9a9 4238 e0a4 8e34 b208 293e d3e8 833c
000001d0: cd74 19be d84f 413f 1f8e 0c36 b12e 8a2f
000001e0: 69b6 1e34 085e 4bb7 d904 edbb dec2 42bd
000001f0: 2bc7 c9bd 4fa0 44be a27a 5a8d 83c1 fb35
00000200: 19f2 733d 594e ac2a 2b5d 553e e143 d63e
00000210: 4843 0fbc 638b c53e a8fd 863c 3a1f 5ebe
00000220: cb0e 61a1 6788 6fbe b0e8 ab3c ae75 843e
00000230: 43a0 73bc 0535 95bd 1e38 a6bd 805d a63e
00000240: 1c86 bdbd deb8 8238 02c3 6cbe 176a 10bc
00000250: 6043 0abe 90f7 243b 126e 4fbd 53b9 82bc
00000260: a8a2 003e 26e6 3dbe 12ac b63b 3e8a 003e
00000270: fc87 e73e 68db 2d3a 4c80 013f 2336 a63d
00000280: 9de0 453d 03a1 61be c811 f835 b517 12bf
00000290: c1c3 38bf f8a0 9bbe f42f 873e 66c4 95bd
000002a0: 6d97 8033 67a0 c83d b405 b63c 601f 0000
000002b0: 0119 883d efe3 4abd 8d7d 273e 3626 893d
000002c0: 36fc c13a b17e 703f ab09 83bd a1ac 0b3f
000002d0: 7446 0232 1b64 553c 4b3f d5bd 146c 153e
000002e0: e327 b9be 27a5 bf3e 5708 ddbd 2fb5 a0bc
000002f0: b68a c93e 55fa 57be 73ea 40b6 1145 c8bf
00000300: 259c 3e3c 1fb3 85b7 c1a0 ddbd 6005 adbd
00000310: 88a8 593c 2a24 f83d da6f 69bc cb40 d23c
00000320: c98a 14bb c866 3cbf f6e7 2c3b 0e3e 45bd
00000330: 7e83 1dbd 5df5 e6be 1eb3 963d ff93 ac3d
00000340: e2ca b2bb f3be c7bd 636f 0a3f bb6f b53e
00000350: b6eb 193d 4639 1139 c1c2 193c 9e0c a9ba
00000360: f30d 023f 388a 2d3c 8448 82b9 d94d 483f
00000370: a0d6 10be 234a 97bd c8fe 9aba de65 2a3a
00000380: 25b2 a6bc 0228 2f3c 5930 983c 2b85 d13c
00000390: dfaf 98bd c8a4 683e 094b 94bd debe a63d
000003a0: 4d47 7b3e 01ce 2cbf 28d7 5a3b e1ed 04b8
000003b0: 018c 973e b36b 8abd fffd c93b d8ca 95bb
000003c0: 1079 96bd aea8 edbe 0478 933d 9b92 89bd
000003d0: 5afb a639 e480 98b9 a3d7 443d 6f29 5c3d
000003e0: 3254 d2bb 22fb 98be cdb0 ae3c c539 143f
000003f0: 74ce 90be a5a9 e63e a553 9b32 ec92 2e3d

linear.weight f4 [2, 64]
0.00042568578 0.14942037 0.05164328 0.033621434 -0.06977279 0.00044998815 0.032753255 0.0012130099
0.15515414 0.091356896 -0.5072948 0.041787826 -0.3882585 0.0029943273 -0.027854819 -0.06574785
-0.17774218 0.10553884 -0.058994953 -0.24343713 -0.040435717 0.05087999 -6.146e-42 4.584668e-05
-0.009887773 -0.020651637 -0.0779865 0.06949175 0.987574 0.11940884 0.009139202 0.79211456
0.030514276 -0.045543298 0.113355674 0.06385432 0.0015724394 -0.12918039 0.17180146 0.08601515
-0.0010258551 0.15377152 0.1433311 0.1855428 7.118005e-07 0.17409387 0.030007975 0.15165402
-0.010957389 0.05205093 -0.0676371 0.7625148 0.38713387 -0.015544267 -0.032785885 0.031234663
0.011239977 0.20877536 0.043823667 0.42161518 0.22683772 0.098326735 0.0571746 0.19242953
-0.0004242516 -0.04679357 -0.04878925 -0.03792578 0.16847016 -0.00048343063 -0.026583266 0.03962909
-0.19222626 -0.056668747 0.4542768 -0.069875196 0.27989888 -0.0036745411 0.015332339 0.049205173
0.056545503 -0.083908536 0.009693296 0.2515948 -0.0186745 -0.06461565 1.6852e-41 -4.8516784e-05
0.07183875 0.011693965 -0.0040060044 -0.06987119 -0.9864069 0.10978901 -0.18537153 -0.79041225
0.022035837 -0.037886843 -0.08420855 0.041602798 -0.0015389022 0.13719466 -0.14940277 -0.024622003
0.0010696098 -0.105288744 -0.21184568 -0.08804598 -7.259062e-07 -0.14659281 -0.020899061 -0.14595051
-0.10029702 -0.023015736 0.024309622 -0.76173264 -0.33319026 0.038444716 0.08502958 0.025247209
0.034842446 -0.16284597 -0.028041048 -0.42631415 -0.20579074 -0.060843565 -0.041388117 -0.22445174
00000000: 942e df39 a701 193e e787 533d a1b6 093d
00000010: 09e5 8ebd 63ec eb39 4728 063d dcfd 9e3a
00000020: bae0 1e3e 5319 bb3d 12de 01bf b629 2b3d
00000030: d1c9 c6be 7a3c 443b ca2f e4bc cfa6 86bd
00000040: 0c02 36be bf24 d83d b1a4 71bd 9547 79be
00000050: ec9f 25bd 8967 503d 2211 0080 7f4b 4038
00000060: 5300 22bc 9f2d a9bc 63b7 9fbd b151 8e3d
00000070: a6d1 7c3f 9f8c f43d 97bc 153c 05c8 4a3f
00000080: 13f9 f93c 9c8b 3abd 0527 e83d 0ec6 823d
00000090: 501a ce3a dd47 04be b9ec 2f3e b628 b03d
000000a0: fc75 86ba 4876 1d3e 63c5 123e effe 3d3e
000000b0: 8f12 3f35 aa45 323e 49d3 f53c 314b 1b3e
000000c0: 9f86 33bc 5b33 553d 5285 8abd 2c34 433f
000000d0: 6936 c63e 62ad 7ebc 7e4a 06bd d6df ff3c
000000e0: e127 383c 35c9 553e 7280 333d f2dd d73e
000000f0: 2648 683e 875f c93d ea2f 6a3d 3f0c 453e
00000100: 166e deb9 9daa 3fbd 3dd7 47bd 1058 1bbd
00000110: 7183 2c3e f674 fdb9 26c5 d9bc 1d52 223d
00000120: f6d6 44be 7d1d 68bd f896 e83e ba1a 8fbd
00000130: e84e 8f3e 92d0 70bb 7e34 7b3c 5d8b 493d
00000140: 429c 673d 3dd8 abbd a1d0 1e3c 09d1 803e
00000150: 44fb 98bc 3655 84bd fa2e 0000 807e 4bb8
00000160: 3220 933d 0b98 3f3c cd44 83bb a018 8fbd
00000170: 2a85 7cbf 0fd9 e03d 09d2 3dbe 7558 4abf
00000180: 8084 b43c 3c2f 1bbd 8875 acbd b267 2a3d
00000190: fdb4 c9ba c27c 0c3e 0afd 18be 15b4 c9bc
000001a0: 2632 8c3a a0a1 d7bd 13ee 58be 7351 b4bd
000001b0: e5db 42b5 6d1c 16be 8234 abbc 0d74 15be
000001c0: 8668 cdbd 7f8b bcbc f924 c73c e900 43bf
000001d0: ea97 aabe 3578 1d3d fd23 ae3d 3cd3 ce3c
000001e0: f4b6 0e3d 18c1 26be 57b6 e5bc d945 dabe
000001f0: cfba 52be 1a37 79bd 9686 29bd add6 65be

linear.bias f4 [2]
0.0022718778 -0.13672063
00000000: c9e3 143b 7e00 0cbe
