SCG-SFFL-main/SCG/checkpoint/kafka.pth (torch, 55195 bytes, 5 tensors)

sage.linear.weight f4 [64, 14]
0.01141128 0.021254612 -0.0060402704 0.50760216 -0.6435 0.7257891 0.2579857 0.28133762
-0.091252975 -0.008541241 0.17163284 -0.16049293 -0.08883654 0.21514188 -0.006448378 0.19610721
-0.09285726 0.011656983 -0.05924324 0.051600605 -0.09098503 0.57557213 -0.07350544 0.01917514
-0.10900241 -0.024168303 -0.11323941 -0.33295834 -0.0025874304 0.0076776794 -1.1541511 -0.0028356803
0.2692004 2.8358601e-05 -0.03110887 -0.010680773 0.0021276863 -0.01911219 0.26715258 0.0028486904
-0.00068616937 -0.0012270076 -0.16595295 0.051615126 0.295546 -0.06646712 -0.09007191 -0.07882759
-0.07507564 -0.04989312 0.08877157 -0.39331582 0.005426572 0.06188542 -0.13789074 -0.06416401
-0.08073348 -0.18251432 0.2030674 -0.45900738 -0.0048477845 -0.17943057 -0.047903094 -0.23011288
-0.066696905 -0.075670205 -0.22339381 0.16344212 0.018280841 0.52330697 0.4180561 -0.13164592
-0.26210243 0.015724074 -0.08348973 0.0418247 -0.16562414 0.039201453 -0.16441964 0.3381666
-0.025368238 0.22445133 -0.011843043 0.24418676 -0.264406 -0.36222848 0.25440267 -0.07083296
0.26591924 0.1127833 0.047158115 -0.062204912 0.021669926 -0.1685152 0.015433132 -0.07134604
0.38810953 -0.08946217 -0.4194649 -0.12822449 0.042811397 -0.809252 -0.04946966 -0.20997429
-0.006384876 -0.0421415 -0.005450918 0.30029935 -0.07307233 -0.08318432 -0.10234772 0.094839275
-0.067061484 -0.103495196 -0.24140602 0.016631555 0.041226406 -0.0943003 0.12131371 0.1747117
0.005679622 1.0546257 0.028426833 -0.14626959 -0.030257776 -0.073481016 0.5154582 0.4397779
0.0048535634 0.10300261 -0.058756974 -0.019451512 0.0034648161 -0.15177624 -0.042656675 0.09662532
0.1055061 -0.15744121 -0.00032309516 -0.1516266 0.6581608 0.14402804 -0.32974413 0.029165462
-0.7074771 0.255178 -0.35579306 -0.029374845 -0.14609013 0.7211545 0.1662238 0.28827423
-0.16160844 0.21241546 -0.07396 -0.04953218 0.18524554 0.028653296 -0.011458162 0.12333018
-0.10065106 -0.028313147 -0.018435033 0.3214354 0.090997554 -0.29354718 -0.01400757 -0.09351525
0.8953644 -0.019074226 -0.25130013 -0.13751319 -0.12702417 0.012082282 0.421906 -0.05475888
-0.14565879 -0.31370524 0.007874876 0.36135504 -0.011216522 -0.2746607 -0.120026976 0.114397585
0.06259197 0.13057706 -0.34979552 -0.051778242 0.0066391802 -0.0122749 -0.018747319 0.10016348
0.033755373 -0.48066866 -0.24124484 0.0055072317 -0.0028596316 -9.082591e-05 -0.00811069 -0.00059272407
-0.09765749 0.10405428 -0.0030356843 9.57537e-05 0.00010798999 -0.0033664815 0.002949684 -0.0012686608
0.03331917 -0.022644086 -0.62126094 0.6445869 0.31086317 0.44013295 -0.8637344 1.4169245
-0.46346465 0.2854764 -1.3978275 -0.07782172 -0.044856198 0.19964828 0.21931647 0.2198194
0.20026554 0.1404375 0.70285994 0.08082892 -0.093314774 0.037337933 -0.056982905 0.00010695573
0.005292197 0.19464894 0.0755182 -0.107477024 0.029105313 -0.0369222 -0.7263531 0.9040883
-0.39807695 0.10583079 0.13767008 -0.49810818 -0.2572366 -0.35233733 0.5646621 0.42529577
0.19985019 0.46050534 0.0089531755 0.5133579 -0.37909308 -1.2196793e-24 -4.4726548e-08 -0.030450484
00000000: 61f6 3a3c 271e ae3c 76ed c5bb 37f2 013f
00000010: 6abc 24bf 51cd 393f b416 843e 7c0b 903e
00000020: d7e2 babd 90f0 0bbc 85c0 2f3e 4258 24be
00000030: efef b5bd 274e 5c3e ea4c d3bb 54d0 483e
00000040: f22b bebd eefc 3e3c 0aa9 72bd 285b 533d
00000050: 5c56 babd b258 133f 058a 96bd 2f15 9d3c
00000060: a83c dfbd 9bfc c5bc 10ea e7bd 8479 aabe
00000070: e191 29bb 0b95 fb3b 39bb 93bf d2d6 39bb
00000080: a3d4 893e a2e3 ed37 07d8 febc 69fe 2ebc
00000090: a770 0b3b 2b91 9cbc 39c8 883e 18b1 3a3b
000000a0: 0ce0 33ba 8bd3 a0ba 92ef 29be 626a 533d
000000b0: ce51 973e ea1f 88bd 9f77 b8bd 5c70 a1bd
000000c0: 42c1 99bd ba5c 4cbd decd b53d b160 c9be
000000d0: 63d1 b13b 917b 7d3d 3b33 0dbe 6c68 83bd
000000e0: 9857 a5bd 09e5 3abe e7f0 4f3e 0403 ebbe
000000f0: 2ada 9ebb a6bc 37be 0936 44bd b6a2 6bbe
00000100: 6398 88bd fbf8 9abd 59c1 64be 5f5d 273e
00000110: b4c1 953c 72f7 053f 730b d63e 30ce 06be
00000120: 4a32 86be c6cf 803c aafc aabd 6050 2b3d
00000130: 6099 29be b491 203d 9f5d 28be 2c24 ad3e
00000140: 0dd1 cfbc 92d6 653e 5309 42bc 180c 7a3e
00000150: 3960 87be 0376 b9be 1141 823e df10 91bd
00000160: 9126 883e eefa e63d de28 413d 94ca 7ebd
00000170: 2185 b13c 408f 2cbe 3fdb 7c3c df1d 92bd
00000180: 4bb6 c63e f137 b7bd 1ac4 d6be 484d 03be
00000190: 015b 2f3d 242b 4fbf b3a0 4abd 8003 57be
000001a0: 3938 d1bb 919c 2cbd 9d9d b2bb d6c0 993e
000001b0: f2a6 95bd 8a5c aabd ae9b d1bd 183b c23d
000001c0: 8857 89bd 4af5 d3bd 2433 77be e63e 883c
000001d0: 05dd 283d 8420 c1bd 5373 f83d a0e7 323e
000001e0: 1f1c ba3b fafd 863f 64df e83c b2c7 15be
000001f0: 28df f7bc 377d 96bd 12f5 033f 922a e13e
00000200: a40a 9f3b 08f3 d23d 27ab 70bd c758 9fbc
00000210: f811 633b 3b6b 1bbe c4b8 2ebd 7fe3 c53d
00000220: 9513 d83d 4538 21be 1965 a9b9 0144 1bbe
00000230: 3a7d 283f 167c 133e 39d4 a8be 68ec ee3c
00000240: 381d 35bf b1a6 823e 822a b6be 84a3 f0bc
00000250: a798 15be 959d 383f 9236 2a3e ae98 933e
00000260: af7c 25be 7083 593e 5778 97bd 41e2 4abd
00000270: 02b1 3d3e 51ba ea3c 04bb 3bbc 8994 fc3d
00000280: 2522 cebd f9f0 e7bc 1105 97bc 2e93 a43e
00000290: ed5c ba3d d14b 96be 0280 65bc ec84 bfbd
000002a0: 9a36 653f 8d41 9cbc 69aa 80be 42d0 0cbe
000002b0: a012 02be c4f4 453c 1004 d83e d94a 60bd
000002c0: 9427 15be f99d a0be a005 013c 8703 b93e
000002d0: 81c5 37bc 54a0 8cbe b4d0 f5bd 4849 ea3d
000002e0: 3830 803d feb5 053e 6618 b3be 6c15 54bd
000002f0: 7b8d d93b aa1c 49bc fa93 99bc 8322 cd3d
00000300: 1343 0a3d 341a f6be e308 77be 0276 b43b
00000310: a868 3bbb ca79 beb8 b3e2 04bc 0a61 1bba
00000320: a600 c8bd 691a d53d 55f2 46bb 60cf c838
00000330: af78 e238 30a0 5cbb 7c4f 413b 3149 a6ba
00000340: af79 083d 1780 b9bc f50a 1fbf a603 253f
00000350: 7529 9f3e 1b59 e13e b31d 5dbf c85d b53f
00000360: 3d4b edbe f629 923e 03ec b2bf fe60 9fbd
00000370: 22bb 37bd 9970 4c3e 7f94 603e 5618 613e
00000380: 6912 4d3e d9ce 0f3e a1ee 333f a289 a53d
00000390: d11b bfbd a9ef 183d e866 69bd 6c4d e038
000003a0: 2b6a ad3b 0d52 473e 49a9 9a3d ea1c dcbd
000003b0: 446e ee3c bc3b 17bd 47f2 39bf 5572 673f
000003c0: bed0 cbbe d0bd d83d 63f9 0c3e 0908 ffbe
000003d0: 84b4 83be 8f65 b4be b28d 103f 5ec0 d93e
000003e0: 87a5 4c3e 5bc7 eb3e 57b0 123c 6c6b 033f
000003f0: 7d18 c2be 7abc bc97 5c19 40b3 4b73 f9bc

weight f4 [64, 64]
0.015110443 -0.15618704 -0.17848152 0.021130886 -0.1523719 0.13650729 0.21035045 0.013425208
0.09189045 -0.023818024 -0.13825125 0.049980048 0.04770958 0.15627897 -0.0015869271 -0.12586883
0.14285053 -0.16786192 0.09775764 0.018580876 0.09346137 -0.15687628 0.1774191 -0.056030042
-0.10007022 0.17004293 -0.10423759 0.12531093 0.0432158 -0.19675341 -0.15005812 0.19446118
-0.1634946 -0.08532096 -0.033394355 -0.16239554 0.102670774 0.15441915 -0.16279638 0.06632597
-0.21452221 0.20034596 0.056279697 -0.1933622 -0.09463669 0.10003463 0.21108411 0.00046862432
0.19119798 0.1786902 -0.09509646 0.07001163 -0.1857171 -0.024541441 -0.18085004 0.020667218
0.12284257 0.12306469 -0.17536822 0.2032983 0.21330273 -0.06253439 -0.13254385 0.09211115
-0.1959945 -0.026280386 -0.19966751 -0.11439482 -0.026424894 -0.20309293 0.017083714 0.18082741
0.10008166 -0.10762151 -0.029581869 -0.13789906 0.07478124 0.12057977 -0.14921877 0.019522795
-0.09234663 0.034244988 0.04137333 0.1884509 0.18124083 0.19927119 0.10483235 -0.03345906
0.04163682 0.115237266 -0.025041604 -0.0029325862 -0.10875473 -0.12855846 0.13625945 -0.1963181
0.17153397 0.1865281 -0.08531995 -0.1329367 -0.0071348744 -0.1404039 0.13244799 0.054828193
0.08714051 0.08919381 0.15292032 0.02757724 0.18177503 0.156337 -0.071116306 -0.031185701
0.017118221 -0.08066574 0.05213455 -0.09222102 -0.14452517 0.18180025 0.05105277 0.12389679
0.12116255 -0.20080012 0.17300346 -0.17660259 -0.058123507 -0.14051901 -0.13622491 0.115605414
-0.054740854 -0.023657283 0.024702596 0.06214459 0.045891527 0.13033491 0.0694625 -0.010724288
-0.05590977 -0.19856134 0.019781718 -0.047410317 0.11578941 0.15297972 -0.076935045 -0.082849436
-0.1596975 0.08513952 -0.04744382 0.1615003 0.08092453 0.07572148 -0.079996526 0.107105836
-0.027161628 -0.1892099 0.12452146 0.10956329 0.09891063 -0.1577553 0.13631146 0.07691654
0.20784931 -0.10959194 -0.10733164 0.12467036 0.13252735 0.13525723 -0.09652851 0.20864262
0.1914873 0.1646185 -0.017225383 -0.06524876 -0.16737515 0.022453833 -0.1321868 -0.063834935
0.040263623 -0.09001268 0.1856773 -0.05220122 0.022952707 0.16687264 -0.085550226 0.03909517
0.03664587 -0.18548977 -0.12183458 -0.10712372 0.09729255 -0.10954956 -0.21152538 0.20357093
0.17325822 -0.17034674 -0.14686723 0.16387053 -0.1279024 0.16578011 0.016166752 -0.07337059
-0.013154982 0.013997277 0.14597386 -0.032771107 -0.13561645 -0.07959568 -0.041835114 -0.021506106
-0.039059605 0.1372349 -0.017011112 0.03284536 -0.20893563 -0.1407607 -0.19076133 0.035207424
-0.0712542 -0.18431129 0.20838818 -0.16607486 -0.20670578 0.027081309 0.038694892 -0.023877567
0.14561735 -0.18532984 -0.20512433 -0.09750235 0.021058207 -0.060663376 -0.18372993 -0.08969937
-0.12664641 0.08278636 -0.13721202 0.050260365 0.20235044 0.19364436 -0.09149236 -0.06415425
-0.18857387 0.017603235 -0.057574306 0.18093918 -0.18891102 -0.10668357 0.16395321 0.002832471
0.17819354 0.13315989 0.16860652 -0.20159854 -0.18550429 -0.13364561 0.13654813 0.0069267717
00000000: cb91 773c 7fef 1fbe dcc3 36be ae1a ad3c
00000010: 6107 1cbe 91c8 0b3e 1c66 573e 67f5 5b3c
00000020: 0f31 bc3d 041e c3bc bc91 0dbe e1b7 4c3d
00000030: 1f6b 433d 9807 203e 7000 d0ba c2e3 00be
00000040: 6947 123e ffe3 2bbe 2835 c83d ec36 983c
00000050: ad68 bf3d 2da4 20be 5aad 353e c27f 65bd
00000060: 9ef1 ccbd bc1f 2e3e 857a d5bd 8251 003e
00000070: 0d03 313d ba79 49be d6a8 19be d520 473e
00000080: 216b 27be c1bc aebd 85c8 08bd 044b 26be
00000090: 0e45 d23d 0e20 1e3e 18b4 26be e9d5 873d
000000a0: b6ab 5bbe 7e27 4d3e 8a85 663d be00 46be
000000b0: e2d0 c1bd f5de cc3d 6f26 583e b1b1 f539
000000c0: 67c9 433e 90fa 363e efc1 c2bd 4262 8f3d
000000d0: a02c 3ebe 220b c9bc c130 39be 4c4e a93c
000000e0: e394 fb3d 5709 fc3d ba93 33be 6e2d 503e
000000f0: 086c 5a3e 0812 80bd 93b9 07be c5a4 bc3d
00000100: c8b2 48be f749 d7bc a475 4cbe d547 eabd
00000110: 0579 d8bc 98f7 4fbe 25f3 8b3c d22a 393e
00000120: 9df7 cc3d ab68 dcbd ad55 f2bc 6935 0dbe
00000130: e826 993d 87f2 f63d cecc 18be 45ee 9f3c
00000140: 3b20 bdbd 7944 0c3d 1577 293d 46f9 403e
00000150: 3297 393e bf0d 4c3e 58b2 d63d 5e0c 09bd
00000160: 5f8b 2a3d 8401 ec3d 0d24 cdbc a230 40bb
00000170: cdba debd d4a4 03be 9987 0b3e 9d07 49be
00000180: 9aa6 2f3e 3901 3f3e 3abc aebd 8f20 08be
00000190: aacb e9bb 0ac6 0fbe 72a0 073e 8793 603d
000001a0: b976 b23d 3fab b63d 2597 1c3e aae9 e13c
000001b0: 3c23 3a3e ce16 203e 6da5 91bd 2879 ffbc
000001c0: 833b 8c3c 1434 a5bd 0a8b 553d 60de bcbd
000001d0: 68fe 13be d829 3a3e b61c 513d 9abd fd3d
000001e0: 1224 f83d 8c9e 4dbe d227 313e 4fd7 34be
000001f0: ea12 6ebd 37e4 0fbe 8b7e 0bbe 88c2 ec3d
00000200: f237 60bd ebcc c1bc 195d ca3c 538b 7e3d
00000210: c1f8 3b3d 8476 053e 5b42 8e3d edb4 2fbc
00000220: a501 65bd aa53 4bbe 450d a23c 5231 42bd
00000230: 0023 ed3d b7a6 1c3e 1f90 9dbd f7ac a9bd
00000240: be87 23be a15d ae3d 7354 42bd 5660 253e
00000250: c3bb a53d dd13 9b3d 38d5 a3bd 4e5a db3d
00000260: 1082 debc 3dc0 41be 1b05 ff3d b862 e03d
00000270: a891 ca3d 9b8a 21be 3b95 0b3e 6b86 9d3d
00000280: 73d6 543e bd71 e0bd b1d0 dbbd 2c53 ff3d
00000290: 40b5 073e df80 0a3e bdb0 c5bd 69a6 553e
000002a0: 3f15 443e c191 283e 3f1c 8dbc 24a1 85bd
000002b0: 6464 2bbe 1af1 b73c fa5b 07be e4bb 82bd
000002c0: 78eb 243d 9158 b8bd 3122 3e3e f2d0 55bd
000002d0: 5107 bc3c a9e0 2a3e f534 afbd 4222 203d
000002e0: fb19 163d 08f1 3dbe 6984 f9bd ae63 dbbd
000002f0: 5141 c73d 855b e0bd 1c9a 58be e674 503e
00000300: 9a6a 313e 606f 2ebe 5d64 16be adcd 273e
00000310: d9f8 02be 43c2 293e 2370 843c 5243 96bd
00000320: fe87 57bc d654 653c 2c7a 153e ff3a 06bd
00000330: 0adf 0abe 0f03 a3bd 4c5b 2bbd 932d b0bc
00000340: f7fc 1fbd 4e87 0c3e e35a 8bbc db88 063d
00000350: 39f3 55be 9323 10be f056 43be a935 103d
00000360: b9ed 91bd 19bc 3cbe b663 553e 870f 2abe
00000370: aeaa 53be 9fd9 dd3c 897e 1e3d e39a c3bc
00000380: b71c 153e 1bc7 3dbe 1d0c 52be 50af c7bd
00000390: 4382 ac3c 297a 78bd b323 3cbe 4eb4 b7bd
000003a0: 99af 01be e58b a93d 4f81 0cbe d0dd 4d3d
000003b0: f434 4f3e b54a 463e 5960 bbbd 4e63 83bd
000003c0: 8219 41be a934 903c 09d3 6bbd 1f48 393e
000003d0: e471 41be ea7c dabd 5ae3 273e faa0 393b
000003e0: 5e78 363e 115b 083e 30a7 2c3e d96f 4ebe
000003f0: d6f4 3dbe 65da 08be 46d3 0b3e f9f9 e23b

encoder.sage.linear.weight f4 [64, 128]
0.059378207 -0.27548593 -0.0014326257 -0.009654442 0.19735533 -0.010254236 -0.04740903 0.009791216
0.45588407 -0.008714443 -0.014140725 0.02207793 -0.49348256 0.000101322235 1.0189102e-06 -0.024726007
0.0006042467 -0.3209581 0.35438567 0.1360102 -0.008360377 0.1622327 -0.00064894214 -0.008020155
0.0076455106 1.1722499 1.05785e-40 0.1663471 1.1194655 5.7685173e-07 -0.070724174 -0.066693544
-0.99432003 0.0033481503 -0.0033195962 0.6552872 -0.09176887 1.0948458 -0.012336302 -0.12554473
0.06781007 -0.010974968 0.00012211685 0.0010898715 0.3360245 -0.021071002 -1.4900528 -0.26303163
0.012773718 -0.0013526204 0.07469456 -0.011981013 -0.0059895553 0.0025765633 -0.011860024 0.4685228
-0.004071717 0.024224292 0.002209838 -0.011601959 -1.1378374 -0.022953441 -0.021590507 -0.22161573
0.0023205897 -0.07577581 -0.0013598826 -0.006012329 0.0020399685 0.007719521 -0.0044276426 0.1266992
0.0039629587 -0.16495614 0.013059893 -0.00055427226 -0.017220736 -0.001208679 -7.153451e-06 0.012184027
0.3088542 0.15152308 -0.00012012935 -0.00033460645 -0.0065431953 -0.15061341 -0.0018843003 -0.01574709
0.0033873606 -0.003981116 -0.00043295903 -0.01185358 -0.0014930377 0.22551307 -0.0029244765 -0.00661796
-5.0135804e-05 0.003724407 -0.0047941147 -6.0323675e-09 -0.008796499 0.07279485 0.010887828 0.10903418
0.6701279 0.5914018 -0.0057668067 0.028871706 -0.015118566 -0.10938096 0.124759346 -0.0024526373
0.5480511 0.22333805 -0.004017217 0.32335752 0.0048608114 0.6949607 -0.018360937 -0.0042351536
-0.0021651683 0.0024977142 -0.0030230836 0.010731882 -0.058157638 0.41781884 -0.005162801 0.00015050272
0.02432125 -0.017848331 -0.13788109 0.010304319 -0.010874144 0.05649483 -0.047073577 0.1716696
-0.0918797 0.013062436 0.028736807 -0.0037875092 -0.014175874 -0.7849648 -2.015367e-06 0.057477053
0.12698746 -0.2733881 -0.0015606929 0.0014362034 -0.00632449 0.038586866 0.002120548 0.025922395
0.017186344 0.00817049 0.07761813 -0.0035039603 -0.12858877 7.302968e-05 -0.29959732 0.017638678
0.031854313 0.007321731 -0.0019812556 -0.34719992 0.025147416 0.36142662 -0.23855877 -0.7842692
-0.0039845067 -0.8919998 -0.002461127 -0.38268518 -0.014474102 0.0074900636 -0.063656814 -0.67589206
-0.17142266 -0.0025321227 -0.00786207 0.08154211 0.004689987 -0.014898973 -0.0056168837 0.12728438
-0.0059910845 -0.007523047 -0.010751588 0.023020448 -0.12006983 0.038394842 0.023636565 0.007826185
0.0020624914 0.164978 0.0020380318 0.83243537 -0.0017028239 -0.016011216 0.0060836724 -0.0084090065
0.17338215 0.0003916393 -0.0187846 -0.05332863 -0.27052322 0.38196847 1.6713842e-05 -0.022303678
0.032801323 -0.0022608766 -1.9906452e-07 0.000577589 0.45456794 -0.017397782 0.003777714 0.61035895
-0.03349569 0.0061187963 -0.015312642 -0.024913482 0.0024041065 0.00012380918 0.009182272 -0.013104384
0.002343306 -0.0065929303 0.0038000096 0.012508842 0.016632184 -0.011140628 -0.28449073 0.0033774995
-0.0077461977 0.0018179514 -0.21966664 -0.03244524 0.8506505 -0.043903943 0.0078632785 -0.011382322
0.009193211 0.013344862 0.6078638 0.0015801622 -0.007968629 0.008958132 0.8795087 0.003377847
0.3131116 0.00020899925 0.027771732 -0.09664415 -0.013379629 -0.01665851 0.017248414 -0.0011426823
00000000: 9036 733d 7e0c 8dbe f1c6 bbba aa2d 1ebc
00000010: 8417 4a3e 6201 28bc f92f 42bd 566b 203c
00000020: a369 e93e 06c7 0ebc 80ae 67bc c6dc b43c
00000030: bfa9 fcbe f67c d438 7dc1 8835 328e cabc
00000040: 4f66 1e3a 9f54 a4be 0a72 b53e 4246 0b3e
00000050: f6f9 08bc 5420 263e c51d 2aba f866 03bc
00000060: 3187 fa3b 490c 963f e326 0100 e556 2a3e
00000070: a54a 8f3f f3d8 1a35 d6d7 90bd a096 88bd
00000080: c28b 7ebf a46c 5b3b 958d 59bb e7c0 273f
00000090: 51f1 bbbd e823 8c3f 331e 4abc cc8e 00be
000000a0: 02e0 8a3d 5ad0 33bc 7e0c 0039 05da 8e3a
000000b0: 670b ac3e 189d acbc 0dba bebf 15ac 86be
000000c0: db48 513c 694a b1ba 76f9 983d 034c 44bc
000000d0: 0844 c4bb 8fdb 283b 8c50 42bc 38e2 ef3e
000000e0: 0a6c 85bb 0672 c63c eed2 103b 2516 3ebc
000000f0: a8a4 91bf db08 bcbc 93de b0bc 3cef 62be
00000100: 0915 183b 5930 9bbd 173e b2ba 1203 c5bb
00000110: feb0 053b 09f4 fc3b c215 91bb 6fbd 013e
00000120: b5db 813b 43ea 28be 29f9 553c 954c 11ba
00000130: 8012 8dbc 8a6c 9eba ad07 f0b6 839f 473c
00000140: 2322 9e3e de28 1b3e f4ed fbb8 1e6e afb9
00000150: 4d68 d6bb 673a 1abe a0fa f6ba 0b00 81bc
00000160: 7bfe 5d3b 0674 82bb c7fe e2b9 8535 42bc
00000170: 08b2 c3ba e6ec 663e 93a8 3fbb 79db d8bb
00000180: e948 52b8 2e15 743b f317 9dbb 4445 cfb1
00000190: 311f 10bc 7715 953d dc62 323c 504d df3d
000001a0: 818d 2b3f 1c66 173f 7bf7 bcbb 5b84 ec3c
000001b0: ddb3 77bc 2003 e0bd d481 ff3d 6dbc 20bb
000001c0: 144d 0c3f bbb2 643e dca2 83bb 1e8f a53e
000001d0: 7147 9f3b f2e8 313f ad69 96bc 0bc7 8abb
000001e0: 7fe5 0dbb b1b0 233b ed1e 46bb c7d4 2f3c
000001f0: b436 6ebd 5aec d53e b72c a9bb 44d0 1d39
00000200: 5c3d c73c aa36 92bc b330 0dbe 72d3 283c
00000210: 7729 32bc 1f67 673d 39d0 40bd 28ca 2f3e
00000220: 6d2b bcbd d403 563c 7469 eb3c dc37 78bb
00000230: ed41 68bc 74f3 48bf be3f 07b6 0f6d 6b3d
00000240: 0009 023e 86f9 8bbe 2a90 ccba fd3e bc3a
00000250: ab3d cfbb 430d 1e3d e4f8 0a3b 345b d43c
00000260: 60ca 8c3c 85dd 053c 41f6 9e3d b3a2 65bb
00000270: c6ac 03be 8327 9938 d264 99be fd7e 903c
00000280: ab79 023d 22eb ef3b f4d7 01bb 30c4 b1be
00000290: f401 ce3c e90c b93e c048 74be dec5 48bf
000002a0: 7790 82bb 195a 64bf dc4a 21bb 50ef c3be
000002b0: c924 6dbc 356f f53b 815e 82bd 4307 2dbf
000002c0: 6c89 2fbe f8f1 25bb e9cf 00bc 8dff a63d
000002d0: 76ae 993b d21a 74bc d60d b8bb d656 023e
000002e0: dc50 c4bb e483 f6bb 6e27 30bc 6195 bc3c
000002f0: 2ce7 f5bd e943 1d3d 78a1 c13c 6639 003c
00000300: dd2a 073b feef 283e 8090 053b 7c1a 553f
00000310: 4a31 dfba f429 83bc 8b59 c73b eec5 09bc
00000320: 178b 313e f054 cd39 29e2 99bc 1f6f 5abd
00000330: 0582 8abe 5f91 c33e b434 8c37 34b6 b6bc
00000340: ae5a 063d 372b 14bb 70be 55b4 5769 173a
00000350: 21bd e83e cb85 8ebc 8693 773b 7c40 1c3f
00000360: c732 09bd 2f80 c83b e0e1 7abc 5c17 ccbc
00000370: 378e 1d3b c6d2 0139 3d71 163c c5b3 56bc
00000380: 2792 193b 8209 d8bb 9509 793b e3f1 4c3c
00000390: 3840 883c 2e87 36bc c5a8 91be 0a59 5d3b
000003a0: d1d3 fdbb 5448 ee3a 4bf0 60be 4de5 04bd
000003b0: 3bc4 593f 9fd4 33bd fbd4 003c eb7c 3abc
000003c0: 1f9f 163c 68a4 5a3c f69c 1b3f 721d cf3a
000003d0: da8e 02bc 21c5 123c 7b27 613f de5e 5d3b
000003e0: 2a50 a03e cf26 5b39 8b81 e33c 5eed c5bd
000003f0: 3b36 5bbc 6d77 88bc 8c4c 8d3c 0ec6 95ba

linear.weight f4 [2, 64]
-0.09064248 0.1114674 0.47236124 0.20581348 -0.10334164 0.45680282 0.54268724 -0.056101568
-0.3091657 0.021244919 0.29914683 -0.4215152 -0.16342121 -0.23853284 0.0042584557 0.0025427295
-0.23215558 0.45806554 -0.01503014 0.5845806 0.14293341 -1.5338512e-05 -0.2836961 0.5629355
0.011885152 0.24587944 -0.30289 -0.0029362848 0.11906222 -0.14554071 0.19646643 0.105227344
-0.55300736 0.05244501 0.5586354 -0.19876093 0.066080466 0.20026281 0.56578624 -0.80449265
0.10055324 0.8614826 0.20614074 0.09344611 -0.34071127 0.122294515 0.007993112 0.20875269
0.29521924 -0.043041363 -0.026811283 -0.18421584 0.12687951 -0.0013325334 -0.09594406 1.0560731
0.7388023 -0.05783599 -0.22948168 -0.4113478 0.23123871 -0.11147973 -0.8703132 0.18255202
-0.009856652 -0.010041549 -0.43900433 -0.21137676 0.18564288 -0.47593898 -0.493532 0.14207168
0.23396437 -0.00800052 -0.25048116 0.3989296 0.17934081 0.2686899 0.024025599 -0.002897075
0.17855185 -0.43468267 0.048763983 -0.509102 -0.15601684 1.4619342e-05 0.23665248 -0.5894854
-0.023977436 -0.18893105 0.29331523 -0.013097852 -0.17553312 0.06441012 -0.09984804 -0.13082555
0.60848194 -0.10559124 -0.54293656 0.16626064 -0.0139948465 -0.23765141 -0.55674213 0.80631053
-0.15567961 -0.9011634 -0.12725309 -0.16226788 0.29834965 -0.058498617 -0.0094862515 -0.20794629
-0.32599044 0.18373676 0.014805965 0.33577687 -0.18522294 0.0013488958 0.09667947 -1.0654753
-0.75978255 0.021972705 0.19488847 0.36286286 -0.20124762 0.060884546 0.8471643 -0.14042233
00000000: c4a2 b9bd 0549 e43d 55d9 f13e c5c0 523e
00000010: c8a4 d3bd 0fe2 e93e 8ded 0a3f c2ca 65bd
00000020: f74a 9ebe d309 ae3c c629 993e d7d0 d7be
00000030: e457 27be f441 74be 848a 8b3b eca3 263b
00000040: 31ba 6dbe 9187 ea3e fa40 76bc 13a7 153f
00000050: 235d 123e 34ab 80b7 9d40 91be 8a1c 103f
00000060: f1b9 423c d2c7 7b3e 6614 9bbe af6e 40bb
00000070: e5d6 f33d a008 15be 7f2e 493e 6f81 d73d
00000080: e491 0dbf 94d0 563d bb02 0f3f fc87 4bbe
00000090: 3255 873d b211 4d3e 5ed7 103f 3bf3 4dbf
000000a0: dbee cd3d 208a 5c3f 8f16 533e ad60 bf3d
000000b0: b571 aebe 8c75 fa3d 8bf5 023c 44c3 553e
000000c0: fa26 973e 244c 30bd 56a3 dbbc 14a3 3cbe
000000d0: b4ec 013e 67a8 aeba 527e c4bd 672d 873f
000000e0: 2622 3d3f 6ee5 6cbd 3ffd 6abe 2e9c d2be
000000f0: d7c9 6c3e 7c4f e4bd d9cc 5ebf ebee 3a3e
00000100: cb7d 21bc 4f85 24bc 2dc5 e0be 2673 58be
00000110: 2b19 3e3e 46ae f3be 3ab0 fcbe 3d7b 113e
00000120: 5b94 6f3e 9d14 03bc 113f 80be 8040 cc3e
00000130: 1ea5 373e b991 893e 55d1 c43c dadc 3dbb
00000140: 4cd6 363e ba8e debe bebc 473d 8254 02bf
00000150: e1c2 1fbe 9945 7537 0755 723e 84e8 16bf
00000160: 546c c4bc 2477 41be 6a2d 963e 5f98 56bc
00000170: f4be 33be 74e9 833d 217d ccbd 22f7 05be
00000180: 79c5 1b3f 3840 d8bd e4fd 0abf 3b40 2a3e
00000190: a44a 65bc e45a 73be a786 0ebf 5e6a 4e3f
000001a0: 7a6a 1fbe a5b2 66bf a24e 02be 8d29 26be
000001b0: 49c1 983e 3f9c 6fbd 396c 1bbc dfef 54be
000001c0: 38e8 a6be 7d25 3c3e b894 723c f2ea ab3e
000001d0: 15ab 3dbe 6fcd b03a e3ff c53d 7f61 88bf
000001e0: 1c81 42bf 1a00 b43c d890 473e 29c9 b93e
000001f0: db13 4ebe 1362 793d c2df 583f dfca 0fbe

linear.bias f4 [2]
0.21903993 -0.21296792
00000000: 014c 603e 4314 5abe
