SCG-SFFL-main/SCG/checkpoint/realm-java_feature8.pth (torch, 55707 bytes, 5 tensors)

sage.linear.weight f4 [64, 16]
00000000: bdb8 52bf 1c96 2abd 5675 20bf ef0d 0ebf
00000010: 1707 923c eecc 053f 0b4f ac3f 40ad 8ebf
00000020: e891 b7be 0688 813e bfeb 4d3e cbea 793f
00000030: ae6a eabd ef40 d13d db9c 413d 6586 ecbe
00000040: 25a0 2d3e bab5 33bf 5fbb 743d 6160 be3f
00000050: 3dff 19bf afc7 063f 035c b4bf 61b8 cabd
00000060: dc7d 01bf de4d 5d3f 42a2 693d a6f0 1fbf
00000070: 43b8 943d 4037 6a3f 7ddb 373d 9450 09bf
00000080: a5d8 b7bf 7aee de3d c8dc 0340 118b aa3c
00000090: 5802 d53f d80b 61be d342 143f 6f2b f93e
000000a0: 9a09 14bf 25a4 e23e 80d3 92bd ed0c a4bf
000000b0: dec0 753f 88d9 303e c23e dd3e e37d 87be
000000c0: d348 313e 5bca 763f b06b f1bf a216 7a3f
000000d0: 01ad 8a3f 07ce 2d3e 22cb 1ebf 4854 6c3f
000000e0: d4dc 7f3f 80d4 783f a6b5 27bf 77cf bcbf
000000f0: 022e 2c3f 079a 453f 2d57 42bf ba0e c0be
00000100: d737 92bf 1f29 c33d ad40 a63f e176 febc
00000110: 7f55 21bf 2453 3f3d 7c3d 8abc edab 9b3e
00000120: 7d96 84bd cc7a 4cbc df9d a3be 9ae2 c5bd
00000130: 3be6 003d 04ff a5be 76ef c83c 9126 29bf
00000140: d962 e13f dce5 00be da47 983e f2a5 373f
00000150: 889d d5be 6f66 03bf 2164 0cbe 04af 4e3f
00000160: 1025 82be 06d9 92bf da05 f5be a77d 533f
00000170: c7a8 8a3f 73dc 283e 7c1e 473f 2f23 0dbe
00000180: f1ec bbbd 7b5b 893f 7aec 143f 3214 c83e
00000190: cbdf bfbf b9be 87bf 70af 96be 8e45 a23f
000001a0: e68f eabf 26af 293f 9f10 2dbf cce2 44be
000001b0: 4b18 95be 399c 9a3f 9537 09bf 3d7f 323e
000001c0: d8ae 1d3f e3ba 003f cfac 61be 1a35 da3f
000001d0: cf61 023f 24ab 3bbe 85da c63e d45f c03e
000001e0: 3ca9 0abf b2b2 19bf 9142 723f 54f0 f83e
000001f0: b305 813e 954f 783f 6686 a33f 0de3 7f3e
00000200: e4f8 54bd 62fc b9bd 5086 2bbf c807 103f
00000210: 61d3 f93e 6c40 383f 108a 093f 3fce 34be
00000220: 2946 b33e a7bc 53bf 2386 993e a690 2e40
00000230: abdf fdbe 1645 a53f 93f7 163f cbca 85be
00000240: f59f f4be b800 083f 52e1 85be 18b2 8fbe
00000250: 3ae8 2f3f ea90 8cbe c113 d4bd 12db 8dbf
00000260: 9e77 cd3f 564b 54bf 8ec3 d4bd 44fe f8bc
00000270: 7a4d a4ba 490f c5bd 1caa 583d fd8d a0bf
00000280: a81e 38bd 6eb3 c6bc d2cb ce3e e3ee 583f
00000290: 822f 5e3f 476d 65be 27d6 683d ae30 dd3f
000002a0: 0f43 cd3e 794d 04be 9c9e 04c0 688f a2be
000002b0: 7c4f 903e 910d ff3e 6c65 f13d 81c4 d53b
000002c0: da65 96bf a08d c23e 77a1 bbbe a6a3 4e3f
000002d0: df86 9bbe 336e 7fbf 1492 8c3e eca9 343f
000002e0: 4475 8b3f 2b61 a3be 723c 23bd 74bd 3fbe
000002f0: fdb2 e5bd cc1c 1fbe 899d 90bf 2b01 90be
00000300: 89a3 8fbf 1620 c43e 6acd 5c3e 9492 243f
00000310: 2795 04bf 682a 3dbf 688b 4a3e dfcc 1d3d
00000320: a388 7fbe 8555 573f a400 5abf 96e8 56bf
00000330: c770 473e 045d 80bf 326d cc3e 2504 743e
00000340: 2896 803f 93ad 8dbe abf5 39be 441e cbbe
00000350: 28bd c437 51ce 3ebe 0d69 acbf 66d2 5f3e
00000360: c3c1 14be fcdd 1cbf e694 9eba 26a9 e2bd
00000370: 6223 07bf 0be1 cbbe 2b10 c63d d410 c13d
00000380: 5615 6cbf 63f7 f7bd 329d 0cbf 66ec d03f
00000390: be96 a23d 3f3c 1e3d 67e8 8f3e bfd1 b43d
000003a0: 2f28 6d3e 2038 b7be 08a6 bbbe 3cdb cbbe
000003b0: 2f00 a03e 519e a63d 44a6 5a3e 3a6e 373f
000003c0: a5aa 97be 9226 b73f 3bdb 493f a6a6 0ebf
000003d0: 265b 13bf 2a5b 0f3f b322 b5bf 49a3 303c
000003e0: b88c 823e a4c3 06bf 8ba1 84be e889 bf3f
000003f0: 059b 393e ad3d 5fbf 2395 373f 8a99 6c3d
-0.8231314 -0.04164706 -0.6267904 -0.5549001 0.017825646 0.5226582 1.3461622 -1.1146622
-0.35853505 0.2529909 0.20109461 0.9762389 -0.11446129 0.10217463 0.04726873 -0.46196285
0.16955622 -0.7019917 0.059749003 1.4873163 -0.6015509 0.52648443 -1.409058 -0.09898449
-0.5058267 0.8644694 0.057039507 -0.62476575 0.07261708 0.91490555 0.044887055 -0.5363858
-1.436299 0.108853295 2.0603504 0.020818265 1.664134 -0.21977174 0.57914466 0.4866595
-0.5782715 0.44265857 -0.07169247 -1.2816445 0.95997417 0.17270482 0.43211943 -0.2646323
0.17312936 0.9640252 -1.8860989 0.97690785 1.0834047 0.16973124 -0.62028706 0.92316103
0.9994633 0.9719925 -0.6551155 -1.4750813 0.672577 0.7718815 -0.7591427 -0.37511235
-1.1423291 0.095293276 1.2988487 -0.031062545 -0.6302108 0.04671015 -0.016875021 0.30404606
-0.06474016 -0.012480449 -0.31956384 -0.096623614 0.031469565 -0.32421124 0.024528246 -0.6607447
1.7608291 -0.12587684 0.29742318 0.7173759 -0.4172175 -0.51328176 -0.13710071 0.807358
-0.254189 -1.147248 -0.47856027 0.82613605 1.0832757 0.16490345 0.7778089 -0.13782953
-0.09176052 1.0731043 0.58173335 0.39077908 -1.4990171 -1.0605079 -0.29430723 1.2677476
-1.8325164 0.6628288 -0.67603487 -0.19227141 -0.29120097 1.2078925 -0.53600436 0.1743135
0.61594915 0.50285167 -0.22038577 1.7047455 0.50930494 -0.18327004 0.38838592 0.3757311
-0.5416448 -0.6003829 0.9463282 0.48620856 0.2519966 0.9699643 1.277539 0.24988957
-0.051995173 -0.09081341 -0.6700182 0.56261873 0.48794082 0.719733 0.5372629 -0.17656802
0.35014465 -0.82709736 0.2998515 2.7275786 -0.49584708 1.2911708 0.5897152 -0.2613128
-0.47778288 0.53126097 -0.26148468 -0.28065562 0.68713725 -0.2745431 -0.1035533 -1.108248
1.6052129 -0.82927454 -0.103888616 -0.03039468 -0.0012535297 -0.09622056 0.052896604 -1.2543331
-0.04495111 -0.02425548 0.40389878 0.8473951 0.8679124 -0.22404967 0.056844857 1.7280481
0.40090224 -0.12920178 -2.0721807 -0.31750035 0.28185642 0.49815038 0.11786923 0.006523669
-1.1749833 0.37998676 -0.36646625 0.8071846 -0.30376336 -0.99777526 0.274552 0.7057178
1.0895162 -0.3191007 -0.039852567 -0.18724614 -0.1121578 -0.15538329 -1.1298076 -0.2812589
-1.1221782 0.3830573 0.21562734 0.6428616 -0.5179009 -0.7389283 0.19779742 0.03852546
-0.24954467 0.8411487 -0.8515723 -0.8394865 0.19476615 -1.0028386 0.3992706 0.23829706
1.0045824 -0.2767149 -0.18160121 -0.39671528 2.3453103e-05 -0.18633391 -1.3469559 0.21857604
-0.14527039 -0.6127622 -0.0012098819 -0.11067419 -0.52788365 -0.39820132 0.096710525 0.09427038
-0.92220056 -0.12107732 -0.5492736 1.6322143 0.07938908 0.038631674 0.28106996 0.088290684
0.2315986 -0.35785007 -0.3665011 -0.398157 0.3125014 0.08135665 0.21352488 0.7165257
-0.2962238 1.4308646 0.78850144 -0.55723035 -0.57560956 0.5599848 -1.4151214 0.010781118
0.25497985 -0.52642274 -0.25904498 1.4963961 0.18125542 -0.87203485 0.7171194 0.057763614

weight f4 [64, 64]
00000000: f86a 80ba 7b61 49bb a467 403b a504 71bb
00000010: 92cd 9d3a efad 11bb 57d5 913a 4521 a7bb
00000020: c7a3 44bc 8ca2 e33a 209b 8ebb 7b2c 043a
00000030: b0d9 513b db30 8bba 2fa6 4cba fe81 013b
00000040: f321 a2b8 e919 873b b540 2b3b fdc8 f4bb
00000050: c19d 8bba f222 d1bb ec76 70bb 00a6 db39
00000060: d6bf a9ba 2940 7aba 17a9 27bb 9f38 5db8
00000070: ea2e 7bbb 66fa 48ba f1a4 863a 940f 3a3b
00000080: 5f19 1c36 bce6 b83b 8eb6 86bb ade4 173b
00000090: bf11 c7bb 7bc6 8838 b809 e63a 083c 553b
000000a0: a5ef 773b e0ea bcba 1dea f036 42e6 14bb
000000b0: 6441 7f3a 9190 9739 6dc5 62bb b8b0 fa3a
000000c0: 5886 933b 2160 323b 55c1 e1ba 4ef6 4bb8
000000d0: 82a1 9639 afbc d3ba 62c1 e63a 00d4 20bb
000000e0: 513e 49bb 37da 3dba 79e9 b43a 857b 13bb
000000f0: 49c7 673b 46e9 d9ac 58f0 f6b9 0018 59bb
00000100: d49d ca3b 659a 293b c489 173b c4de 0d3c
00000110: 5e7c d6ba d1f8 37bc 032e 883c a9f2 85bb
00000120: 70c0 143c 903e 8fbc b6da 633b 4434 3abc
00000130: 5355 db3b ead2 f3ba 8b10 02bb dfa2 cd39
00000140: a922 4d3c 10f1 09bc 7fbb 4ebc 2092 8e3b
00000150: 57d7 febb 6fc0 adbb 1895 41bb ce84 003c
00000160: 8611 6fbc fcc4 f7bc 5d44 c4ba 43c9 a13c
00000170: ecf8 153b 6b62 50bb 1186 273c 396e 26bc
00000180: 9fa1 faba 19c4 2d3a 3647 b73b 7506 28bc
00000190: 6fda 023c 01cd d239 59c5 18bc fc84 91bc
000001a0: 0fa8 293a 52c6 b9bb 1160 28b6 b39a 373c
000001b0: 270f 69ba c540 97bb 887d 38bc 88fc d83a
000001c0: 0229 81bc f904 1fbc 56da f0bb 1917 0dbb
000001d0: 9bba ad3c 368e 963b 4e54 133b 2dc8 763b
000001e0: dbe4 d2bb d70c 473c 8718 15ba 6b7f 4abb
000001f0: 7447 6c3a 2f09 0b9e 031d 7e3b 55cb 65bb
00000200: daf3 643b a439 0dbc 6391 9b3c 432d 69bb
00000210: f856 bf3a d1c9 d3bc ee24 3d3c 26e0 91bc
00000220: d581 d2bc 8cdd 7abc db3c 4cbc 0bc4 47bc
00000230: 3ca4 5a3c 607d d6bb b022 e9bb 79e0 4038
00000240: bdb4 803c 6a62 4f3c 1b4c b5bb 5642 89bc
00000250: 223d 69bc 0957 f1bc ebf7 70bc 34b5 fc3b
00000260: 1a8d b5bc 7e24 25bd 2ec2 c2bb 886e a73c
00000270: 7cd7 20bc 1456 96bb e750 ea3b a78d 9dbb
00000280: b127 15bb ab3e 753c 271a 59ba 1db1 b639
00000290: 1dc4 50bc 7eb5 813a 8539 b8bb 743a 35bc
000002a0: 5547 863c d2f9 2dbc 75ef 3033 b73d d03b
000002b0: 93d9 ea39 e6a3 97bb ac28 c8bc 5d87 863c
000002c0: 3c31 16bc a790 d4ba 2119 18ba 3258 e1ba
000002d0: 53d4 0a3d 8af4 af3b 9aaa 0b3c fbbe 23bc
000002e0: 6caf 8dbc 5326 363c 45f8 c339 8bec 56bc
000002f0: eff1 523c b7c7 8b98 372e 383b f4d2 3ebc
00000300: 09b4 233c 86e4 693c ccf3 633b 12bc bd3c
00000310: f9c5 1bbc ebf3 55bc 7492 8ebc d1c4 033d
00000320: 2747 9f3d e7b3 e6bc e3eb a43c 709c 7abc
00000330: a216 b5bc a39a 903a c8a2 8cbb a18e e3bc
00000340: 7536 8e3c e628 ddbb b50f d3bc 77f3 4d3d
00000350: 9723 d2bb 6aec ac3c 505b 8c3c 118f a6ba
00000360: 5a90 21bc 70c3 00bd 881d a83c 8ad3 6a3c
00000370: ab58 be3c af03 0d3c f855 8abc 38fe fdbc
00000380: 1741 10bb 26d8 22bd b0e8 323d 6a9b 31bc
00000390: 6110 0f3d 39ef 283a f40e a3bc a48b 17bd
000003a0: 513b 30bc b599 923b d504 99b8 4f44 cd3c
000003b0: 353e 2bbc 81e3 f3bb 0450 083c b900 693c
000003c0: f3c2 5dbd a88d bbbc ef00 153d 1ae7 0f3a
000003d0: 6a1a 233d 94aa dd3c faba fabb ddfc 1eb8
000003e0: 6cd1 3c3c cfe8 603c da90 96bc 3249 613b
000003f0: 0dac 8bbc 22be 3d99 3807 e83b 1b5f b93c
-0.0009797504 -0.003072827 0.002935865 -0.003677645 0.0012039414 -0.0022228917 0.0011126202 -0.0051004016
-0.012001938 0.0017367168 -0.0043519884 0.00050420285 0.003202062 -0.0010619418 -0.00078067457 0.001976132
-7.7310855e-05 0.004122962 0.0026131098 -0.0074702487 -0.0010651873 -0.0063823396 -0.0036691977 0.00041894615
-0.0012950848 -0.0009546304 -0.0025582963 -5.274324e-05 -0.0038327524 -0.0007666707 0.0010272545 0.0028390633
2.326058e-06 0.00564274 -0.0041111177 0.0023177073 -0.0060751135 6.521955e-05 0.0017550504 0.0032537002
0.0037832048 -0.001441326 7.1798117e-06 -0.0022720252 0.0009737222 0.00028908675 -0.0034602538 0.0019126153
0.004502099 0.0027217942 -0.0017223755 -4.862836e-05 0.00028730562 -0.0016154255 0.001760524 -0.0024540424
-0.003070731 -0.00072422944 0.001380249 -0.0022504043 0.0035366586 -6.1934095e-12 -0.00047099846 -0.0033125877
0.0061833654 0.002587938 0.0023122886 0.0086590685 -0.0016363969 -0.011228756 0.016623503 -0.0040877652
0.009079084 -0.017485887 0.0034767813 -0.011365 0.006693521 -0.0018602286 -0.0019846286 0.00039221995
0.012520471 -0.00841929 -0.012617945 0.0043509156 -0.0077771354 -0.005302481 -0.002953833 0.007844163
-0.01459158 -0.030245297 -0.0014973987 0.01974929 0.0022883965 -0.0031796943 0.010224835 -0.010158115
-0.0019121653 0.0006628647 0.005593206 -0.010255446 0.007986649 0.0004020706 -0.009324395 -0.017763607
0.0006471881 -0.0056693936 -2.5089869e-06 0.011206317 -0.00088905025 -0.0046158754 -0.011260398 0.0016554752
-0.015766624 -0.009705775 -0.0073502464 -0.002152866 0.021207144 0.0045945896 0.002248067 0.0037655935
-0.006435973 0.012149057 -0.0005687554 -0.00308987 0.0009013333 -7.360498e-21 0.0038774617 -0.0035063822
0.0034935386 -0.0086197 0.018990224 -0.0035579957 0.0014598062 -0.02585307 0.011544449 -0.017807078
-0.025696674 -0.01531161 -0.012465681 -0.012192736 0.013344821 -0.0065457076 -0.007114731 4.5985424e-05
0.015711183 0.012657741 -0.005532754 -0.016755264 -0.014235767 -0.029460447 -0.014707546 0.007712031
-0.022162009 -0.040318005 -0.005943558 0.020438448 -0.0098170005 -0.004587898 0.0071507576 -0.004808146
-0.0022759254 0.0149685545 -0.000828179 0.00034845705 -0.01274207 0.0009896008 -0.0056220912 -0.0110613
0.016391436 -0.010618644 4.1195978e-08 0.006355013 0.00044794063 -0.0046276925 -0.024433456 0.016421968
-0.009167012 -0.0016217426 -0.00058020843 -0.0017192422 0.033893894 0.0053697275 0.008524561 -0.009994264
-0.017295562 0.011117536 0.00037378274 -0.01311792 0.012875064 -3.613232e-24 0.0028103718 -0.011646975
0.009991654 0.014275676 0.0034782765 0.023160968 -0.00950765 -0.013058643 -0.017403819 0.03217012
0.07777243 -0.028161956 0.02013201 -0.015296087 -0.022105519 0.0011032413 -0.004291866 -0.027777972
0.017359952 -0.0067492602 -0.025764326 0.050281014 -0.006412934 0.021108825 0.017133385 -0.0012707432
-0.009861076 -0.031436384 0.020521894 0.014332661 0.02323564 0.008606835 -0.016886696 -0.03100501
-0.0022011453 -0.039756916 0.04367894 -0.010840276 0.03492773 0.00064443384 -0.019904591 -0.036998406
-0.01075633 0.0044738897 -7.2965086e-05 0.025056986 -0.010451843 -0.007442892 0.008319858 0.014221364
-0.054140996 -0.022894695 0.036377843 0.0005489454 0.039820112 0.027058877 -0.007651684 -3.7905633e-05
0.011524539 0.013727381 -0.018379617 0.0034375903 -0.017049814 -9.809468e-24 0.0070809387 0.022628358

encoder.sage.linear.weight f4 [64, 128]
00000000: 50f2 923e 98c6 1cbf e0ad 28be 812b 5c3e
00000010: ebdb 8f3e 7aac 13bf 5079 233f 1f2c 86be
00000020: 4ba9 893d 458d 4a3f a9f7 8abf 2a75 e0be
00000030: 6da3 fa3d 993e 8bba 338c 383e e6a8 9b3f
00000040: b85a c7bf 6b77 8bbf 36a8 b43d 8361 0e3e
00000050: 920f 343e e4de 51bf 336c fabd caed 58be
00000060: 145f 2a3f 220f 8bbf 8847 193e d0e6 3a3f
00000070: 0b96 8abc 19fa 3bbe c8fc 93be 1066 5bbf
00000080: f3cb 54be 534e a2be 5f59 863f 3e2d 753e
00000090: 8c76 953f d2a8 9b3e d48a 85be 8665 5abf
000000a0: d196 d4be a41e 173d 1fd0 f2bd 8e87 87be
000000b0: 0e8a da3d b6db 463e ea43 0040 d1f1 95bf
000000c0: 3e10 473e 7b4a 623e 6106 d03f e3dc 22bd
000000d0: 19d2 9dbf 4526 85be 5b0d 86bf b411 bcbf
000000e0: 686b 66bc a57d 3abf e65f 40bf c37d efbc
000000f0: d833 b63f 078e 083f 3a04 4cbf 37e1 8a3d
00000100: 3ab6 f63e 99f1 103d 3548 0cbf d403 db3e
00000110: f575 a93f dd1d 433f 1ba0 a73d 1e5f d93f
00000120: aa1a a2bc aa7b b5bd e8f9 babc 5a74 3d3f
00000130: e192 3c3d 7ee1 233e 2a45 db3b 4d79 75be
00000140: 2ca3 493f 1c84 ed3e ab3e 6bbe 2c91 993e
00000150: 9e22 953d 6bd4 c6be 3d5f 76bb 4af5 13bd
00000160: aaf6 923e e5a8 93be 9946 d93d 120c 573f
00000170: 632f 05ba ea9a 57bc ee5c cf3c e5c9 12be
00000180: a196 293e 8ef7 a43f f438 ab3e b455 e9be
00000190: fd9a f43f b9f3 6d3e b215 d93d 19fd c7bd
000001a0: 29c9 bc3e 03e0 6e3f af8e 16bf 84c9 03bf
000001b0: c419 17bd 94a8 66bf eee5 7d3e cc4c dc3e
000001c0: 865c 9abc 1a94 1abe cc06 9cbf 311e 053f
000001d0: e766 183f 0b21 57be d223 103f 601c 39bf
000001e0: 3c34 aabe 2c2d 7b3f 252c d2bd 663f d43c
000001f0: 4930 f1bf fbdb 863f a88d 363f 4abb 4c3e
00000200: 412d 393e 7a73 07bf 4a54 263f 6c60 0a3e
00000210: 430e c93d 08a0 d43d d4b1 83bf 6165 033f
00000220: 509c a13e 724a c3bd f584 bf3d c333 403f
00000230: cdb1 73bd 155e c7bf 0ef5 debe 2e39 003f
00000240: 937d c83e 016b c3be 73b7 ec3d 97d3 7c3e
00000250: cdc1 2fbd 43a3 e6bf 241b 9b3e bd68 ebbd
00000260: b83b cabe d6fa 093f 97bf e63f d706 5abf
00000270: d696 7c3e 8492 713e a16c f3be 55bf 9bbd
00000280: cd46 553f f69f fa3e 315c 083f 00d9 b83e
00000290: c818 d9be fb9a 1d3b ac15 22be 4911 57be
000002a0: 6cb3 323e f31c 0abf 4cac 383e f115 05bf
000002b0: 3241 c73e 9366 aa3e 25a9 11bf 1aa7 1c3d
000002c0: febe bd3d 8e13 683e 8c52 01bf a4a1 0cbd
000002d0: e042 f23e 3f4b 1f3f d892 bf3f ffa5 af3e
000002e0: 1871 613f d585 463d e198 a2bd d5f5 0fbc
000002f0: 9e05 abbe b5ee 1e3f d858 60be 06de a63c
00000300: 0c2e 95be 254b 093e 791a c43e 1cf1 9c3e
00000310: 3244 663f 506b 9b3e 5f9f c93e de49 40be
00000320: 5b83 d23d 3e2f 60bf 7962 753e ad9c 913d
00000330: 0015 a43c 7bc8 083e 25d2 1c3e 659b d43d
00000340: 88b9 c03e db78 00bf b2d9 883d 78ee 983e
00000350: f175 5cbe be6b edbe 4041 293d 684d 9d3e
00000360: bffa de3a 8d3f b03e a184 293e 803e ab3e
00000370: 5248 703a 975e 58bd c3e2 a6bf 71b8 a93e
00000380: 7f00 123d 2a18 a3be e047 bdbe 2d2c 123b
00000390: 380c 053f 6fcc 0abf f878 5e3e f7db 45bd
000003a0: 777e d03e db56 36bf 13b1 f896 1968 f7be
000003b0: ae60 eabe e1b1 943e 2a5c 19be 379e 7d3e
000003c0: 90f9 3b3c 5a20 ce3e 16ac 333e a814 37bb
000003d0: d78a cbbf 65f5 9cbd 06ad b73e 5e19 183d
000003e0: f27c 743e b555 663e 3ee4 913d 1d39 0f3e
000003f0: c205 9f3f a185 f23e 1d7c 15bf 8f3a 77bf
0.28700495 -0.6124053 -0.16472578 0.2150097 0.28097472 -0.57685053 0.63856983 -0.26205537
0.06721743 0.7912181 -1.085683 -0.4383939 0.12238202 -0.0010623514 0.18022232 1.2160919
-1.557456 -1.0895818 0.08821146 0.13904385 0.17584065 -0.8198073 -0.122276686 -0.2118446
0.6655133 -1.0863993 0.14968693 0.7300844 -0.01691725 -0.18357123 -0.28903794 -0.8570261
-0.20780925 -0.31700382 1.0496024 0.2394304 1.1676803 0.30402237 -0.2608248 -0.8531116
-0.41521314 0.036894456 -0.11856102 -0.26470608 0.10670863 0.1941975 2.0041451 -1.1714422
0.1943979 0.22098725 1.6251947 -0.039761435 -1.2329742 -0.2600576 -1.0472826 -1.4692903
-0.014063694 -0.7284797 -0.7514633 -0.029234773 1.4234571 0.53341717 -0.7969395 0.067812376
0.48185903 0.035386655 -0.5479768 0.42776358 1.3239123 0.7621744 0.081848346 1.6982152
-0.019788105 -0.08861478 -0.022824243 0.74005663 0.046038512 0.16003987 0.0066915946 -0.23972054
0.78764606 0.46389854 -0.22973125 0.2999357 0.07281993 -0.38833937 -0.0037593388 -0.036122598
0.28703815 -0.28839794 0.106091686 0.8400279 -0.00050806085 -0.013159493 0.025312867 -0.14334829
0.16561367 1.2888048 0.3344189 -0.455732 1.9109799 0.23237504 0.10599841 -0.097650714
0.36872223 0.93310565 -0.5881147 -0.51479363 -0.036889806 -0.9010098 0.24794742 0.4302734
-0.018842947 -0.15095559 -1.2189574 0.51999193 0.59532017 -0.21008699 0.5630466 -0.7230892
-0.33242977 0.981158 -0.10262326 0.025909137 -1.884286 1.0535883 0.713099 0.1999332
0.18083669 -0.5291058 0.64972365 0.13513345 0.09817173 0.10382086 -1.0288644 0.51326567
0.3156457 -0.09535684 0.093515314 0.7507898 -0.059495736 -1.5575587 -0.43546337 0.5008725
0.39158306 -0.38167575 0.11558428 0.2469009 -0.042909432 -1.8018574 0.30294144 -0.114945866
-0.39498687 0.5389837 1.8027219 -0.85166687 0.24666914 0.23591048 -0.47543815 -0.07604853
0.8331116 0.48950166 0.5326567 0.36103058 -0.4240172 0.0024048674 -0.1582858 -0.21002688
0.17451257 -0.53950423 0.18034476 -0.51986605 0.38916928 0.33281383 -0.5689872 0.038245298
0.092649445 0.2266371 -0.5051658 -0.03433384 0.47316647 0.6222419 1.4966688 0.34306332
0.8806319 0.048467476 -0.079393156 -0.008786638 -0.33402723 0.6208299 -0.21908891 0.02036954
-0.29136693 0.13407572 0.38301447 0.30652702 0.8994781 0.3035531 0.39379403 -0.18778178
0.1027896 -0.87572086 0.23963346 0.07109962 0.020029545 0.13357727 0.15314539 0.10381202
0.3764155 -0.5018441 0.06682147 0.29869437 -0.21529366 -0.46371263 0.041321993 0.3072312
0.0017011984 0.34423485 0.165545 0.3344612 0.000916605 -0.052824583 -1.3037952 0.3314853
0.035645004 -0.31854373 -0.369689 0.0022304163 0.5197177 -0.5421819 0.21725833 -0.048305478
0.40721485 -0.7122628 -4.017831e-25 -0.48321608 -0.45776886 0.2904196 -0.14976564 0.24767385
0.011473075 0.40259057 0.17546114 -0.0027935896 -1.5901746 -0.07663993 0.35874194 0.037133567
0.23875788 0.22493632 0.07123612 0.1398663 1.2423632 0.47367576 -0.58392507 -0.9657373

linear.weight f4 [2, 64]
00000000: 96cf fabc a624 de3d 8433 2f3b 6869 e73e
00000010: b113 eb3d 2ad0 ccbc 5ef7 dd3d a406 e33d
00000020: ce2e d1b9 25cc 2f3b 02ff 233e b97c 75be
00000030: 80e6 19bd cd3a 6ebe 5dbf c83d d439 f0bd
00000040: f25e 863c a295 0abd b183 983d 3db5 2d3e
00000050: a804 543b 31bb b93c db23 e7bb b3cf 26bc
00000060: 2560 9b3e 33c1 993d 51e6 523d 3e56 0c3b
00000070: 553d b43c a7dc b33d 84b4 1dbd cacd 87bc
00000080: e95d e8b9 1c37 223d 0fe4 8ab9 7f90 273d
00000090: dd98 3b3e 2446 9b3d 1d9a 88bd 8575 57bd
000000a0: 1c81 9abd 522f 28bc ca52 093e d8b5 b5bd
000000b0: 76ff 273d c6d2 773d dbac b5bd 6a6b 723d
000000c0: c05b 5d3d 3aa7 00be fcd0 cebd aba6 3bbd
000000d0: 99bb 2abe 042e 8b3d 1b40 e4bc 8f43 91bd
000000e0: d591 46bc 838c eaba 52a6 5fbc 4fc3 dd3d
000000f0: 2248 87bd b40e 28bd 77b9 273d d00c 883c
00000100: 9b53 503c 9f74 61be ae6d 9bbc 8820 04bf
00000110: b51b d6bd 6ce5 31bc 09d6 70bd 3a5b 313b
00000120: e7c2 5dbd 5d3c e53a b011 38be 131b af3e
00000130: 9eca 05bd d344 313e e900 23be 9146 653d
00000140: 9f04 4cbc abc8 7bbc 98b0 683d f0f4 01bd
00000150: 3597 2d3e c787 5cbd eaa3 edbd e346 dd3c
00000160: ea41 71be a683 163d 514e e73c 57f8 cabc
00000170: cc22 323d 8923 6dbc 9dd8 cabc 3b59 03bc
00000180: 076f 92bc 5efd 7dbd 5b2f 373d 7b3b c73c
00000190: 0b4a ffbd 3ed6 e13c b9c8 603d 680b c03d
000001a0: dbdb 9539 19a8 48bb c019 babd 6241 82bd
000001b0: 26fb aabd 82f9 1aba 2fae cebd aec0 39be
000001c0: 50e4 473d 315e 92bd df05 843d 798b 88bd
000001d0: 93e9 c63d f2e9 4fbe 4aec 2b3d b15f cb3c
000001e0: 4ddb 303d 7bc5 abbd 6aac 75bd db9b dcbc
000001f0: d658 5cbd 4966 58bd a0bf 94bd a5a7 7abd
-0.030616563 0.10846834 0.0026733587 0.45197606 0.11478365 -0.025001604 0.10838197 0.11085251
-0.0003989846 0.002682456 0.16015247 -0.23973359 -0.037573338 -0.23264618 0.09802125 -0.1172978
0.016402695 -0.033834107 0.07446993 0.16963668 0.0032351408 0.022672268 -0.007053835 -0.010181355
0.3034679 0.07507553 0.051489178 0.002141371 0.022001902 0.087823205 -0.03850223 -0.01657762
-0.00044320457 0.039603338 -0.00026491328 0.040909287 0.18320031 0.07581738 -0.0667002 -0.05260231
-0.07544157 -0.010265188 0.13410488 -0.088725746 0.04101511 0.060503744 -0.0887086 0.05918447
0.054042578 -0.12563792 -0.10098454 -0.045813244 -0.16673125 0.06795886 -0.0278626 -0.07092964
-0.01211973 -0.0017894659 -0.013650494 0.10828268 -0.06605555 -0.041029647 0.040948357 0.016607672
0.012715246 -0.22017144 -0.018973198 -0.5161214 -0.104545034 -0.010857921 -0.05879787 0.0027062432
-0.05414095 0.0017489303 -0.17975497 0.34200343 -0.032663934 0.1731141 -0.15918316 0.0559755
-0.012452274 -0.015367667 0.056809038 -0.03172773 0.16952212 -0.053840425 -0.1160353 0.02701134
-0.235603 0.036746643 0.028235586 -0.02477662 0.043490216 -0.014473804 -0.024761492 -0.00801688
-0.017875208 -0.062009208 0.044722896 0.024320355 -0.124652945 0.027567979 0.054878924 0.093771756
0.000285833 -0.0030617772 -0.09086943 -0.06360127 -0.08348684 -0.00059118134 -0.10091817 -0.18139908
0.04880172 -0.07146872 0.06446432 -0.06667227 0.097125195 -0.20304087 0.04197339 0.024825903
0.04317789 -0.08387276 -0.05997888 -0.026929786 -0.053795658 -0.05283192 -0.07263112 -0.061195035

linear.bias f4 [2]
00000000: 362d 813c 987e 82bd
0.015768629 -0.06371802
