SCG-SFFL-main/SCG/checkpoint/realm-java.pth (torch, 55195 bytes, 5 tensors)

sage.linear.weight f4 [64, 14]
000000 60 7b b1 bf 14 b9 01 bf c9 d4 4a 3e 4c 73 90 bf
       -1.3865776 -0.5067303 0.19807734 -1.1285186
000010 49 c1 56 3d a6 04 74 be 52 1b 29 bf 40 9e a7 bf
       0.052430425 -0.23829898 -0.6605731 -1.3095169
000020 77 42 76 3e 9f 5f be 3e 73 6e 53 bf ba f0 e2 3e
       0.24048792 0.37182328 -0.8259041 0.44324285
000030 09 43 9e bc a0 54 68 3d 4e a2 46 be 24 47 6f bf
       -0.019319074 0.05672133 -0.19397852 -0.93467927
000040 71 99 be 3d 50 9b 92 3e 29 f1 1b bf ba 17 7c be
       0.093066104 0.2863412 -0.60914856 -0.24618426
000050 80 e5 4d be 09 de ce 3e 65 b4 e2 3e 9c 56 d7 3f
       -0.20107079 0.40403774 0.44278255 1.6823306
000060 8b 15 28 bf de 44 85 3f bf e3 23 bd 10 2f ea be
       -0.6565787 1.0411642 -0.040012117 -0.4573903
000070 b3 04 cd 3c 78 bb 73 3e 0e 52 1e bf 3b 95 05 3e
       0.025026655 0.23801982 -0.61843956 0.13045208
000080 8e bc ec bd cb 2d bd bd ff b2 8a 3d 3f 27 d0 3d
       -0.115594015 -0.0923725 0.06772422 0.101637356
000090 9b 9e 1a 3e 15 34 04 3f 87 af 64 3d 13 ff a0 be
       0.15099566 0.5164197 0.05583146 -0.31444606
0000a0 36 fa 19 bd ab ec 83 bd af f9 99 3c 91 c3 27 bf
       -0.037592135 -0.06441625 0.018795816 -0.65532786
0000b0 dc b3 02 3f d2 9a b5 3e 9f 1a 38 be eb e9 40 bf
       0.51055694 0.3546968 -0.17978905 -0.7535693
0000c0 d3 44 32 3c 01 bd 27 bf d9 88 02 bf 0c b8 e5 3e
       0.010880667 -0.6552277 -0.5099006 0.4486698
0000d0 0d e9 02 bf 98 b0 ff bd bb 08 3a 3d 71 a0 ac 3e
       -0.5113686 -0.124848545 0.045418482 0.33716157
0000e0 d9 fe bd 3e 89 86 7c 3e 60 78 34 3f 08 be 79 3e
       0.37108496 0.24660696 0.7049618 0.24388897
0000f0 69 0b 12 40 28 ac 26 be 6b 98 06 3f bf e8 2f bf
       2.2819464 -0.1627661 0.5257632 -0.6871452
000100 37 d5 38 3d 2e bc 3b bf c6 e1 c5 3e ce 3a a1 be
       0.045125213 -0.73334014 0.38648814 -0.31490177
000110 e4 24 68 bd 2a eb 52 be eb 99 06 bf 8a 6e be 3f
       -0.056675807 -0.2059752 -0.5257861 1.4877484
000120 7d 9f 0d 3f a7 f4 f3 be a3 f3 f1 be 87 66 b1 3e
       0.55321485 -0.47647592 -0.47256193 0.34648535
000130 3b 8b 46 bf 7e d9 0a bf 7b 53 03 3f 14 71 aa 3e
       -0.775562 -0.54238117 0.51299256 0.33289397
000140 eb 9d 32 3f a9 0c ee bd df c0 a0 bc 2e fe 3a 3f
       0.69772214 -0.116235085 -0.019623218 0.730441
000150 34 4e 38 3e 16 6a ed 3c 2d 21 51 3f 41 34 96 3d
       0.17998582 0.02898125 0.8169125 0.073341854
000160 95 80 15 3e f6 34 d1 3d 11 5b ee 3d 97 43 52 3e
       0.14599831 0.102151796 0.11638463 0.20533596
000170 bc 69 d5 bc 40 3c a1 bf f1 04 20 3c e4 e2 e6 bd
       -0.026051395 -1.2596512 0.009766803 -0.11273745
000180 49 91 5b bd c7 da 72 bd 5e b1 22 3f 79 31 98 be
       -0.05360535 -0.059290674 0.6355189 -0.29725245
000190 da 26 81 3f 92 bc 88 3f 90 4b b4 3f c4 a1 1c 3f
       1.0089982 1.0682547 1.408556 0.61184335
0001a0 2c 8b 8e 3e ec b9 2c 3e 18 88 27 3f ad 1d 8c bf
       0.27840555 0.16867799 0.6544204 -1.0946556
0001b0 f8 5c 96 3e 14 fa a6 bf 95 ca 00 3e d4 0b af bd
       0.29367805 -1.3045068 0.12577279 -0.08547178
0001c0 f5 73 ab 3d a3 49 52 3f 16 04 6d 3f fc 3b bf be
       0.083717264 0.8214361 0.9258436 -0.37350452
0001d0 1e 13 67 bf 78 f6 65 3e bc 3f a1 3e 76 de 48 3f
       -0.90263546 0.22457302 0.31493938 0.7846445
0001e0 0c 8c 57 be 96 80 07 3e 97 99 fb be c6 69 99 be
       -0.21049517 0.13232645 -0.49140617 -0.2996351
0001f0 0b f9 19 3e a8 be 52 be 3c 62 48 3d 2a 83 9b 3d
       0.15036409 -0.20580542 0.04892181 0.07593377
000200 bc 49 1c bf 2d dc 0a 3e 81 33 87 3e 38 36 ca bd
       -0.6105001 0.13560553 0.26406482 -0.09873623
000210 1b dc 89 3d 22 56 12 3e 9b 4e 2b 3e 17 6e 9f 3e
       0.06731435 0.1429067 0.16729204 0.3113868
000220 83 2a bd 3d 41 2e 65 bd b4 dc dd 3c 69 ca 5d ba
       0.09236624 -0.055952314 0.027082779 -0.00084606424
000230 a0 48 a9 bc 51 a4 5a 3f 9f 7a bf 3a 92 90 3e 3e
       -0.020664513 0.85406977 0.0014608687 0.18609837
000240 63 22 5d be 5b f5 a7 bd 98 02 cd 3b cc 19 71 3d
       -0.21595149 -0.08201095 0.0062564127 0.058862492
000250 cd ce bf 3d e8 9e 02 be dc dd e5 3d cd 75 4b 3f
       0.09365616 -0.1275593 0.11223957 0.79476625
000260 9b 03 c4 bc 4b b5 2c 3e 6b 97 50 bf 68 a3 a8 3e
       -0.0239275 0.16866033 -0.81481045 0.3293717
000270 16 3c b7 3f 8d 3a 74 3e d8 b5 eb bd 21 ce 93 3e
       1.4315212 0.2385046 -0.11509293 0.288682
000280 0e 0a 62 be 25 b4 b4 be 6b 36 9e be 21 7e 3f 3f
       -0.22074148 -0.3529369 -0.30900893 0.7480183
000290 e4 f9 59 bf eb 04 0b bf 4b 86 52 be c9 01 be bc
       -0.8514693 -0.5430438 -0.20559041 -0.02319421
0002a0 0d 06 b4 3e 09 76 c1 3e 13 70 a3 3d 59 dc b2 39
       0.35160866 0.37785366 0.07980361 0.00034114977
0002b0 81 7d 9e bc 2d a4 a3 bc c4 87 31 bb ec f8 00 3f
       -0.019346954 -0.019975746 -0.002708898 0.50379825
0002c0 54 e5 d6 39 03 85 e7 be f2 e6 ec bc ff 0c 25 bf
       0.00040988124 -0.45218667 -0.028918717 -0.64472955
0002d0 1e 41 03 bc b7 4f ca bb 1b 37 c1 ba 76 47 6b bc
       -0.008011131 -0.0061740535 -0.0014741154 -0.014360299
0002e0 d3 02 d2 bb 5d 13 59 bb cc 86 e8 3d 90 db 90 bc
       -0.006409028 -0.0033123114 0.113538355 -0.01768282
0002f0 81 7c 46 bd 27 2e 29 bd e4 48 a3 3d a7 a5 a5 bd
       -0.04845858 -0.04130378 0.07972887 -0.08088236
000300 f7 01 e7 ba 7f d1 16 bb 7f cf 8b ba cb 34 bc bb
       -0.0017624487 -0.0023013053 -0.0010666697 -0.005743598
000310 f7 04 5a bf f7 79 98 be df c1 3d 3f 87 88 75 bc
       -0.85163826 -0.29780552 0.7412395 -0.014986164
000320 da b8 12 bc 99 60 27 bc 70 7d 00 3d dd 17 99 be
       -0.008955205 -0.010215902 0.031369627 -0.2990102
000330 de fd 29 be 10 db c7 bf 50 44 92 bc 9e ce 74 be
       -0.16600749 -1.5613728 -0.01785484 -0.23906943
000340 d3 2e 51 be 3c 67 b9 bd 36 40 c8 bd 17 d4 77 bf
       -0.20428018 -0.090528935 -0.09777872 -0.96808
000350 b1 54 49 3f 8a 19 89 3f fe 10 7b 3f 55 8d c3 bd
       0.78644854 1.0710919 0.98072803 -0.09548441
000360 42 6b 31 be de d2 ef 3d 2d f6 9e be fd f3 4b 3e
       -0.17326072 0.117101416 -0.31047192 0.19917293
000370 2a b2 1c be b0 3d 33 bd f2 10 da 3e 10 ef 07 bf
       -0.15302339 -0.04376 0.42591053 -0.53099155
000380 39 70 d7 be e9 d5 11 3e ff b4 ec 3e e1 65 17 be
       -0.42077807 0.14241756 0.4623184 -0.14784957
000390 41 71 48 3e da 62 d5 3d d9 9b 84 3e f2 88 59 bd
       0.19574453 0.10419245 0.25900152 -0.053109117
0003a0 20 07 09 3f 4c 9a 82 3d d0 b6 0a 3d 10 70 1f bf
       0.53526497 0.06377086 0.03386575 -0.6228037
0003b0 0d e4 1b be c3 96 7c be 04 77 85 be 6e ef ba 3f
       -0.15223713 -0.24666886 -0.26067364 1.4604318
0003c0 c3 5a 5d 3c d6 27 de 3f 8a 2b 43 bf 4c 24 8b 3f
       0.013510409 1.7355907 -0.7623831 1.0870452
0003d0 b7 80 70 3f fd f2 56 3e 28 6a 14 3f 39 f2 17 be
       0.93946403 0.2099113 0.5797448 -0.14838494
0003e0 7c cb 49 3e b5 88 84 3d 88 d1 46 3e ad 09 a3 3f
       0.1970653 0.06471387 0.19415867 1.2737328
0003f0 f4 5e 97 bd 61 04 c5 3e 3e 27 4b 3e 93 a2 29 3f
       -0.07391158 0.38479903 0.19839188 0.66263694

weight f4 [64, 64]
000000 a4 19 42 3d ad 15 27 3e 7a 4f 0e 3e cc 1a cb bd
       0.047387734 0.16316862 0.13897505 -0.099172205
000010 fc 93 33 3c f0 14 cb 3d 06 2a 2a be 5d 36 c9 3d
       0.010960575 0.09916103 -0.16617593 0.09824822
000020 ee a3 7a bd 4f cc 25 be b1 ec 03 be 40 fa 4c be
       -0.06119149 -0.16191219 -0.1288326 -0.20017338
000030 b0 8f 63 bc 30 af 23 be aa a6 32 3d cd 79 25 be
       -0.013889238 -0.15984797 0.043615974 -0.16159745
000040 7e cb 74 bd 65 4c 13 3e 07 86 21 be 3b 62 18 3e
       -0.059764378 0.14384611 -0.15773784 0.14881222
000050 f5 50 3e be f2 ec e0 bd 84 d6 69 bd 9d 23 e1 bc
       -0.1858557 -0.10982694 -0.057089344 -0.027482802
000060 8b e3 0b 3e 66 5f 37 3e ab ad 8f bc a7 57 eb 39
       0.1366102 0.17907485 -0.017538866 0.00044888
000070 15 58 d5 bd 6e d8 16 be fe fc 74 3d 31 95 47 3e
       -0.10417191 -0.14730999 0.059811585 0.19490506
000080 3d f9 b8 3d 96 97 20 be 7c 9b 53 3e c1 7b ce bc
       0.090319134 -0.15682825 0.20664781 -0.025205495
000090 7b 65 aa 3d 52 98 32 bd ee cb 22 be 2f 31 07 3e
       0.08320137 -0.043602295 -0.15898106 0.13202356
0000a0 17 8e 45 be 22 ff c9 3d 38 68 29 be 9e d3 f5 3d
       -0.19292484 0.09863116 -0.16543663 0.120032534
0000b0 98 af b9 3c 7d af d6 3b bd 0e 06 be 0f b2 98 3d
       0.022666737 0.0065516816 -0.1309156 0.07455837
0000c0 76 b5 33 bd bf 5e 25 be 1f 1c 55 3e 62 1b 4a 3e
       -0.043874227 -0.16149424 0.20811509 0.19737008
0000d0 06 2e 19 3e 7c 54 c1 3b cb 11 0a be 1b be 5c 3c
       0.14958963 0.005899964 -0.1348335 0.013473059
0000e0 50 69 f5 3d 9f 72 48 be d1 e5 15 3e db 78 55 3e
       0.119829774 -0.19574974 0.14638449 0.20846884
0000f0 48 d1 84 bd 2f a8 59 3c ac 9c da 3c ae 7a c0 bc
       -0.0648523 0.013284727 0.026686035 -0.023495998
000100 44 7b 5c be e0 aa 44 bd 2d 3d 38 3d 66 e6 1d 3e
       -0.21531397 -0.04801452 0.044980217 0.15419921
000110 2a 33 e9 3d 3a ee 0f 3e 1c d1 16 3e 23 ee 30 3e
       0.11386712 0.1405572 0.14728206 0.17278342
000120 03 fe f0 3d 0a 45 23 3e 19 c2 41 3e d9 b6 32 be
       0.11767199 0.15944305 0.18921699 -0.17452563
000130 1f e8 30 bd 4d c7 83 3d 0a 35 34 be ad d3 09 be
       -0.043190118 0.06434498 -0.17598358 -0.13459654
000140 58 9a 03 be f3 ac 0b 3e 25 fd de bb 6c 54 16 3e
       -0.12851846 0.13640194 -0.0068050795 0.14680642
000150 fc bc 4e be 0a f9 9c 3d da 82 b3 bd 04 ba 50 3e
       -0.2018928 0.07664688 -0.08765192 0.2038346
000160 6e a2 5e 3d d4 cd 4c 3e 2c fb 46 3e 33 19 0f bc
       0.054354124 0.20000392 0.19431752 -0.008734035
000170 30 3c 43 be e2 4f 28 3e e0 59 f3 bd 5f 74 09 3e
       -0.19065928 0.16436723 -0.11882377 0.13423298
000180 52 64 5d be 04 5b 5b be 2a 28 87 bd 7c 89 43 3d
       -0.216203 -0.21421438 -0.065994576 0.047738537
000190 10 16 50 bd 2b 14 19 3e ce 1f 08 3e 8e 14 11 3e
       -0.05080229 0.149491 0.13293383 0.14167997
0001a0 97 30 43 be 60 6a a4 3d 65 29 1a be 91 9c 20 be
       -0.19061504 0.08028102 -0.15054853 -0.15684725
0001b0 b2 18 0c 3e 08 24 8b 3d f4 6c 0e be 06 88 da 3d
       0.13681296 0.06793982 -0.1390875 0.10670476
0001c0 7c c8 0d 3e 5f 52 1f 3e 76 cf d6 bd 11 13 45 3e
       0.1384601 0.15558766 -0.10488789 0.19245555
0001d0 04 93 1e be 3b 11 17 be a8 f2 d6 3d 18 69 3d 3e
       -0.1548577 -0.14752667 0.10495502 0.18497121
0001e0 03 4b 4e 3d f2 d9 0e 3e 98 30 29 be 85 51 53 bd
       0.050364505 0.13950327 -0.16522443 -0.051591415
0001f0 73 c3 e1 bd 5f c2 ef 3d f1 07 f8 3d 40 af f1 3d
       -0.11023607 0.11706995 0.1211089 0.118010044
000200 b2 c0 b6 bd 9e 36 2d be 84 2d 25 3e 28 13 d9 3d
       -0.089234725 -0.16915366 0.16130644 0.10599357
000210 13 16 23 be 74 0b 8d 3d 22 c3 4a 3e a7 04 a5 bd
       -0.1592639 0.0688695 0.19801 -0.08057528
000220 72 fd 2c 3e 7b 75 b8 3d 8a d6 4e be de 7d ad 3d
       0.16893557 0.090067826 -0.20199028 0.08471273
000230 ef 25 d3 bd a6 ff f0 3a 04 ec 61 3d cd 31 3f be
       -0.1030997 0.0018386736 0.055156723 -0.18671341
000240 f8 25 89 bc 6b 04 09 be ac 19 5b be db f5 4b 3e
       -0.016741738 -0.13380592 -0.21396512 0.19918005
000250 77 bf 1a 39 1b ab 91 bd 0f c8 1a be d7 ec 01 3d
       0.0001475791 -0.07112714 -0.15115379 0.03172001
000260 c1 68 b9 3d 0f 48 c3 bd c2 6c ac bd 75 c6 df 3d
       0.09053183 -0.095352285 -0.084191814 0.109265245
000270 61 ca 30 be 1c 93 aa bd cc 1a 8a bd 0d 28 fb bc
       -0.17264701 -0.0832884 -0.06743392 -0.030658746
000280 24 87 d2 bd 84 db a7 bd 12 cb 23 3e c8 b9 80 bc
       -0.10279682 -0.08196166 0.15995434 -0.015713587
000290 d4 c2 8e 3d 58 39 5e 3d ff da e4 bd a2 7b 9d 3d
       0.06970754 0.054253906 -0.11174583 0.07689597
0002a0 3f 84 45 3e 5d 43 0a 3e 94 b1 24 be 7b 03 df 3c
       0.19288729 0.1350226 -0.16083366 0.02722334
0002b0 e7 ae 88 bd 47 ed 38 bc 9c e3 00 be 56 7c ac bd
       -0.06673985 -0.01128704 -0.12586826 -0.08422153
0002c0 59 36 04 3e 97 5a 19 3e 91 7e 0d 3e ac 89 5a 3d
       0.12911357 0.14975964 0.13817813 0.05335395
0002d0 49 fe e1 3d ca 4d 81 bd 54 10 a0 3d 7c 30 cf bc
       0.11034829 -0.06313665 0.07815614 -0.025291674
0002e0 e6 92 b0 bc d4 57 3c bd 0e e5 e2 3d 2a fc 38 3e
       -0.021554422 -0.045982197 0.11078845 0.18064943
0002f0 e0 e5 23 3d 3f 95 92 bd 02 68 4d be ff 2a b9 3d
       0.040014148 -0.07157373 -0.20059207 0.09041404
000300 ef 40 a5 bd 57 18 33 3e c7 2f 4b be da 81 64 3c
       -0.08069026 0.17489754 -0.19842444 0.013946975
000310 9c 06 39 bd 73 7c 31 3e 3e bb d8 3d 2c f5 4a 3e
       -0.04517232 0.1733263 0.105825886 0.19820088
000320 4a 76 95 bd 7c 5f 77 3d 1a 85 be bd 92 2a d7 bc
       -0.072979525 0.060393795 -0.09302731 -0.026265416
000330 a7 46 1c be 2b d8 99 bd d9 ea dd bd 1b 24 cd 3d
       -0.15261327 -0.07511934 -0.10835809 0.10016652
000340 12 23 a0 bd fb 4c 50 3e dc 49 f4 3b e2 f1 8a bd
       -0.07819189 0.20341866 0.007455094 -0.06784417
000350 43 a0 3d be 22 eb 2f 3d 13 94 0f 3e 5a 7e 4e be
       -0.18518166 0.04294885 0.1402133 -0.20165387
000360 97 af 67 3d 4c ea b5 3b f2 43 f9 bc e4 66 3b 3e
       0.05656394 0.005551612 -0.030427907 0.18300968
000370 89 d9 15 3e 9e 30 76 bd 68 aa 38 bd 54 e2 bd 3d
       0.14633764 -0.06010496 -0.045084387 0.09271684
000380 64 c4 5b bd 5c 30 44 3d aa 4f 24 3d d0 3f 50 be
       -0.05365409 0.04789768 0.040115036 -0.20336843
000390 bc 18 47 3e 65 a6 0b 3d 87 32 ec 3d ee 10 a9 3d
       0.19443029 0.034094233 0.11533075 0.08255182
0003a0 74 7d 26 3e bd 0e fc 3d e1 38 5c 3e db 9b ca bd
       0.16258794 0.123074986 0.21506073 -0.09893008
0003b0 0c 6a 22 3e 6d 76 ad 3d 5a 0b 35 be 30 99 db 3d
       0.15860766 0.084698536 -0.17680112 0.107225776
0003c0 1d 5d 13 3e d8 25 83 bd f8 0b 2c bd ae 57 fd 3d
       0.14390989 -0.064037025 -0.0420036 0.12370239
0003d0 15 8d 57 bc 0d 45 73 3d 18 86 d6 3d db 64 cb 3c
       -0.013156195 0.059392024 0.10474795 0.024828365
0003e0 29 07 48 3e 71 25 19 be 5d 91 f2 3d 46 c1 52 be
       0.19533981 -0.14955689 0.11844132 -0.2058154
0003f0 c0 2e f8 3d 14 99 25 bd a9 f0 84 3d 77 d9 23 3e
       0.12118292 -0.04042919 0.06491215 0.16000925

encoder.sage.linear.weight f4 [64, 128]
000000 be 8d e6 3e 9c 20 b1 3e ae 0c 2d bd 0e 70 92 3f
       0.45030016 0.3459519 -0.04224842 1.1440446
000010 06 ba 16 bf 83 04 91 bf 14 41 00 3f c6 e1 0b bf
       -0.588776 -1.1329502 0.500993 -0.5464138
000020 84 d8 03 bf 6d 20 e0 ba f0 79 d3 bc 4f 43 eb 3f
       -0.5150225 -0.0017099507 -0.02581498 1.8379916
000030 68 e5 2b bb 78 ac a6 3b b3 dd c3 be 9b 40 c3 3d
       -0.0026229266 0.005086478 -0.3825508 0.09533807
000040 11 fc 10 3f ec ea af bd 8f 95 d9 bd 8c 5d 49 3d
       0.5663462 -0.0858973 -0.10624229 0.04916148
000050 51 65 2b bc 86 9f ce bc c4 f8 91 3d db 6d 7b 3e
       -0.010461167 -0.025222551 0.071275264 0.24553625
000060 b1 d5 5e bf 98 c7 5d bf 9c 17 86 be da 24 c0 bd
       -0.8704482 -0.8663268 -0.26189888 -0.09382029
000070 3e 10 d7 be 3d 22 ed 3c 6e 03 4b 3d ab 92 09 3f
       -0.4200458 0.02894699 0.049563818 0.5373942
000080 1f 62 ee be b9 11 b5 ba 97 48 65 bd 85 21 9b bf
       -0.46559235 -0.0013814486 -0.05597743 -1.2119604
000090 37 93 eb 22 ad d7 91 bc b0 ba e9 3f 08 a4 6a bb
       6.3852747e-18 -0.017803038 1.8260098 -0.0035803337
0000a0 d4 46 34 3d 80 69 79 3d 50 9d 48 be 03 ee e8 bd
       0.04401286 0.06089163 -0.1959126 -0.11373522
0000b0 96 a9 a2 be 21 f3 14 3f b2 03 b1 bc 8c 04 08 bf
       -0.3177001 0.58183485 -0.021608207 -0.5313194
0000c0 8f d1 81 bd 7d 46 00 3e 59 b2 37 3f 1c bb c7 3e
       -0.06338798 0.12526889 0.7175651 0.3900994
0000d0 d8 4d 13 3f 64 81 96 3e 00 21 32 3d a4 29 f8 b8
       0.57540655 0.29395592 0.043488503 -0.00011833318
0000e0 0c 5a 06 3f 71 5d 3a bc 0f ce 16 be 2a 00 21 bd
       0.5248115 -0.011374817 -0.14727043 -0.039306797
0000f0 fe de ca 3d 32 c3 57 bd 2e 32 2a 3e 80 68 f4 3e
       0.09905814 -0.052676387 0.16620705 0.47735977
000100 e2 1d 41 bf 22 4e 42 bf c0 9a 0b bc d6 17 98 3e
       -0.7543622 -0.7590047 -0.008520782 0.29705685
000110 3b 5f 63 bf 1e 1f b0 be a7 57 83 bf 78 6a 60 be
       -0.88817185 -0.3439874 -1.0261124 -0.21915615
000120 50 f2 dd be 3d 1a 8a bb d4 36 18 bc f5 22 2a 3e
       -0.43348932 -0.0042145536 -0.009290416 0.16614898
000130 62 4e 1c 3e 72 24 cc 3a e3 c1 33 bd 65 20 37 3e
       0.15264276 0.0015574826 -0.043886077 0.17883451
000140 a0 37 f7 3e 85 c4 fc 3a 96 55 28 bc 11 30 05 b9
       0.48284626 0.0019284642 -0.0102743115 -0.00012701775
000150 d7 7e 3a 3d 2a 05 d8 be c3 d8 38 3b 9c bd 2b 3f
       0.04553112 -0.4219144 0.0028205372 0.67086196
000160 2b fc e2 bd 2e e8 94 be e0 48 8f 3d 8d 62 70 be
       -0.110832535 -0.2908339 0.06996322 -0.23475094
000170 34 3a 1b 3f 6b b3 c8 be 7f 16 7e 3e 98 4e 96 bc
       0.60635686 -0.39199385 0.24813269 -0.018348023
000180 2e 79 22 3d e2 93 cf bb 00 b8 f4 bc b9 e2 bb bf
       0.039666347 -0.0063347677 -0.029872894 -1.4678565
000190 4a 0b 87 91 25 a1 b0 bd c8 3e b6 bd a3 77 dc bb
       -2.1306202e-28 -0.08624486 -0.08898693 -0.006728129
0001a0 b5 20 94 3c 93 d7 9a bc d7 f9 87 bd 02 51 8e bb
       0.018082002 -0.018901622 -0.0663945 -0.004343153
0001b0 7b 12 a7 3d a3 bb d3 bc 3e e9 0b bd 2d cb 3c ba
       0.08157822 -0.025846308 -0.034157984 -0.00072019064
0001c0 c2 92 bb 3c 3c e4 55 bd c0 00 1c bf e4 6a 88 3e
       0.022897128 -0.052219614 -0.60938644 0.2664405
0001d0 a5 e0 ac 3e 94 53 89 3e 20 2f df b7 50 a4 94 bd
       0.3376514 0.26821578 -2.6605616e-05 -0.072579026
0001e0 55 60 b0 3d 6b d2 8a 3c c1 f1 41 3d dc e6 05 be
       0.08612124 0.016946038 0.047349695 -0.13076347
0001f0 f4 52 0a be 3e fb 28 bb de 46 d4 3d 2c ef 19 bd
       -0.13508207 -0.0025784518 0.10365079 -0.037581608
000200 54 4e 5b 3e 56 96 a4 3c c9 5c 96 3a 8d 7d 75 bf
       0.21416599 0.020091217 0.0011471744 -0.958947
000210 bb 54 7e bf 0f 3e 47 be c0 00 55 3b b5 f0 10 be
       -0.9934804 -0.19457267 0.0032501668 -0.14154322
000220 d6 33 86 be 96 58 ac b7 ed f0 8d bf 1c 87 96 be
       -0.26211423 -2.0545249e-05 -1.108915 -0.29399955
000230 79 d4 91 bc 48 7b 70 35 fa 07 08 bd 26 40 15 be
       -0.01780151 8.9586365e-07 -0.033210732 -0.14575252
000240 3f df 0a bf 8b 24 ba 3c 43 5b 08 bf 63 ba 72 bd
       -0.54246897 0.022722503 -0.53264254 -0.059259783
000250 64 9f 3f 38 b8 98 ad bb 81 e1 70 bc fa 2b 8c bd
       4.5686393e-05 -0.0052977465 -0.014702202 -0.06844325
000260 50 d1 23 3d 1b a0 8f bd 56 77 a8 bd bd 83 2e bd
       0.039994538 -0.070129596 -0.082258865 -0.042606104
000270 86 2f 52 3f 36 bb 35 3b 61 d9 0a be 6a a8 d1 bc
       0.82103765 0.0027729995 -0.13559486 -0.025593001
000280 6c cf d1 3e 68 6f 86 bd 2a 28 69 bc bc 46 8e 3f
       0.40978563 -0.06564218 -0.014230767 1.1115336
000290 81 a9 a6 3e 27 31 77 3a f5 41 94 be d3 95 13 bf
       0.32551196 0.00094296265 -0.2895657 -0.5765049
0002a0 6e f2 5a 3c 5e 31 56 ba e5 21 d3 3c c4 40 4b 3b
       0.013363464 -0.00081708084 0.025772998 0.0031013945
0002b0 a3 64 2f bd 11 e7 02 3b e6 dd 31 bc 66 55 01 bc
       -0.042820584 0.0019974152 -0.010856127 -0.007893896
0002c0 a5 35 b6 be 30 96 65 be f6 c5 26 3c 17 49 cd bd
       -0.35587803 -0.22420573 0.0101790335 -0.100237064
0002d0 01 8c b6 3e b7 2f f1 bc 51 b5 ce 3e ed f6 2a 3b
       0.3565369 -0.029441698 0.40372708 0.002608712
0002e0 b5 c8 03 bd c8 88 18 3e be 24 e0 bd 13 a6 87 3e
       -0.03217383 0.14895928 -0.10944508 0.26493892
0002f0 59 fb 95 3d 73 27 94 3c 3e 26 91 3a 43 04 a2 3d
       0.073233314 0.018085217 0.0011074019 0.07910969
000300 a4 88 3e be 78 cf 1c 3d a2 5a bb 3a ed a3 d1 be
       -0.18606812 0.038283795 0.0014293978 -0.40945378
000310 b9 69 d9 be 2d 4b 45 3c e6 31 79 bd a7 3e 6f 3e
       -0.42463472 0.012041849 -0.060838602 0.23363744
000320 13 7d 9a 3c c5 93 74 b8 de 78 85 3e 5b 67 8c bd
       0.018858468 -5.8311754e-05 0.26068777 -0.06855651
000330 b6 68 2d 3a ac 0d 23 be 4b 79 25 3f 79 d4 e4 bd
       0.00066150294 -0.15923184 0.64638203 -0.111733384
000340 9f b8 4f ba aa 2b 27 be 82 17 a6 3b d0 48 ee 36
       -0.0007923934 -0.1632525 0.0050687203 7.101429e-06
000350 46 76 ca bc 47 78 9c 3b e5 92 d5 39 d1 c1 a5 3b
       -0.0247146 0.0047750804 0.0004073597 0.005058505
000360 b6 7e f7 3b e9 12 b0 3b 4f 61 8d bd 51 3a 07 3d
       0.007552947 0.005373348 -0.06903326 0.0330146
000370 dc b5 8e be 24 4a 42 3d a7 52 15 bd 19 54 9e 3b
       -0.27873123 0.047433987 -0.036455777 0.0048318026
000380 57 19 18 3d 48 a6 bb 3e c4 a6 81 3c e3 58 47 3c
       0.03713354 0.366503 0.01582659 0.012167188
000390 87 c5 c7 be 71 f2 b2 3c 89 d1 22 3c 54 35 cf b9
       -0.3901789 0.02184412 0.009937652 -0.0003952185
0003a0 35 11 d1 be ac 69 5c 3b 9a c2 bd bc e1 98 f6 3d
       -0.4083344 0.0033632321 -0.023164082 0.12040878
0003b0 13 33 52 3c fb 86 67 3b de 4f 18 3a 8f 1c a2 3b
       0.01282956 0.0035328257 0.0005810241 0.004947252
0003c0 6b ec 64 3b 13 e4 59 3c 3b 83 c4 bd 7b f0 e1 bc
       0.0034930955 0.013299006 -0.09595343 -0.02758049
0003d0 e8 ed 52 bc b4 fa d3 bc 70 98 bf 37 1a dd 03 bd
       -0.012874104 -0.02587638 2.2839959e-05 -0.03219328
0003e0 42 bb 2f 3e da d7 40 ba 56 fb 2e bd c8 b4 39 be
       0.17161277 -0.0007356383 -0.04272016 -0.18135369
0003f0 a5 9b 11 bb ea 52 ef 39 95 82 8e 38 00 c5 b1 3b
       -0.0022218016 0.00045647408 6.7954104e-05 0.0054250956

linear.weight f4 [2, 64]
000000 97 86 b6 bd f6 23 5f bc 78 4c 8e bc 76 77 1e 3e
       -0.0891239 -0.013619414 -0.017370448 0.15475258
000010 5d b9 02 3d ae 1a 45 3d e5 45 13 3c 83 87 2f bc
       0.031915057 0.048121147 0.008988832 -0.010713461
000020 fb 65 34 bc 7b dd 55 3c 60 2e 2e 3d 2c d0 c1 3c
       -0.011010642 0.013053293 0.042524695 0.023658834
000030 37 e2 17 3a 5f 61 c1 bc 12 08 d1 be 97 db 0f 3d
       0.00057939015 -0.023606 -0.4082647 0.035121527
000040 5b 98 53 bd 62 1e 73 3c 4e 46 ae bc 0b c7 e6 3d
       -0.05165897 0.014838787 -0.021273758 0.11268433
000050 3e 13 d8 3d 6c 92 54 bd 42 c5 8b bd 3d b0 e7 bd
       0.10550545 -0.05189745 -0.06824733 -0.11312912
000060 1e 89 43 3d ad dd a0 3d dc 71 ac bd 6d 39 b5 3d
       0.047738187 0.07854781 -0.084201545 0.08848844
000070 81 da 34 bc 91 f9 02 3b 27 d1 93 3d 6d 83 01 3e
       -0.0110384235 0.001998518 0.07217627 0.12647791
000080 77 19 fb 3d 86 6b d7 3d c2 db 04 3f 79 18 ca 3d
       0.122607164 0.10518555 0.51897824 0.09867949
000090 94 80 fe 3b eb 25 fa 3d 25 dd 2b 3f 0a 9e 15 bf
       0.0077667926 0.122142635 0.67134315 -0.58444273
0000a0 fb 8c cf bc 6d 1c 0e bd 0a 51 6e 3d 6f 2a c5 3d
       -0.02533578 -0.034695078 0.058182754 0.09627234
0000b0 d9 7a 07 bf 56 a3 64 3d 82 e3 67 3e 85 db a4 3e
       -0.52921826 0.05581983 0.22645381 0.3219873
0000c0 8c 5f a5 bd ae d5 19 bd 93 6c 11 3e ef 19 2d 3e
       -0.08074865 -0.037557296 0.14201574 0.16904424
0000d0 79 2a 2e bd 42 08 12 3e 6d c9 1b bb 00 30 1b bd
       -0.042520974 0.14260963 -0.0023771182 -0.037887573
0000e0 49 95 19 be af 45 da 3c eb f1 6c 3d 29 31 26 bd
       -0.14998354 0.026644556 0.0578479 -0.040574227
0000f0 6e b8 94 bd e8 9b ac bc 09 db 5c 3c da f1 20 3c
       -0.0726174 -0.021070436 0.013479956 0.009823287
000100 15 7f bc bc 29 0e 1b be 7a 48 d7 bc 96 a1 45 be
       -0.023009816 -0.1514212 -0.026279677 -0.19299921
000110 60 80 83 bd 26 a2 7c 3d e5 ea 84 bc b1 7d bc bc
       -0.0642097 0.061678074 -0.016225288 -0.023009153
000120 6f bb 1e 3d a4 2b b5 3c 96 e9 6f 3d e5 bd f3 bb
       0.03875297 0.022115536 0.058572374 -0.0074384087
000130 39 dd 15 bd 96 5e 94 3d 6c 8d ce 3e 9e 8d 8e bd
       -0.036587927 0.07244603 0.4034227 -0.06960605
000140 e6 e6 d6 bd a9 b3 42 3d cb 2b 93 3a de 85 72 bc
       -0.10493259 0.04753462 0.0011228261 -0.014802424
000150 6e 3c 6a bd e0 b2 c4 3c b7 db e1 bc e6 4a ac 3d
       -0.057186536 0.024011075 -0.027570589 0.08412723
000160 b4 65 11 be fb d8 b9 bd f4 55 2c 3e 9f f4 08 be
       -0.14198953 -0.09074589 0.16829664 -0.13374566
000170 4c 15 6c 3d 36 5c b6 bd 6a 14 cb 3c ae 25 1e bd
       0.057637498 -0.089043066 0.024790008 -0.038610153
000180 68 3d d5 bd e5 3e 88 3c c6 83 ff be 4f a7 41 bd
       -0.10412103 0.016631553 -0.49905223 -0.0472787
000190 06 d6 5d 3d be 2e 43 bd 2b 8c 44 bf 5a bb 15 3f
       0.054159187 -0.047652 -0.7677638 0.58489
0001a0 4d 8b 39 bd e5 f0 85 3d 7e f4 32 3d ee 84 2d be
       -0.045298863 0.065400876 0.043690197 -0.1694524
0001b0 f1 9b e7 3e ec 10 b9 bd 09 d8 85 be c5 36 63 be
       0.4523616 -0.09036431 -0.26141384 -0.22188862
0001c0 33 34 b9 bd fd 6d 17 bc a0 92 57 be c9 b3 ae bd
       -0.09043159 -0.009242532 -0.21052027 -0.08530385
0001d0 23 ba a4 3d ea 82 26 be c7 e6 e4 3a 27 68 2e bd
       0.08043315 -0.16260877 0.0017463797 -0.042579796
0001e0 b9 ec 26 3e 4a de 06 3d 4b 8c c9 3c e8 1d 26 3d
       0.1630124 0.032926835 0.02460303 0.040555865
0001f0 f6 cc 17 bd 54 58 49 3d c4 11 b7 bd 00 84 b8 bd
       -0.0370607 0.049156502 -0.089389354 -0.09009552

linear.bias f4 [2]
000000 9b 4c eb bc b6 af e1 3b
       -0.028723052 0.0068874015
